campusMCM/lstm6.pth (torch, 23687 bytes, 9 tensors)

rnn.weight_ih_l0 f4 [80, 3]
000000 b4 5a 95 3e bd f3 24 3e 6a 28 68 be 79 08 a4 3f
       0.29170763 0.16108604 -0.22671667 1.2815086
000010 48 82 c7 3d 29 1a 44 3f 52 9d 54 be 67 54 71 3e
       0.09741646 0.7660242 -0.20763138 0.23567353
000020 4e e0 09 3e 92 b7 16 3e 8f b1 ae 3d 50 84 20 be
       0.13464472 0.14718464 0.0852996 -0.15675473
000030 0c 97 c4 3d c9 8b f8 bd 7b 53 db 3f 9c 17 59 be
       0.095991224 -0.12136037 1.7134851 -0.21200413
000040 33 35 bc be 18 f1 24 40 65 af 0a 3d 52 fc 43 be
       -0.36759338 2.5772152 0.033858676 -0.19139221
000050 f4 eb cf 3d 64 11 76 bd ca 31 cd 3e f8 c7 d3 be
       0.10152426 -0.06007518 0.4007705 -0.41363502
000060 b1 4b ae bd 32 e0 55 3e 6c b1 99 be 62 90 63 be
       -0.08510531 0.20886305 -0.30018175 -0.22223046
000070 ad 1f 2f be d7 83 b5 be 1c 4b 47 3e 1a 7d 4a bf
       -0.17101927 -0.35452148 0.19462246 -0.7909714
000080 c7 b3 92 3e a7 d7 1d bc 03 a6 f1 3d bf 77 5e be
       0.28652784 -0.009633935 0.11799242 -0.21725367
000090 d2 0b 64 3e ce e3 11 3d 0d 47 d6 3d cf ca 1a bf
       0.22270134 0.035617642 0.104627706 -0.6046571
0000a0 13 bb 43 3d c7 19 9f bd 31 b7 21 3f b6 77 23 3b
       0.04778583 -0.077685885 0.6317015 0.002494318
0000b0 96 d8 59 40 be a5 22 3e c0 7d 66 3e 53 1a 14 be
       3.4038444 0.15883538 0.22508907 -0.14463167
0000c0 13 46 b7 be e1 bd 14 3e 79 f2 b0 3e 49 dc ae 3d
       -0.3579565 0.14525558 0.34559992 0.0853811
0000d0 27 fe 02 3e 0a 74 0c 3d 20 ed 8b be 1c 24 46 3e
       0.12792264 0.03429035 -0.2732935 0.19349712
0000e0 62 fe ee bc 0b c6 ea 3d ba 0c 26 be 8d 02 6a be
       -0.029174034 0.11463555 -0.16215792 -0.22852536
0000f0 8c cf e7 3e 5b 12 25 3d 8c b0 10 3d 76 45 e3 3e
       0.45275533 0.04030071 0.03532462 0.44388932
000100 f5 5b 3c 3f 81 4d d9 3e 4d ca f0 bc ef 29 ef bb
       0.73577815 0.42441943 -0.02939334 -0.0072987
000110 35 00 97 bd fb f1 e8 3d 09 b2 d6 3d 9a 1c 69 be
       -0.07373086 0.11374279 0.10483176 -0.22764817
000120 ad ca c6 3e 1e 97 e0 3d 14 56 7d 3f bb a2 aa be
       0.38826504 0.10966323 0.9895947 -0.33327278
000130 9d cb df be 9f 99 d4 3f 67 63 b5 bc 8f fb 81 be
       -0.43710032 1.6609381 -0.022142125 -0.25387236
000140 f2 58 6d be f6 36 38 be da e9 5f be de f9 fc be
       -0.23178461 -0.17989716 -0.21866551 -0.49409384
000150 da d9 1c 3e 2f 81 30 bc 4e 70 cd be 98 0d 4b bd
       0.15317479 -0.010772987 -0.40124744 -0.04957351
000160 02 f3 ed 3d 1a ec 77 be 63 59 8d be 8b 7a 40 bf
       0.11618616 -0.2421116 -0.2760726 -0.75186986
000170 21 c5 2e 3f 10 3e 62 be 36 a4 6f be 6c ad 11 be
       0.68269545 -0.22093987 -0.23402485 -0.14226311
000180 de d0 05 be 42 c6 48 3d 26 ad f4 3d 42 ee f3 be
       -0.13067958 0.0490172 0.11947088 -0.47642714
000190 03 94 a1 3e 9b 12 e3 3e b0 34 ec 3e 15 ec 23 3f
       0.31558236 0.44350132 0.46133947 0.6403211
0001a0 80 b7 4b 40 06 54 9e bb 1d b1 0b 3b 9d 92 77 bc
       3.183075 -0.0048317937 0.0021315285 -0.015110639
0001b0 5d 14 25 bf c0 8a 51 3e f6 46 fe bf 7e ae e9 bd
       -0.64484197 0.20463085 -1.9865406 -0.11410235
0001c0 80 35 77 3d 6e e2 25 be 81 55 14 be 13 7d 51 3e
       0.060353756 -0.16199657 -0.14485742 0.20457868
0001d0 42 a9 8c 3c df 86 e3 bd f5 b6 18 3e aa 8f 62 3d
       0.017170552 -0.11109709 0.14913543 0.05531279
0001e0 1c 7f f0 be 9b b6 78 be 35 ca 1c bf 60 fd 6d bd
       -0.46971977 -0.24288408 -0.61246043 -0.058102965
0001f0 d2 6b 21 bf c4 20 56 bf 3e 2f 11 bd 18 26 44 be
       -0.63055146 -0.83643746 -0.035445444 -0.19155157
000200 f2 a2 be bd 05 e0 68 3e a4 5c 87 3e 17 2f ca be
       -0.09308423 0.22741707 0.26437867 -0.39489052
000210 0c 4f 13 bf 95 9b 6e 3d fe 56 92 bf 54 f9 1c 3f
       -0.5754249 0.058253843 -1.1432798 0.61317945
000220 d8 fb 00 3d 5b e7 00 40 1a 58 1d bd fa 40 26 be
       0.031490177 2.0141208 -0.0384141 -0.16235724
000230 7c 31 95 3e e7 be 28 be 47 55 ca 3e 20 c3 b6 3d
       0.29139316 -0.16479073 0.39518186 0.08923936
000240 e7 df 92 be c3 da 0f 3e 71 c9 13 3d 16 3e 85 3e
       -0.2868645 0.14048295 0.03608078 0.2602393
000250 4f bb ca bd c1 a7 e3 3e b4 5a 99 3d af d7 69 be
       -0.098990075 0.44463924 0.074880034 -0.22836183
000260 73 f0 83 3f 34 e4 e2 3d 44 c4 a8 3e 01 c1 db 3e
       1.0307754 0.110786825 0.3296224 0.42920688
000270 8d ce af bc 6e 20 29 3e 27 c2 5d bd bb 08 f1 be
       -0.021460796 0.16516277 -0.054140236 -0.47076973
000280 f0 28 36 bd 71 1f 57 3e b5 f3 e5 be 96 58 14 be
       -0.044472635 0.21008088 -0.44912496 -0.14486918
000290 a5 7c 05 c0 02 e5 41 bd e7 b8 e6 bd a0 68 5e 3e
       -2.0857327 -0.04733754 -0.11265736 0.21719599
0002a0 81 fc 76 bf 1b 96 8d 3d b3 87 c9 bf 3c 47 ef 3d
       -0.9647904 0.06913396 -1.5744537 0.11683509
0002b0 a3 3e b8 3e 0c 40 49 3e 56 6b a7 be a6 cb f6 3e
       0.35985288 0.19653338 -0.32699078 0.48202246
0002c0 a8 5f 03 bf 21 3e 93 be c8 d1 fa bc 90 45 d2 be
       -0.51317835 -0.28758338 -0.03061761 -0.41068697
0002d0 c5 47 e4 3d ee 59 47 be 21 1b 61 be 07 f0 fe 3f
       0.111465015 -0.19467899 -0.21983005 1.9917
0002e0 b7 ba 0c 3f ec 23 58 3e f6 e7 93 3e 47 d3 68 3e
       0.54972404 0.21107453 0.2888791 0.22736846
0002f0 b7 1b 8a be a0 34 21 3f c7 ed e3 3d e6 ee b5 be
       -0.2697427 0.62970924 0.11129337 -0.35533828
000300 c1 0e fa be 92 0d 39 bd 74 31 0d 40 d6 4e c4 bf
       -0.4883938 -0.045178957 2.2061434 -1.5336559
000310 84 9c 59 bf 7f 88 5d 40 44 f1 af be 12 6c 87 be
       -0.8500445 3.461456 -0.3436376 -0.2644964
000320 e7 0d 1a 3d fd 63 46 3f b3 3a b2 39 76 82 6a bf
       0.037610915 0.7749632 0.0003399454 -0.9160532
000330 3f 4a 39 3e 08 e4 83 bd f8 9b cf be 80 81 90 be
       0.18094729 -0.06439978 -0.40548682 -0.282238
000340 a3 4e 26 be 29 36 97 be 65 4d bb 3d 9d 03 a3 bf
       -0.16240935 -0.29533508 0.09145621 -1.2735478
000350 15 1d 05 40 6e eb c4 3d 70 d1 da 3c ca 1b 73 be
       2.0799 0.09615217 0.026711196 -0.2374107
000360 e3 84 39 3e f3 37 28 3c 12 6d f1 3d a8 0e db 3e
       0.18117099 0.010267246 0.11788382 0.4278462
000370 a4 de 8b 3f be e6 0e 3e 25 a7 8b 3c 8a be 03 be
       1.092732 0.13955209 0.017047474 -0.12865654
000380 c4 69 b9 40 f6 e6 90 3e ee f5 57 bd d2 4d 8d be
       5.794161 0.2830121 -0.05272477 -0.27598435
000390 8f 25 ca bf d8 90 49 3f 18 2e 57 bf 51 f4 bf 3d
       -1.5792712 0.7873664 -0.8405471 0.093727715
0003a0 e5 09 48 3c a0 1f e4 3d d1 9e e3 bd 46 74 a3 3e
       0.01220939 0.111388445 -0.11114276 0.31924647
0003b0 f0 c3 8f be 6f 26 78 be 3c b0 e2 3d 8e 35 02 3e
       -0.28079176 -0.24233411 0.1106877 0.12715742

rnn.weight_hh_l0 f4 [80, 20]
000000 b4 37 52 bd 42 62 e4 be 23 47 89 3d 01 01 28 be
       -0.051322654 -0.44606215 0.067030214 -0.16406633
000010 95 94 4b be 9b 77 a1 3e 04 d8 1a 3e 33 37 42 3e
       -0.19880898 0.31536564 0.15121466 0.1896637
000020 58 c1 a3 bd 7b a8 c3 3b 8c 9f c7 bd 21 fb 9e bd
       -0.07995862 0.005971012 -0.09747228 -0.07762743
000030 99 f8 1f 3d 1f df 30 3e 5b 73 0f bd 74 e3 00 bc
       0.03905544 0.17272614 -0.03502212 -0.007866729
000040 a7 7e 68 3e 29 0b 62 be 15 55 68 be 0e 44 19 be
       0.22704564 -0.2207457 -0.22688706 -0.14967367
000050 88 21 27 bf a5 ba 85 be b4 3e ac 3d 54 d2 dd 3d
       -0.6528554 -0.2611896 0.08410397 0.108311325
000060 d3 f0 70 be 0a 1d 88 3e b6 14 e4 3d 75 1d 50 bd
       -0.23529367 0.26584655 0.11136763 -0.050809342
000070 c7 06 c7 3d 3a 3e 3f 3c e9 3f af 3e 7b 6c 08 3f
       0.097180896 0.011672551 0.34228447 0.5329053
000080 ee 08 f3 3d 3a 0f a9 3e c2 8a 2c be f7 9c 3b 3e
       0.118669376 0.3301943 -0.16849807 0.18321596
000090 bf ca c2 3e 82 89 6e be d3 49 62 3e fc 90 f0 3c
       0.38045308 -0.23294643 0.22098474 0.029366009
0000a0 d6 5e 80 be ab 9f bf bd 38 88 9d 3d 09 0f be bd
       -0.25072354 -0.09356626 0.07691997 -0.092802115
0000b0 45 3c 90 3d 4c a8 9e 3c ee b3 28 bd 7e fd 50 bd
       0.070427455 0.01936736 -0.04118722 -0.051023
0000c0 80 61 2a 3d d8 f4 4a 3e 9d c9 8b be c6 6b 8b bd
       0.04159689 0.19819963 -0.27302256 -0.068076655
0000d0 24 3c 9c bd 99 0f 17 be 24 2a 3a 3c 60 f0 8c 3d
       -0.076286584 -0.14752044 0.011362586 0.068817854
0000e0 ba 39 b8 3e 39 32 d7 bd fd 2a 15 3d 8a 89 f0 3c
       0.35981542 -0.10507626 0.03641795 0.029362459
0000f0 df 6a 0a be 37 3d 0f 3f 8d 32 7c 3e cf e1 42 be
       -0.1351733 0.5595278 0.24628659 -0.19031452
000100 80 58 63 bd c9 c9 f1 3d a2 75 03 3e 5e 42 1a be
       -0.055504322 0.118060656 0.12837842 -0.1506438
000110 0b 1f 31 3e 7b e8 25 be 46 3d fd bd dd 24 08 be
       0.17296998 -0.16201966 -0.123652026 -0.13295312
000120 46 61 4a bc 7a 08 99 bd 17 87 9d 3e 17 45 1e be
       -0.012352293 -0.0747232 0.30767128 -0.15456043
000130 2d a0 41 3d 73 ef ad bd 9d d5 53 3d d8 d3 53 3d
       0.047271896 -0.08492937 0.05171739 0.0517157
000140 f1 d3 c5 bc df 3b 10 bf a2 ba 88 3e 02 d4 15 3d
       -0.024148913 -0.56341356 0.2670489 0.03657914
000150 3e a5 0c 3d 61 d5 46 3e 22 3e dd bc 3d 68 7f bc
       0.034337275 0.19417335 -0.027007166 -0.015588817
000160 4e 25 4d be bd 78 bc 3d 51 ba a0 3d 8b f0 d0 3d
       -0.20033762 0.092027165 0.07848037 0.1020213
000170 cf 8c 7f be 2e 90 4c be b9 48 a3 bd 4c c8 53 bd
       -0.24956058 -0.19976875 -0.07972855 -0.05170469
000180 37 ff 64 3e 15 c2 92 be 63 2d a8 bd 62 ef 12 be
       0.22362982 -0.28663698 -0.08211782 -0.1434913
000190 e9 66 7a 3e 9c d9 53 bf b3 52 d9 bc 02 42 22 bd
       0.2445332 -0.8275392 -0.026528692 -0.03961373
0001a0 8f 90 63 3d 68 2d 92 bd 13 35 8b 3e a4 9d fa 3d
       0.055557784 -0.07137567 0.2718893 0.12237099
0001b0 2d da b5 3e 8b bb 51 be fa c6 c2 3e 42 68 06 bd
       0.35518017 -0.20481698 0.38042432 -0.03281427
0001c0 b9 7d c7 3e 63 11 6b 3e 73 94 76 bf ec c1 c5 3d
       0.38963106 0.22955851 -0.96320266 0.09656128
0001d0 33 9a b5 3e 4e a0 60 bd 3b 3e 1b 3e 3d f1 5f be
       0.35469207 -0.05484038 0.15160458 -0.21869369
0001e0 e5 af 91 be b3 4c 15 be 62 7a 3c 3e 5c 3c 48 3d
       -0.2845451 -0.1458004 0.1840606 0.04888569
0001f0 63 92 e6 3d 0e e1 19 3c 54 9d 04 3e 97 d6 d3 bb
       0.1125839 0.009392036 0.12950641 -0.00646479
000200 65 e9 7e bd 9d 8f dd bd c6 60 39 3d 8d f3 87 bd
       -0.0622343 -0.10818408 0.045258306 -0.066382505
000210 52 b5 fa 3c ef 33 87 be 2a 98 bf 3d 3c 18 14 3e
       0.030604038 -0.2640681 0.09355195 0.1446237
000220 10 a1 1a be 30 a4 c1 3d 81 2e e4 3d a5 f4 53 be
       -0.15100503 0.094551444 0.111416824 -0.20698793
000230 5b bf 30 be 7e df 99 be 5d 10 3a be 5e dc 3c be
       -0.17260496 -0.30053324 -0.18170305 -0.18443438
000240 58 42 1e 3d f5 a1 b8 bb 61 b4 33 be a7 5f a6 bd
       0.03863749 -0.005634541 -0.17549278 -0.08123713
000250 23 dc 78 be 36 f5 65 3d 57 8b e6 bc 55 2e 1d 3e
       -0.24302725 0.056142054 -0.028142614 0.15349706
000260 c8 16 f1 bd f4 f7 88 3e 66 91 5f be d9 19 83 3e
       -0.11771923 0.26751673 -0.21832809 0.25605658
000270 00 bd d7 3e cf 0c e7 bc f9 f5 88 3c e0 a8 02 3d
       0.42136383 -0.02820435 0.016718851 0.031899333
000280 17 ef f4 bd 6e 92 f5 be 81 fa e3 3d 9d c5 47 3e
       -0.11959665 -0.4796328 0.11131764 0.19508977
000290 74 7e 40 be 8b bd cc 3d 8d 64 25 be 9d 6c 4d be
       -0.18798238 0.0999709 -0.16151638 -0.20060964
0002a0 5d 61 92 bd 69 82 0a be 9d 58 69 be 09 2c 73 3e
       -0.07147477 -0.1352631 -0.2278771 0.23747267
0002b0 d7 e7 82 3d 31 56 3b be 1d 1e 75 be 3e ec f4 3d
       0.06391876 -0.18294598 -0.23937269 0.11959122
0002c0 0e a7 94 3e 1a 61 9e 3d b7 66 10 be ff 31 9d bd
       0.29033703 0.077333644 -0.14101683 -0.076755516
0002d0 6d 02 de 3d 0e ec 94 3e 1e 9e 12 3d 2a b3 83 be
       0.108403064 0.29086345 0.035795324 -0.2572263
0002e0 59 af 5f 3e 66 26 89 3d a1 b5 1b be bd 64 5d be
       0.21844234 0.06696777 -0.15206005 -0.2162046
0002f0 37 aa 36 3d ff 53 3d 3e 53 9b 20 be c2 76 4e 3e
       0.044595923 0.18489073 -0.15684251 0.2016249
000300 08 7e a4 3d 5f 2a 9b bd 1d 9b a0 3e e6 22 c0 3d
       0.08031851 -0.07576441 0.31368342 0.09381656
000310 d6 19 c1 3c 6e 6c 24 3c cc 9f 2f 3e 03 93 55 be
       0.02357189 0.010035617 0.17150801 -0.20856862
000320 0d 49 98 be d5 bf 17 bf 67 7e 20 3e 2e 93 20 be
       -0.29743233 -0.5927709 0.15673219 -0.15681145
000330 8e 08 93 be e1 8d 83 3e 16 4c 9a bc 59 1a 32 3e
       -0.28717464 0.25694183 -0.018835109 0.17392863
000340 6a 95 1d bb f4 5f ca 3d 13 7d 01 3f b1 2c 9e 3e
       -0.0024045357 0.09881583 0.50581473 0.30893472
000350 72 65 90 bd 44 7a 2a 3e 1e 60 04 bf 8d cb 2a bd
       -0.07050599 0.16648203 -0.51709163 -0.041698027
000360 07 f6 97 3e 1e 11 a9 3d 71 b4 0b 3e 3f 4a 56 bd
       0.2967989 0.08255218 0.13643052 -0.0523169
000370 30 8a 40 be 90 5b ef be af b3 43 3e 05 39 c4 3d
       -0.18802714 -0.46749544 0.19111513 0.09581188
000380 84 99 11 3d e9 e2 81 bd b7 3a 25 3e e9 42 7d be
       0.035546795 -0.06342108 0.16135679 -0.24732555
000390 12 f1 74 be dc 0e e2 3d fe f8 ff 3d 90 0d 09 be
       -0.23920086 0.110379905 0.12498663 -0.1338408
0003a0 5f 17 a8 bb fc bb ba bd a9 bb c0 be 7c 2a 07 be
       -0.005129739 -0.091178864 -0.37643173 -0.131998
0003b0 59 dd 16 3d f7 0a 4a 3d aa 93 3f be b2 70 f8 bd
       0.036832187 0.049326863 -0.18708673 -0.1213087
0003c0 09 ae 3d bd ce 4d 71 3e f3 99 08 be 11 5b e2 3d
       -0.04630855 0.23564836 -0.13339977 0.11052526
0003d0 13 08 8c bd 00 3d 6c be 49 46 69 bd 2b 98 e2 bd
       -0.068374775 -0.23070145 -0.056951795 -0.1106418
0003e0 a3 0a 2e 3e 6d 55 11 3e e7 9f a5 be 79 78 95 bc
       0.16996245 0.14192744 -0.32348558 -0.018245922
0003f0 06 ca c8 bc cd b0 19 be 0f eb 60 bd 69 77 f4 3d
       -0.024510395 -0.1500885 -0.05491167 0.11936838

rnn.bias_ih_l0 f4 [80]
000000 88 50 58 3e 75 f9 8f 3e c0 df 13 3e 87 f2 25 bd
       0.2112447 0.28120008 0.14440823 -0.040514495
000010 72 67 2d 3e e9 d1 c3 3e 94 e9 2d be 44 fb 96 3d
       0.16933993 0.38246086 -0.16983634 0.07372144
000020 35 e5 dd bd 2f b7 af 3d ea 06 8b 3d a5 bd de bd
       -0.108347334 0.085798614 0.06788428 -0.108760156
000030 af 43 42 be fc 47 24 3e 8e 0a 23 3e ac ae 94 3d
       -0.18971132 0.16043085 0.15921995 0.072598785
000040 4a cf 62 3e 96 84 e4 bd 42 9d 73 be 39 4a 3f 3e
       0.22149387 -0.11158101 -0.23790458 0.18680657
000050 50 2b 1b 3d c1 ce 84 3e 06 c1 1b 3e 9c e4 f9 bd
       0.037883103 0.2593899 0.15210351 -0.12201807
000060 87 97 29 be 6e 6a 1b 3b 34 11 99 be 43 36 07 3e
       -0.1656171 0.002371456 -0.29895937 0.13204293
000070 75 ed 5e 3d 8a 96 69 be 3d ee 15 3e 5d 19 22 bd
       0.054425675 -0.22811332 0.14641662 -0.03957497
000080 49 de 09 be 61 50 91 3e 67 76 b6 bd 5a ec 2e be
       -0.13463701 0.28381637 -0.08909302 -0.17082348
000090 3f f4 d2 bd 01 43 88 bc f5 35 27 be de a8 b3 bd
       -0.103004925 -0.016633512 -0.16329177 -0.08772443
0000a0 7b cc af bd 9d ff 0e be 4e 2b 09 be 3b 91 de 3d
       -0.085839234 -0.13964696 -0.13395426 0.10867544
0000b0 ca c1 c3 3d 50 cb d8 bd 3f c6 15 3e 69 04 81 3e
       0.09558447 -0.10585654 0.14626406 0.25198677
0000c0 f2 b2 ef bd c7 d3 e3 bd bb 0e 58 3b e0 67 75 bd
       -0.11704053 -0.11124378 0.0032967764 -0.059913516
0000d0 57 1c f6 bc 33 b5 aa 3d 7c 0e 21 be 44 b1 6a 3d
       -0.03004281 0.08335342 -0.15728182 0.05729796
0000e0 16 28 95 3d f1 8b 2c be 07 a0 30 3d e2 2b 28 ba
       0.072830364 -0.16850258 0.043121364 -0.00064152305
0000f0 27 1c 32 be e5 32 1a 3e d5 b6 e7 3d 1f 33 80 3c
       -0.17393552 0.15058477 0.11314169 0.015649376
000100 eb 1c d3 bc 57 bd a3 bc 4d d2 37 bd b0 9a ba 3d
       -0.025770625 -0.019987745 -0.044878293 0.091115355
000110 43 d1 35 3d 08 9c 56 bb 39 86 e1 3d d3 3e 87 be
       0.04438902 -0.003274681 0.11011929 -0.2641512
000120 c7 ca 1f be 7b 1f 21 3e e2 5c 47 3d 0e a7 38 3d
       -0.15604697 0.15734665 0.048672564 0.04508119
000130 a0 90 2e 3e 95 f1 dd bd 52 bf 0a 3e e7 85 aa bd
       0.17047358 -0.10837094 0.13549545 -0.08326321

rnn.bias_hh_l0 f4 [80]
000000 75 fb 8e 3c bb 60 d5 3d c7 2e 07 be e8 e9 38 3e
       0.017453888 0.104188405 -0.13201438 0.18057978
000010 0e f1 08 bd ab a8 23 bc ae 12 e7 bd e3 ba c5 bd
       -0.033433013 -0.009988944 -0.1128286 -0.096547864
000020 f4 7e 15 3d e6 6f fb bc ec 69 cc bc 06 f8 f5 3d
       0.036498025 -0.030693006 -0.024952851 0.12010197
000030 93 14 10 be 13 6e 31 bb 82 cb 32 3e 0d 12 bb 3d
       -0.14070348 -0.0027073666 0.17460445 0.09134302
000040 2a f4 19 3e d1 5d 2d be 69 68 0f 3e e1 62 2e 3e
       0.15034547 -0.1693032 0.14004673 0.17029907
000050 23 fd 68 3e 52 32 bf 3e 8f 31 03 be 60 8e 84 be
       0.22752814 0.3734308 -0.12811874 -0.25889874
000060 da ae 88 3c 75 77 9a bc af 5e 90 be 7c 67 d8 bd
       0.016684938 -0.01885579 -0.28197238 -0.10566613
000070 35 4c 0b be 1f aa ea 3c 35 f2 bd 3e f2 3c 2b bc
       -0.1360329 0.028645573 0.37098852 -0.010451542
000080 ab dc a6 bd af 6d 5e 3d 29 ba 06 3e 3e a2 00 be
       -0.08147558 0.05430382 0.13156952 -0.1256189
000090 c2 be 53 be a4 41 d7 3d 6f e7 08 be 4f 49 ff bd
       -0.20678237 0.10510567 -0.13369535 -0.124651544
0000a0 66 8e 05 3e 25 22 86 3e af 39 ba 3d c0 dc 04 3e
       0.13042602 0.26197925 0.090930335 0.12974834
0000b0 c9 c0 33 bd 23 a5 c4 3c 4d a9 05 be e6 1d b4 bd
       -0.043885026 0.024004525 -0.13052864 -0.08794765
0000c0 b7 eb 55 3e 01 ae 03 be 04 a7 2e 3d 47 1e c6 bb
       0.208907 -0.12859346 0.042639747 -0.00604609
0000d0 59 16 06 3e 5a 8d b8 3d 59 96 f1 3c 29 70 0c be
       0.13094462 0.09011336 0.029490637 -0.1371466
0000e0 24 b1 37 3d 66 90 40 3e d3 7f e7 3d d6 b7 da 3d
       0.04484667 0.18805084 0.113036774 0.10679595
0000f0 8b dd 2d be af 33 36 3e 79 ed 12 3e 35 b2 23 be
       -0.16979043 0.17793153 0.14348401 -0.1598595
000100 26 bf 20 3e b1 3d 66 bd 50 59 be bd 8e 4a 5f 3e
       0.15697917 -0.056211177 -0.09294379 0.21805784
000110 b0 ea 9d bd 15 4d c5 3c ad 8a 52 bd 34 18 9e bd
       -0.07710779 0.024084607 -0.051401783 -0.0771946
000120 cf dd 0f 3b 24 01 ab bd 37 3b 13 3e af 8c 04 3d
       0.0021952277 -0.08349827 0.14378057 0.03236073
000130 ce 3a a0 3e 76 04 6e be 9f c2 b4 3d d8 24 0e 3e
       0.31294864 -0.23243889 0.088261835 0.13881242

rnn.weight_ih_l1 f4 [80, 20]
000000 6b 2e 52 bd f6 db be be 7c 87 9f 3d fe 96 49 3d
       -0.0513138 -0.37277192 0.077895135 0.049216263
000010 6f ff 74 bc 79 89 9b 3d f1 6b a6 3d f3 fb 83 3c
       -0.014953478 0.0759458 0.08126057 0.01611135
000020 fa 8c 0f 3e 67 37 0c 3e 6f 76 40 3c ac d8 d3 3d
       0.14018622 0.1369301 0.011746987 0.10344061
000030 a5 bb 4d be 80 db 2b be a0 bd 69 be 6b 23 75 3c
       -0.20091112 -0.16782951 -0.22826242 0.014962058
000040 90 86 e8 3d cf d9 66 bd a6 94 56 be ab c2 9a bd
       0.11353791 -0.056360062 -0.20955142 -0.07556661
000050 76 1c 7d 3c d9 8f 11 3e ae b4 37 3e 0c c0 c4 3d
       0.01544868 0.1421503 0.17940018 0.096069425
000060 d9 94 7a 3d a7 90 0f bd 3c d3 e1 bd 9d ed 25 bc
       0.06117711 -0.03505006 -0.11026618 -0.010127452
000070 c1 4f ac bd d3 0c a9 3c 1c 20 3c be ad fd 0f be
       -0.08413649 0.020635998 -0.18371624 -0.14061613
000080 b7 51 a1 be 7e 20 d7 bd 39 a7 2e bd ac 96 4c bd
       -0.31507656 -0.10504244 -0.042639945 -0.04994838
000090 bd 9c 66 be ce fd 45 3d 39 e5 34 be f5 a3 ca 3d
       -0.22520728 0.04833775 -0.17665567 0.098945536
0000a0 93 9a 25 3e 12 25 94 bf e2 d8 11 be 9a a9 6b be
       0.16172247 -1.1573813 -0.1424289 -0.23013917
0000b0 a6 85 1f bd eb 78 36 be 33 52 b8 bc 57 22 a9 3d
       -0.038945816 -0.17819564 -0.022500133 0.08258503
0000c0 e0 04 fb bc a2 b4 47 bd 19 a3 a7 3d a8 db ce 3d
       -0.030641973 -0.04875625 0.08185405 0.1010049
0000d0 37 cc 4f be 45 25 71 3d e0 99 81 bd 0d 46 9a bd
       -0.20292746 0.058873434 -0.063281775 -0.075328924
0000e0 ee 20 9f 3c 9d a6 f4 3d d3 10 2e 3e 25 b9 13 3e
       0.019424882 0.119458415 0.16998605 0.14426096
0000f0 a6 0d ef bd 69 23 a3 bd 65 a6 eb bd 89 60 87 ba
       -0.11672525 -0.07965738 -0.115063466 -0.0010328452
000100 94 d1 5c be 30 27 80 be f8 c5 c4 3d 79 7b 82 3d
       -0.21564323 -0.25029898 0.09608072 0.06371207
000110 99 75 fe 3d b2 3e 22 be 23 23 5a be 49 30 bf 3d
       0.12424774 -0.15844229 -0.21302466 0.093353815
000120 9e 8e d5 3d 62 93 0c 3e 39 9a a2 3d 4f d6 27 be
       0.10427593 0.13728097 0.07939572 -0.16390346
000130 d2 91 08 3e 1e 1b 2b bd d9 1e 29 be 46 90 d3 bd
       0.13336876 -0.041773908 -0.16515674 -0.10330252
000140 67 f0 83 be 34 3b 63 bf c5 99 e8 3d fa 7b e9 3d
       -0.2576935 -0.8876221 0.11357454 0.114006
000150 1d 87 5d be d4 cc 38 be ab 15 4c 3e 62 5b 85 3d
       -0.21633573 -0.18046886 0.1993014 0.065115705
000160 f2 e9 dc 3c 90 09 a5 bd f3 55 1a be 89 e4 63 bc
       0.026967023 -0.080584645 -0.1507185 -0.0139094675
000170 8c 35 24 3e fa 0a 5f be 99 d1 ff 3d e2 7d 60 bd
       0.16036052 -0.21781531 0.124911495 -0.05480755
000180 06 36 91 3d 1a 45 7e 3c c9 68 6a be 6e 7e 66 be
       0.07090382 0.015519405 -0.22891535 -0.22509167
000190 98 06 4a 3e 72 f6 95 3e 44 25 16 3e af 24 03 3e
       0.19729078 0.29289585 0.14662653 0.12806962
0001a0 90 3c 38 3e b5 48 66 be 97 a0 9f 3c e7 ee 2b be
       0.17991853 -0.22488673 0.019485755 -0.16790353
0001b0 9c df 4a 3e ef 75 26 be 56 ee b9 be 5c b6 6b be
       0.19811863 -0.16255926 -0.36314648 -0.23018783
0001c0 07 d5 2b 3e f3 37 e1 3d 56 98 74 3e 2a bc 18 be
       0.16780482 0.109969996 0.23886237 -0.14915529
0001d0 2d e9 1c 3e 56 fe b4 bb b3 1a 33 3d 5d 8a dc 3d
       0.15323325 -0.0055234833 0.043726634 0.10768578
0001e0 bd 6c 14 3d 6a 08 12 c0 68 f1 e6 bd ec 10 8b be
       0.036236513 -2.2817636 -0.11276513 -0.27161348
0001f0 98 d5 31 bf 09 b5 9b 3f 2d c4 69 3d f5 a0 b5 3e
       -0.69466543 1.2164623 0.057071853 0.35474363
000200 1c 8d c1 3e e1 6e 3e be 95 98 9b 3f 2c 70 20 bd
       0.3780297 -0.18596984 1.2155939 -0.039169475
000210 97 1f 71 3e ed 6e 56 3f 64 32 dc bf 5a 40 e8 3e
       0.23547207 0.8376301 -1.7202878 0.45361596
000220 38 e8 56 3e 93 b0 ec bd b6 9e 36 3e 06 87 3d bd
       0.20987022 -0.11557116 0.17833981 -0.046271347
000230 27 5f 8b bc ba a0 45 bc e3 a9 2a 3e 7e 58 bd bb
       -0.017013146 -0.012062246 0.16666369 -0.0057783714
000240 e0 a7 ef 3d ad 42 33 be 4a 1a e8 3d c0 55 64 3d
       0.117019415 -0.17505904 0.11333139 0.05574584
000250 7c fb fc bd 14 b7 12 3e 87 1c 9e 3d 0b 83 88 3d
       -0.12352654 0.14327651 0.07720285 0.066656195
000260 5d a4 a0 3d 90 d4 42 bd 4b d5 e0 3e 2c 0c 51 bd
       0.0784385 -0.047565997 0.4391273 -0.051037
000270 3c af be 3d dc e0 ca 3d a9 5b 15 be 00 de ae bd
       0.09310767 0.0990617 -0.14585747 -0.08538437
000280 f8 b3 93 3d 95 ef 81 be dd d6 5f 3e 02 9d ca bd
       0.07212061 -0.253781 0.21859308 -0.09893228
000290 b7 13 47 3e 22 e6 66 bd 42 5a 11 be 74 8d d2 3d
       0.19441114 -0.056371816 -0.14194587 0.10280886
0002a0 c4 51 44 be 52 1c bb bd 27 ea f1 bd 3a b7 32 be
       -0.19171816 -0.09136261 -0.11812239 -0.17452708
0002b0 ce 2e 63 be 28 92 09 3e 20 43 c8 3e 79 ed ab bd
       -0.22185823 0.1343466 0.39113712 -0.08394904
0002c0 7a 42 98 3e f5 29 11 bd bc e5 25 be 0e 8f 0e be
       0.29738218 -0.035440404 -0.16200918 -0.13921759
0002d0 d5 17 cf bd 19 fb 6b bb d8 46 93 bd 70 5a 40 3d
       -0.101119675 -0.003600782 -0.07191247 0.046961248
0002e0 2d c5 c2 bd c2 04 ba bd 7d 7a 8a 3d c2 26 c7 bd
       -0.095102645 -0.09082939 0.06761644 -0.09724189
0002f0 56 0b f1 3d 89 1c 10 be 2c cb 26 be 12 71 55 bd
       0.1176974 -0.14073385 -0.16288441 -0.052109785
000300 4b 8b 8b bb c0 8e c3 3c 70 aa 3b 3e 0d 33 0b bd
       -0.0042585484 0.02387178 0.18326735 -0.033984233
000310 a1 9b 73 3d 7f 8c 34 bd 0f 49 ee bd a6 39 da 3d
       0.05947459 -0.0440793 -0.116350286 0.10655527
000320 5e 46 07 bd 17 d0 98 3d b7 f3 3b be f3 0a dd bd
       -0.03302609 0.07461565 -0.18354689 -0.10793104
000330 fd 01 5e 3d ef b9 c5 3d 11 1b 70 bd c8 a7 0d 3e
       0.054201115 0.09654605 -0.058619563 0.13833535
000340 fa 24 22 bd 7a 52 9a bc 74 e9 9b be 5c 52 65 3d
       -0.039586045 -0.018838156 -0.30451548 0.055986747
000350 01 89 60 be 44 70 33 3e de 66 a0 3e 4c e8 54 be
       -0.21927263 0.17523295 0.3132848 -0.20791739
000360 9f ad 36 3c 1c 2a 19 3e 3c 44 30 3d 53 39 52 3c
       0.011149793 0.1495747 0.043033823 0.01283105
000370 d0 c2 2a 3d 73 d3 97 3d 69 2b ac bd 71 b7 93 bd
       0.041689694 0.074133776 -0.08406717 -0.07212723
000380 11 0c 3d be 63 ef b5 bc 09 1d ff bd b4 10 aa bd
       -0.18461634 -0.022208875 -0.1245671 -0.08303967
000390 6f 6f 84 be 88 4a fd 3c ee b4 69 be 89 1b 86 3e
       -0.25866267 0.030919328 -0.22822925 0.26192883
0003a0 e0 a5 f1 3d 2d 49 23 be 48 ac ac 3e cc 83 ad bd
       0.11799216 -0.15945883 0.3372519 -0.08472404
0003b0 65 cb 3b 3c c2 7a 6c bc 2d ea 61 be b9 d8 bc 3d
       0.011462067 -0.014433565 -0.22061987 0.09221024
0003c0 38 88 85 be d9 4e c4 bb 10 09 eb 39 ae fd 82 3d
       -0.2608049 -0.0059908447 0.00044829445 0.06396042
0003d0 24 85 58 bd 66 03 0d bd d2 aa b5 bd dd f9 82 3a
       -0.052861348 -0.03442707 -0.08870472 0.0009992678
0003e0 da 0b d1 bd 26 9e 9c bd 3c 5d 85 bc 8a 32 91 3e
       -0.10207339 -0.07647352 -0.01627981 0.2835887
0003f0 3f 27 71 be fb 5f dc 3d dc 10 32 3e b1 6c 36 3c
       -0.23550127 0.10760494 0.17389244 0.0111343125

rnn.weight_hh_l1 f4 [80, 20]
000000 ee 5c 7e 3c 0c d6 4f be 93 7e 1c 3d 2d cb 9a bd
       0.015525086 -0.20296496 0.038206648 -0.07558284
000010 0a 7a a2 bb 7a 7c 31 bd ca 4d 88 bd d5 92 ac 3d
       -0.004958396 -0.0433316 -0.06655462 0.084264435
000020 01 ce 9a 3d 93 4a 94 bc 19 fb 88 bc e6 4a a4 bd
       0.075588234 -0.018101966 -0.016721295 -0.08022098
000030 93 69 eb bd 21 cf cd 3d 37 f0 14 3e 5e ec 9f 3e
       -0.11494746 0.10049272 0.1454476 0.3123502
000040 eb 76 2e be a6 37 3a 3e a8 2e 24 bd 53 df 85 3d
       -0.17037551 0.1818529 -0.040083557 0.06536736
000050 44 3c 67 3c 5a cd 6e 3e 34 a8 9f 3d 80 65 a5 3c
       0.01411349 0.23320523 0.07795754 0.02019
000060 ca 0a 05 bb 91 0a 0f 3e 1b 52 91 be 8f bf a8 3d
       -0.002030062 0.13968875 -0.28382954 0.08239662
000070 6e 08 7c bd 1d 41 0a 3e 74 01 a3 3e 19 2a d3 bc
       -0.061531477 0.13501401 0.31837046 -0.02577691
000080 30 96 9b be e9 0e 15 3e 87 39 02 3e cc f6 22 3e
       -0.3038802 0.14556469 0.12717257 0.15914458
000090 cb 38 6e 3d d9 e6 db bd 93 96 02 be 93 3e 2e be
       0.05815963 -0.1073739 -0.12752752 -0.17016058
0000a0 d2 6c 38 3e 94 ad ac be 2f 00 2b be 76 a4 9e bc
       0.18010262 -0.3372618 -0.16699289 -0.01936553
0000b0 1d 99 16 be 4f 2d e7 bd 6a 59 12 be 87 ff 80 3e
       -0.14706846 -0.11287939 -0.14291921 0.25194952
0000c0 b9 81 63 3e ff 4e 3f be c7 38 4d 3d b9 5b 8a 3d
       0.22217454 -0.18682478 0.050102975 0.06755776
0000d0 18 6c a3 3d 9c 1d f6 3d 98 03 76 3e af b4 d3 bd
       0.079796016 0.12017366 0.24024808 -0.10337197
0000e0 00 96 11 bd d4 5a 93 be fe d3 35 bd 98 65 06 be
       -0.03554344 -0.28780234 -0.044391625 -0.13124692
0000f0 87 06 a0 3e e5 65 9d be c2 b6 c3 bc 10 18 88 3d
       0.3125498 -0.30741802 -0.023890857 0.066452146
000100 04 2f 00 3d bf 59 48 bd 27 ff 64 3c 92 2a 41 3e
       0.031294838 -0.048913714 0.013976849 0.18863896
000110 7b 3f 8a 3e a9 68 f0 3d 4f 55 89 3e 89 f6 ce bd
       0.27001557 0.11738712 0.26822898 -0.101056166
000120 9b d0 3f 3d b4 1e 85 3c 17 65 7a 3e 81 1a 4e bd
       0.0468298 0.016249992 0.24452625 -0.050318245
000130 ce 34 57 bd 13 ee 52 be ee 3b 00 3e 21 8c e6 3c
       -0.052540593 -0.2059863 0.12522861 0.02814299
000140 70 af a4 3e fd c6 b2 be 1b bb e3 3d 63 e0 93 bb
       0.32165098 -0.3491744 0.11119672 -0.004512833
000150 2c a0 15 3d 31 8c 47 be f4 23 e9 bd 4e 54 a6 3d
       0.036529705 -0.19487073 -0.11383811 0.081215486
000160 42 e9 b3 3d a5 54 ff 3c 89 28 0c be 68 e9 70 bd
       0.08784725 0.031168291 -0.13687338 -0.058816344
000170 59 21 13 3d 48 ac 3b 3d 40 08 56 bd b7 27 3e 3e
       0.035920475 0.045818597 -0.05225396 0.18569838
000180 f3 26 22 3e f4 93 65 be 58 2f 85 3d 13 fa 52 3e
       0.1583517 -0.22419721 0.06503171 0.20603208
000190 1d 02 7c 3e 90 56 aa bd 29 a8 0e be 03 dd 1b 3e
       0.24610181 -0.08317292 -0.13931336 0.15221028
0001a0 a2 f9 3b be 0c 56 c9 3c 79 f6 10 3e fc 46 54 3e
       -0.18356946 0.024577163 0.14156522 0.20730203
0001b0 40 ad cf 3d fc 32 84 bd ca 60 52 bb ba 59 9c bc
       0.10140467 -0.06455037 -0.0032101148 -0.019085754
0001c0 9c 7b 91 be 82 fa bd bd 2a b1 01 3e eb de 4c 3d
       -0.2841462 -0.09276296 0.12665239 0.05001728
0001d0 7a 19 fd 3d 32 5d fa bd 64 78 25 3e 73 43 4c be
       0.12358375 -0.12224807 0.16159207 -0.19947605
0001e0 f6 f2 28 3e 4b c3 53 3e 00 65 4c bf 73 6e d0 bd
       0.16498932 0.20679967 -0.79841614 -0.101773165
0001f0 b4 c1 12 bf ae cc 86 3e fb 79 19 bf 50 0c 73 3e
       -0.5732682 0.26328033 -0.5995175 0.23735166
000200 99 35 16 3f 72 fa 26 be db bb 8b 3e 01 93 0b be
       0.58675534 -0.16306475 0.2729176 -0.13630296
000210 27 5b c8 3e 6e 65 08 bf 2b 7f de bd ee df a7 3e
       0.39132044 -0.5327977 -0.10864099 0.32788032
000220 ff b0 17 3e 92 6a f3 3e b4 9c fd 3d c7 ec 2e 3c
       0.14813612 0.47542244 0.123834044 0.010676569
000230 1f 0a bf 3e ec 1f a4 be 9d 19 82 3d 07 95 2b be
       0.3731241 -0.32055604 0.063525416 -0.16756068
000240 90 5a 6b be ec 9d e2 3d 07 24 db bb f5 6a 0c 3e
       -0.22983766 0.110652775 -0.0066876444 0.13712676
000250 03 17 ef 3d ce fd 1f bd 54 0d 78 3e 9f fa e3 bc
       0.11674311 -0.039060406 0.24223834 -0.027829466
000260 63 2d 10 be 0f 97 c4 bd 2c 38 41 bb 29 5e 85 3d
       -0.14079814 -0.09599125 -0.0029482944 0.065121
000270 43 4d 26 3e 72 6d 48 3d cf f7 69 be 6e fd f3 bd
       0.1624041 0.0489325 -0.22848438 -0.11913572
000280 59 61 31 3e f8 e1 2a bd ec c3 80 3c 82 fd b4 3d
       0.17322291 -0.041719407 0.015718423 0.08837415
000290 3e fa 07 3e df 32 2e 3e 72 31 61 be 6b 44 6e bd
       0.13279054 0.17011593 -0.21991518 -0.058170717
0002a0 c0 5b 40 3e 74 ed 35 3e df 46 be 3d e2 25 03 3e
       0.18785 0.17766362 0.09290861 0.1280742
0002b0 cb 55 40 be d8 78 9a 3e fa 77 47 3e e1 be 7c 3e
       -0.18782727 0.3017032 0.19479361 0.2468219
0002c0 d9 38 4d be 73 b2 95 be 79 9b 46 3e 63 92 15 be
       -0.20041217 -0.29237708 0.19395246 -0.14606623
0002d0 ba 45 24 bc d0 55 67 3d e0 55 1d 3e 7d 4a dc 3d
       -0.01002639 0.05647832 0.1536479 0.10756395
0002e0 c5 19 56 3d 2e 7a 94 bd e8 a8 65 be 7b be 72 3e
       0.05227067 -0.072498664 -0.22427714 0.23705475
0002f0 e4 5f a5 3d 5b a0 d4 3d 7b 79 dc bd 7e ca 35 3d
       0.0807493 0.10382148 -0.10765358 0.044382565
000300 86 32 86 be cf 29 0e 3d 74 57 07 3e f0 88 5b 3e
       -0.2621042 0.03470784 0.13216954 0.21438956
000310 03 dc ed 3d 85 1f 2b bd e1 dc 7f be a8 29 35 be
       0.116142295 -0.041778106 -0.24986602 -0.17691672
000320 ad 35 85 3e 5a 4f ca 3d 39 05 1f be c4 76 e3 bd
       0.26017514 0.09878416 -0.15529336 -0.11106637
000330 04 68 0c 3e 21 3a 99 bc 27 94 26 be b2 1c 85 3d
       0.13711554 -0.018704476 -0.16267453 0.06499614
000340 de 28 1c be c4 6c 03 bc de 47 d6 3c 3e fb 12 3e
       -0.15249965 -0.008021537 0.026157316 0.14353654
000350 ae 5a 08 be ed 6b 12 3e 9b b6 18 bc 8e 75 1e bd
       -0.13315842 0.14298983 -0.00932088 -0.038686328
000360 b0 97 aa bd 86 b6 4b be 14 9e bd bd 2b 28 00 be
       -0.08329713 -0.19893846 -0.09258667 -0.12515323
000370 bd e3 01 3b d0 0a c3 3c 61 24 8f be 7f b4 83 be
       0.001981958 0.023808867 -0.27957442 -0.25723645
000380 5e 0f a9 bc 41 60 7f 3d 36 b6 0a be d5 11 91 3e
       -0.02063721 0.062347654 -0.1354607 0.28333917
000390 e7 36 10 3e 0f d2 00 3d db f1 8b bd f7 19 0a be
       0.14083444 0.031450327 -0.0683324 -0.13486467
0003a0 74 ce 59 be f6 86 7d 3e 06 c1 1c be 96 09 b2 3e
       -0.21270162 0.24758515 -0.15308008 0.34772938
0003b0 00 c5 2c 3e fc 37 09 be 52 41 01 be 16 ed 9f 3d
       0.16872025 -0.13400263 -0.12622574 0.078088924
0003c0 dc d4 a8 bc 8d 87 d0 bd e2 dc 95 bd 66 b3 a5 be
       -0.020609312 -0.10182104 -0.07317521 -0.32363433
0003d0 a6 89 5c be 37 d6 c6 bd 00 73 9a be a8 28 2a 3e
       -0.21536884 -0.09708827 -0.30165863 0.16617072
0003e0 21 5c a0 3e e2 83 54 3d b4 b8 7a bd ea 84 98 bd
       0.3132029 0.051883586 -0.061211303 -0.07447226
0003f0 cc f0 44 bb 79 d3 12 be 5a 88 50 be 48 ac 67 3e
       -0.0030050753 -0.14338483 -0.20364514 0.22624314

rnn.bias_ih_l1 f4 [80]
000000 f4 f9 36 bd 77 72 2b be 19 5d 01 be 8d 6d 92 bd
       -0.044671968 -0.16742884 -0.1263317 -0.071498014
000010 5c 38 1c bd 89 7c 73 3e 53 24 c9 3e d5 2a eb 3d
       -0.038139686 0.23777975 0.39285526 0.11482779
000020 00 08 b7 3d 2c 98 1d 3e 2a 21 75 3d 81 3b 1e be
       0.08937073 0.1539008 0.05984608 -0.15452386
000030 22 6d 39 be ea 82 2b bd ca 40 05 be a0 b0 17 be
       -0.18108037 -0.041872896 -0.13012996 -0.14813471
000040 dd ed 06 3e 19 83 61 3d 58 eb 2b be bc d7 a9 3d
       0.13176675 0.055056665 -0.16788995 0.08293101
000050 27 a7 a8 be 97 2a f1 3d ca f7 10 3d 0e af e5 3b
       -0.32940027 0.117757015 0.03539256 0.0070093935
000060 7f 96 3e be 56 f9 01 3e 0c 1d 57 be f2 d6 76 be
       -0.18612097 0.1269277 -0.21007174 -0.24105433
000070 6e ac 13 be 47 93 cd bd a8 3e 2c bd 7f 3e a5 bd
       -0.14421245 -0.100378565 -0.04205194 -0.08068561
000080 e5 a8 09 be fd 43 69 be ef 48 1a be df f5 c7 be
       -0.13443334 -0.22779842 -0.15066884 -0.39054772
000090 8a 4c 38 3e 9b 94 82 be 60 28 66 3d 2f 1c e7 bd
       0.17997947 -0.25504002 0.05619085 -0.112846725
0000a0 da 5f 11 3d 32 38 eb 3b ab 45 b2 bd 3d 2b 0b 3d
       0.0354918 0.00717833 -0.08704694 0.033976782
0000b0 27 ae 1b 3e 8c fb 95 bd 93 88 6a 3e 36 41 c2 3c
       0.15203153 -0.073233694 0.22903661 0.023712736
0000c0 19 aa 3b bc 84 77 7a be f6 77 5d be 58 5f 5f 3e
       -0.011454129 -0.24459654 -0.21627793 0.21813715
0000d0 26 34 01 3e a2 be c0 3d ae 0b 79 bc 98 f3 65 3d
       0.1261755 0.0941136 -0.015200539 0.056140512
0000e0 a8 2f 7e 3e 25 20 4c bc b3 91 0d 3e 99 66 f1 3d
       0.24822867 -0.012458836 0.13825111 0.11787147
0000f0 33 a8 1e be 27 50 9b bc 2b 89 85 bd e3 36 08 be
       -0.1549385 -0.018959118 -0.06520303 -0.13302188
000100 8c cb 6a 3e b3 cf 49 3e 30 32 8e 3e 6f 1b 1a be
       0.2292921 0.19708137 0.27772665 -0.15049528
000110 54 a6 13 3e 15 18 fd 3b 6a 23 f4 3d ab 80 2b bc
       0.14418918 0.007723818 0.11920817 -0.010467689
000120 89 c3 c7 3d cd d2 32 be f6 8c 72 3d ae 74 82 be
       0.09754092 -0.17463227 0.059216462 -0.25479645
000130 e1 8a 49 3e 3d 8a 7f bd 16 29 7b be 49 4a a3 3d
       0.19681884 -0.062387694 -0.24527392 0.07973153

rnn.bias_hh_l1 f4 [80]
000000 6a 75 39 3e d6 0f 76 bc 1a f0 e5 3d b1 95 a5 3d
       0.18111196 -0.015018424 0.11227436 0.08085192
000010 84 6d 89 bd 77 71 06 3e e8 0c 99 3e 13 d6 29 be
       -0.067103416 0.13129221 0.2989266 -0.16585569
000020 a1 c8 cb 3d 91 69 f4 bd d9 08 c7 3d ae 46 76 be
       0.09950376 -0.11934198 0.097184844 -0.240504
000030 40 90 bd bc 84 3e 0d be d2 01 dc 3d 1b 3b d5 bd
       -0.023140073 -0.13793379 0.10742535 -0.10411664
000040 53 cd a7 bd 8f d6 4b bd f1 ff a1 bd 55 e3 3a 3d
       -0.08193459 -0.049765166 -0.07910145 0.045626957
000050 47 83 5d 3d f4 15 7f 3b c2 b2 fe bc 0b 35 90 be
       0.054080274 0.0038922997 -0.031091098 -0.2816547
000060 38 32 2d be 46 0f 0d be 5a 51 0b be 23 30 19 be
       -0.16913688 -0.13775358 -0.13605252 -0.14959769
000070 40 55 2c be a9 a5 af 3d f7 5a 1f bd 49 86 1e be
       -0.16829395 0.08576519 -0.03890511 -0.15480913
000080 a1 ab 1f be 1c 8b a6 3d d9 ed fb 3c 09 6b 1f be
       -0.15592815 0.08132002 0.030753063 -0.15568174
000090 2f 4b c3 3d 98 4c 77 3b 84 7c 94 be 1f 2a 9d 3d
       0.095358245 0.0037734862 -0.29001248 0.076740496
0000a0 eb 68 e9 bd 6f a4 68 bd 8a c0 2e 3e b6 b8 d0 bd
       -0.11396965 -0.05679744 0.17065635 -0.10191481
0000b0 09 8b 0b be a8 4e 38 be d1 66 ae 3c 87 eb 82 be
       -0.13627256 -0.17998755 0.021289261 -0.25570318
0000c0 ad 6c f1 bd f5 41 71 be 3a 30 46 3c c8 0f 55 bd
       -0.117883064 -0.23560317 0.012096459 -0.052017003
0000d0 eb b7 87 bc 6f a5 1e be 6f 52 c9 3d 9c 23 6c be
       -0.016567191 -0.15492795 0.09830176 -0.23060459
0000e0 e6 e5 94 3d 27 be b3 3c d7 6d 0c be ae 8d 4d 3e
       0.07270412 0.021941258 -0.13713776 0.20073578
0000f0 dd 0f d9 bb dd 64 d1 3d 8c 2d 09 be da 93 45 bd
       -0.0066242055 0.10224316 -0.13396281 -0.048236705
000100 0e 8c 5d 3e f1 a3 1b be d5 cd b1 3e f2 e9 52 be
       0.21635458 -0.15199257 0.3472735 -0.20597056
000110 0e 3d 76 3b 15 68 40 3e ff 6d 45 be 3f 30 1b be
       0.0037573013 0.18789704 -0.19280241 -0.15155123
000120 1a f7 53 be 14 55 2f be 17 21 a1 3d 1d 11 16 be
       -0.2069973 -0.17122298 0.078676395 -0.14654966
000130 97 3a 4e be 86 3c fb bd 1e b6 4e bd 09 a9 db 3d
       -0.20139538 -0.12267403 -0.05046665 0.107256

reg.weight f4 [1, 20]
000000 4e 18 04 be 18 be f0 3b 99 c4 f0 3d 15 1b 35 bd
       -0.12899897 0.0073468797 0.11756248 -0.04421528
000010 ea d3 69 3e 5f 16 f5 bd b9 66 05 3e ff 0b 6b be
       0.22834745 -0.119671576 0.13027467 -0.22953795
000020 aa c7 3a be 92 82 2f be df eb 5a bd c2 35 2c 3e
       -0.18240228 -0.17139652 -0.0534476 0.16817382
000030 95 39 e3 3d d0 81 f2 bd 1e bb 36 3c 96 81 b2 bd
       0.11094967 -0.11841166 0.011153011 -0.08716123
000040 dd 23 60 3e 03 9a b5 bc e1 b2 d4 3d 10 3f 21 3e
       0.21888681 -0.022168165 0.10385681 0.15746713
