campusMCM/lstm4.pth (torch, 48839 bytes, 9 tensors)

rnn.weight_ih_l0 f4 [120, 3]
0	0xbd05a81b	-0.03263102
1	0xbe80f3a3	-0.2518588
2	0x3ff8cf68	1.9438295
3	0xbf51219b	-0.816919
4	0x3ef4e217	0.47828743
5	0xbed818a7	-0.42206308
6	0xbec44bc3	-0.38339052
7	0xbda8f1d5	-0.08249251
8	0x3f32e7bf	0.69884866
9	0x3d97c168	0.07409936
10	0xbd55b789	-0.052176986
11	0x3e5d61e5	0.21619375
12	0x3da75b78	0.08171743
13	0xbc88ed68	-0.016714767
14	0xbb77f601	-0.0037835839
15	0xbe87097b	-0.2637442
16	0xbe3eae8d	-0.18621273
17	0xbdc5d48c	-0.09659681
18	0xbfadc784	-1.3576512
19	0xbf7071f2	-0.93923867
20	0x400b304a	2.1748223
21	0x3dcb65ab	0.09931501
22	0xbe02f51c	-0.12788814
23	0x3bafb04b	0.005361592
24	0xbf7c70a1	-0.9860936
25	0xbf334629	-0.7002893
26	0xbfaa98ea	-1.3327916
27	0xbdfae45c	-0.12250587
28	0xbdd3b224	-0.10336712
29	0x3d9106df	0.07081389
30	0xbfecf679	-1.8512717
31	0xbea3b952	-0.31977326
32	0x3fba83ba	1.457145
33	0xbea0beae	-0.31395477
34	0x3ee9b99e	0.45649427
35	0x3f4b2a11	0.79361063
36	0x3d481ee2	0.048857577
37	0xbe3988b0	-0.18118548
38	0x3d93c3b4	0.07215062
39	0xbd9f54b1	-0.077798255
40	0xbea2bc0f	-0.31784102
41	0xbef0ff8f	-0.47069976
42	0x3e12ddb4	0.14342386
43	0xbdf3254c	-0.11872348
44	0x3f242a4f	0.6412706
45	0xbf9d9a28	-1.231267
46	0x3eddbdbd	0.4330882
47	0xbf73f547	-0.9529614
48	0xbea971c5	-0.33094612
49	0x3d52c42c	0.051456615
50	0xbf12814f	-0.5722856
51	0x3e2cab95	0.16862328
52	0xbe9e345f	-0.3089933
53	0x3d854e4f	0.06509077
54	0xbf6856c8	-0.9075742
55	0x3ece1067	0.4024689
56	0xc023106b	-2.547877
57	0x3f322b33	0.69597167
58	0xbe57dc7e	-0.21080205
59	0x3dcaea43	0.09907963
60	0xbf02742b	-0.5095851
61	0x3d4c4811	0.049873415
62	0xbfa2bcbd	-1.2713848
63	0x3df289f6	0.1184272
64	0xbeae2678	-0.34013724
65	0xbec8603d	-0.39135924
66	0x3dbdd8b3	0.09269848
67	0xbec7544b	-0.38931498
68	0x3e0f144c	0.13972586
69	0xbe07b47b	-0.13252442
70	0xbe2b7f24	-0.16747719
71	0xbdf6f481	-0.12058354
72	0xbf0dfeb1	-0.55466753
73	0xbf0efe05	-0.55856353
74	0x3da29ed5	0.07940451
75	0x3dbb9ea3	0.09161117
76	0x3caf9f93	0.021438396
77	0x3ee29a5f	0.442584
78	0x3df39bd9	0.1189496
79	0xbe111c36	-0.14170918
80	0x3e2a3667	0.16622315
81	0xbe899fb9	-0.2687967
82	0xbed12d48	-0.4085486
83	0xbfdbd48a	-1.7174237
84	0xbeddb4e6	-0.43302077
85	0xbd6295d8	-0.055318683
86	0xbf621d84	-0.8832629
87	0xbf2d3328	-0.67656183
88	0xbcdcc285	-0.026948223
89	0xbf47ba61	-0.78018767
90	0x3e160aa3	0.14652495
91	0x3f26029a	0.6484772
92	0x3fe17641	1.7614213
93	0xbf16dfcd	-0.5893524
94	0x3d0fb20e	0.035081916
95	0xbe99c015	-0.3002936
96	0xbe26af10	-0.16277719
97	0xbe00a9c5	-0.12564762
98	0x3ed9d54a	0.4254554
99	0xbdc7816f	-0.097414844
100	0xbe8faf6c	-0.28063524
101	0x3d3b5cad	0.04574268
102	0x3d3027d9	0.04300675
103	0xbe2e482f	-0.17019723
104	0x3bed95b4	0.007250512
105	0xbe8d9a58	-0.27656817
106	0xbe225008	-0.15850842
107	0x3c147761	0.009061665
108	0xbe98feab	-0.29881796
109	0x3e669200	0.22516632
110	0xbe44c49a	-0.19215623
111	0x3e412962	0.18863443
112	0x3d84d35c	0.06485626
113	0x3dd0812a	0.10180886
114	0xbf1935e5	-0.5984786
115	0xbed4edef	-0.4158778
116	0xbf90af10	-1.1303425
117	0xbe331f8d	-0.17492504
118	0xbdd3e9c6	-0.10347323
119	0xbe2d9872	-0.16952685
120	0xbf9fd0f9	-1.2485648
121	0x3f89e0dd	1.0771748
122	0xbf218bd6	-0.63104
123	0x3f57838c	0.841851
124	0x3f18fcaf	0.59760565
125	0x3f592e73	0.848365
126	0xbc8ed4e6	-0.017435502
127	0xbdaef7c9	-0.08543355
128	0x3d87d929	0.06633217
129	0xbe20bca9	-0.15696968
130	0xbe94c93a	-0.29059774
131	0xbef07971	-0.46967652
132	0x3e8ab846	0.27093714
133	0xba752853	-0.0009352017
134	0x3d517729	0.05113903
135	0xbfa44860	-1.2834587
136	0x3d01013c	0.031495318
137	0xbc7da899	-0.015482091
138	0xbdf2bf9d	-0.118529536
139	0xbe02d929	-0.12778153
140	0xbeaafa94	-0.333943
141	0x3de28f13	0.110624455
142	0x3e47862e	0.19484779
143	0xbe45af1e	-0.19305083
144	0xbf35bf9e	-0.7099551
145	0xbe6eb2d0	-0.23310399
146	0xc011a1e9	-2.2755072
147	0x3f0da603	0.5533144
148	0xbec04759	-0.37554434
149	0xbe2c841a	-0.16847268
150	0xbd9927a9	-0.07478268
151	0xbe3ddc1f	-0.18541001
152	0xbf8d821c	-1.1055331
153	0x3e3523ea	0.17689481
154	0xbed3ca1e	-0.4136514
155	0xbf058f5f	-0.5217189
156	0x3d1d4df5	0.038404424
157	0x3d469765	0.048484225
158	0xbdaca262	-0.084294096
159	0xbe0d3dfe	-0.1379318
160	0xbe238183	-0.15967374
161	0xbcd1e685	-0.025622616
162	0xbdf73c79	-0.12072081
163	0xbe555b29	-0.20835556
164	0x3e3709d1	0.17874838
165	0x3d1def2b	0.038558166
166	0x3e420ac6	0.18949422
167	0x3ebdb3fb	0.37051377
168	0xbdcb84c8	-0.099374354
169	0xbe8938e1	-0.26801208
170	0x3e023076	0.12713799
171	0xbee1cb75	-0.44100538
172	0xbee27b3b	-0.44234642
173	0xbfc42421	-1.5323526
174	0xbecc0ff2	-0.39855915
175	0xbe0138c1	-0.12619306
176	0xbed84e95	-0.42247453
177	0xbefdc612	-0.49565178
178	0xbcaf59f5	-0.0214052
179	0xbf445943	-0.766987
180	0xbeaac616	-0.33354253
181	0xbdc1f36c	-0.09470257
182	0x3f6bd666	0.9212402
183	0x3da1392b	0.07872232
184	0x3e7caed2	0.24676064
185	0xbd52e3b4	-0.051486686
186	0x3e2fad02	0.17155841
187	0x3dfa208e	0.122132406
188	0xbf0c1624	-0.54721284
189	0x3e2a63bc	0.16639608
190	0xbd627c39	-0.05529425
191	0xbd381260	-0.0449394
192	0x3d961344	0.073278934
193	0xbda4f061	-0.08053661
194	0xbd6a1b22	-0.057154782
195	0xbec0f839	-0.3768938
196	0xbdc6e855	-0.097122826
197	0xbe952512	-0.29129845
198	0x3fef2eaf	1.8686122
199	0xbe60dded	-0.21959658
200	0x3fd0f6a7	1.6325272
201	0xbe4330df	-0.19061612
202	0xbc801375	-0.015634278
203	0xbe93014d	-0.2871193
204	0xbe6791c5	-0.226142
205	0xbea67108	-0.3250811
206	0xbf4dee18	-0.8044143
207	0x3e2c0332	0.16798094
208	0x3dd78051	0.10522521
209	0xbdaf16c5	-0.08549265
210	0xbf50324f	-0.81326765
211	0xbedd63f6	-0.43240327
212	0xc02ae64e	-2.6703067
213	0xbe6d6c3d	-0.23185821
214	0x3e5c2d17	0.21501575
215	0xbf5477e3	-0.8299543
216	0xbe9eec5f	-0.31039712
217	0xbdefc138	-0.117067754
218	0xbebbf990	-0.3671384
219	0xbdaa1eed	-0.0830668
220	0xbcabc3f2	-0.020967457
221	0x3cc76c48	0.024343625
222	0xbd5ddcee	-0.054165773
223	0xbe87f760	-0.2655592
224	0x3eebf582	0.46085745
225	0x3e074092	0.13208225
226	0x3e2c88a3	0.16848998
227	0xbe90fc41	-0.28317454
228	0xbdd0bd7c	-0.10192391
229	0x3ba0e4d5	0.0049100914
230	0xbecbae12	-0.39781243
231	0xbecb6081	-0.39722064
232	0xbe8a69e2	-0.27033907
233	0x3f8a527c	1.0806422
234	0xbdf508b8	-0.119645536
235	0xbed06510	-0.40702105
236	0xbffc113a	-1.9692757
237	0x3d313eb8	0.043272704
238	0xbe3caa5d	-0.18424363
239	0xbf180d74	-0.5939553
240	0xbddb7f68	-0.1071766
241	0x3e6ca17a	0.23108473
242	0x3f1af370	0.60527706
243	0xbba58afc	-0.0050519686
244	0xbe871423	-0.2638255
245	0x3d5beb51	0.053691212
246	0x39e6cd74	0.00044022093
247	0x3ee1e55a	0.44120294
248	0xbd30a7fd	-0.043128956
249	0x3e606ce5	0.2191654
250	0x3d953695	0.07285801
251	0xbcccdc82	-0.02500749
252	0x3ed0bced	0.4076914
253	0x3e32d315	0.17463334
254	0xbe22a4e9	-0.1588322
255	0xbe3863b2	-0.1800678

rnn.weight_hh_l0 f4 [120, 30]
0	0x3e89193e	0.2677707
1	0x3e698d88	0.22807896
2	0x3d8e2b17	0.069418125
3	0x3c87dfb1	0.016586157
4	0xbe78494f	-0.24246715
5	0x3d433333	0.04765625
6	0x3dd23afe	0.10265158
7	0xbdf6aa3b	-0.12044188
8	0x3e1bac5d	0.1520247
9	0x3d68b3ca	0.056812085
10	0xbdf4582f	-0.11930882
11	0xbf2dbd73	-0.678672
12	0xbd979a72	-0.07402505
13	0x3d484a5f	0.04889905
14	0x3c7133b8	0.014721803
15	0x3f30d9ce	0.69082344
16	0x3e4077e8	0.1879574
17	0x3e455660	0.1927123
18	0x3bd492e8	0.006487239
19	0xbeb7af86	-0.358761
20	0x3efbeb39	0.49202898
21	0x3c2b8150	0.010467842
22	0x3ce2ffc1	0.027709844
23	0xbe89bbcd	-0.26901093
24	0xbd68b419	-0.05681238
25	0xbd160fe5	-0.036636252
26	0x3e65bf54	0.22436267
27	0x3e3e4f0e	0.18584844
28	0x3e04e1d2	0.12976769
29	0x3efadcec	0.48996675
30	0xbe838e8d	-0.25694695
31	0x3ee14949	0.44001225
32	0x3ddcf0f9	0.107881494
33	0xbd1872bb	-0.03721879
34	0xbdc46d1c	-0.095911235
35	0xbe57c881	-0.2107258
36	0xbd0ade61	-0.033903483
37	0xbcab0b37	-0.020879371
38	0xbeb8e8a4	-0.3611499
39	0x3d5c14d5	0.053730804
40	0x3e61bf6e	0.22045681
41	0xbe630882	-0.22171214
42	0x3dc14c58	0.094383895
43	0xbe80da59	-0.25166586
44	0xbe4b44ab	-0.19850414
45	0x3eaed3c7	0.34145948
46	0xbd421144	-0.047379747
47	0xbd5d5d62	-0.054044135
48	0xbf1a2a4e	-0.602208
49	0xbd889b18	-0.06670207
50	0x3eaa2f9d	0.3323945
51	0x3e157f00	0.14599228
52	0xbd9895b5	-0.07450429
53	0xbe3120ba	-0.1729764
54	0xbd4cf79e	-0.050040834
55	0x3eab4a7f	0.33455274
56	0xbda115d3	-0.07865491
57	0x3ecd204c	0.40063703
58	0x3ecaba33	0.39595184
59	0xbe81ddc5	-0.2536451
60	0xbe161ccc	-0.14659423
61	0xbd297503	-0.041371357
62	0xbda7c055	-0.08190981
63	0x3e2b3e1c	0.16722912
64	0x3b9656b5	0.004587973
65	0xbe495f18	-0.19665182
66	0xbe63e234	-0.22254258
67	0x3da957b4	0.08268681
68	0xbf2664af	-0.6499738
69	0xbd76176b	-0.060080927
70	0x3e43c9d7	0.19119965
71	0x3bcdc140	0.0062791407
72	0x3cdbe194	0.026840962
73	0xbeb053c6	-0.34438914
74	0xbd686e57	-0.056745853
75	0x3e7a3df5	0.24437697
76	0xbc396fe7	-0.0113181835
77	0xbdba5658	-0.090985
78	0xbe3b5efb	-0.18297951
79	0xbdb16558	-0.08661908
80	0x3dbd929d	0.0925648
81	0x3df83a91	0.12120546
82	0xbca20f24	-0.01978261
83	0xbd0b6c50	-0.03403884
84	0x3e4bb3a7	0.1989275
85	0x3e85ae29	0.26109436
86	0xbdd3b76d	-0.1033772
87	0x3ef1e466	0.47244567
88	0x3deb72ba	0.11496492
89	0x3e17c824	0.14822441
90	0xbe841016	-0.25793523
91	0x3c250d09	0.010073909
92	0xbc72f0be	-0.014827905
93	0x3e010171	0.12598206
94	0x3d3e499d	0.04645692
95	0x3d08d6d2	0.033407994
96	0xbcf0178d	-0.029308105
97	0x3dbe878a	0.09303196
98	0xbe9d996e	-0.3078112
99	0xbcbad76d	-0.022807801
100	0x3dd802f9	0.10547442
101	0x3ea67961	0.3251448
102	0x3e37a219	0.17932929
103	0xbe844276	-0.25831956
104	0xbc5db6af	-0.013532325
105	0xbcec9ea7	-0.028884245
106	0xbc084946	-0.008318251
107	0xbe5a69b8	-0.21329391
108	0xbde836f5	-0.11338607
109	0x3db073e1	0.08615852
110	0x3d382882	0.044960506
111	0xbe0ecf01	-0.13946153
112	0x3e2f26ea	0.17104688
113	0xbdb59276	-0.08865826
114	0x3dd6e757	0.10493343
115	0x3e05ddc0	0.13072872
116	0x3d476c39	0.048687194
117	0x3e14dfe3	0.14538531
118	0x3de025a2	0.10944678
119	0xbd557622	-0.052114613
120	0xbd56d87b	-0.052452546
121	0x3e122897	0.14273296
122	0xbd993a45	-0.07481817
123	0x3d6785a7	0.056523945
124	0x3d1dbe19	0.03851137
125	0x3d98d0ba	0.074616864
126	0x3e27b609	0.16378035
127	0x3bc9842c	0.0061497893
128	0xbe2b17ec	-0.16708344
129	0x3e533b10	0.20628
130	0xbe484143	-0.19556145
131	0xbe2b8791	-0.16750933
132	0xbd1c40d5	-0.038147766
133	0xbe5cd2e7	-0.21564828
134	0xbda56f56	-0.08077876
135	0xbdb1f5a5	-0.08689431
136	0x3cb0648e	0.021532323
137	0xbe3d0a13	-0.18460874
138	0xbd0dc31b	-0.034609895
139	0x3c2a4e7c	0.010394689
140	0x3d81607d	0.06317232
141	0xbe2d32f9	-0.16913976
142	0x3d27cb4a	0.040965356
143	0x3dd743e9	0.10511
144	0xbca4a55b	-0.020098379
145	0xbde71707	-0.11283689
146	0x3cd22741	0.025653483
147	0x3e151c1f	0.14561509
148	0x3dfdfb5f	0.12401461
149	0x3d8e675f	0.0695331
150	0xbe3f44e8	-0.1867863
151	0x3e1b7f80	0.15185356
152	0x3cad81af	0.021180002
153	0xbd35b284	-0.0443597
154	0x3ce3576f	0.027751653
155	0xbe70d7f5	-0.23519881
156	0xbdeb7a31	-0.114979155
157	0x3da75b40	0.081717014
158	0x3cd8cd84	0.026465185
159	0xbcdea2b7	-0.027177198
160	0x3f160b87	0.5861134
161	0xbe3f76be	-0.1869764
162	0x3df5df31	0.12005461
163	0xbddc4ee7	-0.10757237
164	0xbe98dccc	-0.29855955
165	0x3e7014bb	0.23445408
166	0x3e0bc7b1	0.13650395
167	0x3d84d3b0	0.06485689
168	0xbdfcd94e	-0.12346135
169	0x3df0344c	0.11728725
170	0x3db49faf	0.0881952
171	0x3e352dfa	0.1769332
172	0x3d9d2ec1	0.07674933
173	0x3da146fe	0.07874869
174	0xbd1ffe9b	-0.03906117
175	0x3e93ece9	0.28891686
176	0xbdf3605e	-0.11883615
177	0x3d989f1f	0.07452225
178	0x3e100551	0.14064528
179	0xbe19be04	-0.15013891
180	0x3f64826e	0.8926152
181	0xbf467c17	-0.77533096
182	0xbed55607	-0.41667196
183	0xbeea42b0	-0.45754004
184	0x3e6ab590	0.22920823
185	0x3f1c3cff	0.6103057
186	0xbe99785a	-0.29974633
187	0xbea978ed	-0.33100072
188	0x3f9ef3ba	1.241813
189	0xbf0c9224	-0.5491049
190	0x3f1a5be1	0.60296446
191	0xbfb3a5d5	-1.4034983
192	0x3eb8b472	0.3607517
193	0x3f5891e4	0.8459761
194	0x3f5bf22b	0.85916394
195	0xbe62ca33	-0.22147445
196	0x3f58bc07	0.84661907
197	0x3eafc573	0.3433033
198	0x3ff7ac06	1.9349372
199	0x3f14dab5	0.5814622
200	0xbf94ac82	-1.1615145
201	0x3f224c87	0.6339802
202	0xbf665ae3	-0.8998243
203	0xbd859760	-0.06523013
204	0xbf0db620	-0.55356026
205	0xbf3db2be	-0.74100864
206	0x3e2e4880	0.17019844
207	0xbfaf1055	-1.3676859
208	0xbed34987	-0.41267034
209	0x3fae64b7	1.3624486
210	0xbd215a4c	-0.039392754
211	0xbdc81c82	-0.097710624
212	0xbd690dd3	-0.05689795
213	0xbdbe8656	-0.09302966
214	0x3d09bd5e	0.03362786
215	0xbd83c58e	-0.06434165
216	0x3e83af3f	0.2571964
217	0x3db0f15d	0.086397864
218	0xbdda2135	-0.10650865
219	0x3d907d76	0.0705518
220	0xbf1e48c9	-0.6182981
221	0xbdc9966c	-0.09843144
222	0xbd868eb6	-0.06570189
223	0xbc98171a	-0.018565703
224	0x3e1122e0	0.1417346
225	0x3e878696	0.26469868
226	0x3dd39372	0.10330857
227	0x3d88fcb8	0.06688827
228	0xbe883b7d	-0.26607886
229	0x3d6e3d4a	0.05816392
230	0xbdd78a61	-0.105244406
231	0xbe440797	-0.1914352
232	0xbdecd41e	-0.11563896
233	0xbe07cbdf	-0.13261364
234	0x3d67c5e7	0.05658522
235	0x3e356ef3	0.17718105
236	0x3e6b972d	0.23006888
237	0x3ea02edb	0.31285748
238	0x3e26152d	0.16219015
239	0x3e272b2d	0.16325064
240	0x3cd553fa	0.02604102
241	0x3d9f86ff	0.0778942
242	0x3cd104a6	0.025514912
243	0xbda95c34	-0.082695395
244	0xbe5333ec	-0.20625275
245	0x3db0a02a	0.08624299
246	0x3f33c707	0.70225567
247	0xbd49b28e	-0.04924255
248	0x3e58e720	0.21181917
249	0x3d7724fd	0.06033801
250	0xbedbaca6	-0.42905158
251	0xbe86bb70	-0.26314878
252	0xbeadda6e	-0.3395571
253	0xbe2e9bc6	-0.1705161
254	0x3d0a94ce	0.033833317
255	0xbc53fd0b	-0.012938748

rnn.bias_ih_l0 f4 [120]
0	0x3dc74e93	0.09731784
1	0xbe84b7d7	-0.2592151
2	0xbd334c25	-0.04377379
3	0xbe57ff64	-0.21093518
4	0xbc94bd78	-0.018156752
5	0xbc675cf9	-0.0141212875
6	0x3ec596f3	0.38591728
7	0xbe068191	-0.13135363
8	0xbe1703ae	-0.14747497
9	0x3d5b870f	0.0535956
10	0x3f1f5abe	0.62247837
11	0xbe38b696	-0.18038401
12	0xbe4689d3	-0.19388513
13	0x3e0c2c59	0.13688792
14	0xbdd27ea1	-0.10278059
15	0x3dbace67	0.091213994
16	0xbdf3f506	-0.11911969
17	0xbe13c08b	-0.14428918
18	0x3e8d541e	0.2760324
19	0x3ddd0837	0.107925825
20	0xbe2388ba	-0.15970126
21	0x3dfcac02	0.123374954
22	0xbd0fd59a	-0.035115816
23	0x3d0cb6df	0.034354087
24	0xbe393ab4	-0.180888
25	0x3dbd29e9	0.09236509
26	0xbdd32247	-0.10309272
27	0x3c9238fc	0.017849438
28	0xbeaab16e	-0.33338493
29	0x3e009c1d	0.12559552
30	0x3decd1e7	0.11563473
31	0xbdb71023	-0.08938625
32	0xbe7ebef3	-0.24877529
33	0x3d270024	0.04077162
34	0xbc849fb5	-0.016189435
35	0x3de023a1	0.10944296
36	0xbf1dcd0c	-0.61641
37	0x3c1413d6	0.009037932
38	0xbe092f0f	-0.13396858
39	0xbd3d46ed	-0.04621022
40	0xbe30302b	-0.17205875
41	0x3f123f58	0.57127905
42	0xbd965838	-0.07341045
43	0xbd14c990	-0.036325037
44	0xbe807873	-0.25091895
45	0x3d55163b	0.052023154
46	0xbd648d49	-0.055798803
47	0x3d2b2205	0.04178049
48	0xbcbbeafe	-0.022939201
49	0xbe811514	-0.25211394
50	0xbdd239e9	-0.10264952
51	0x3dbe4872	0.092911616
52	0x3bb979a7	0.005660254
53	0x3d0ba061	0.034088496
54	0xbd520ed5	-0.051283676
55	0xbde1c348	-0.11023575
56	0xbe3c05af	-0.18361543
57	0xbdb71a93	-0.089406155
58	0xbe071c3a	-0.13194361
59	0xbe1ff807	-0.15621959
60	0xbd5c5fd6	-0.053802334
61	0x3d8b3c63	0.06798627
62	0x3e1926d4	0.14956218
63	0xbde7cad3	-0.113179825
64	0x3be4db90	0.0069841817
65	0xbb9a3d0c	-0.0047069844
66	0x3d38745b	0.04503284
67	0xbcee1e9e	-0.029067334
68	0xbd21e5c5	-0.039525766
69	0xbd647086	-0.055771373
70	0x3d20f8d9	0.03929982
71	0xbd43a418	-0.047763914
72	0xbd1bbdfb	-0.038022976
73	0x3de05880	0.1095438
74	0x3db698b9	0.08915848
75	0x3c0790d0	0.008274272
76	0xbc053075	-0.008129229
77	0x3df0f9d3	0.117664
78	0xbc945950	-0.018108994
79	0xbe299de5	-0.16564138
80	0xbc999e3a	-0.018752206
81	0x3cc3bccc	0.023893736
82	0xbcaccc5d	-0.021093542
83	0x3d9038ec	0.07042107
84	0xbdf5eae0	-0.120076895
85	0xbdf9114f	-0.121615045
86	0xbce5812a	-0.028015692
87	0xbe02ee09	-0.12786116
88	0x3dc3e85d	0.09565804
89	0x3c4613f4	0.012089718
90	0xbea5b001	-0.32360843
91	0xbe7412bd	-0.23835273
92	0xbe5f8114	-0.21826583
93	0xbd577740	-0.05260396
94	0xbdab6389	-0.08368594
95	0x3d11a834	0.0355608
96	0x3e865cd2	0.2624269
97	0x3dfea064	0.12432936
98	0xbe16b56f	-0.14717649
99	0x3dab6741	0.083693035
100	0x3eecfc56	0.46286267
101	0xbc8693be	-0.01642787
102	0xbe6d53a3	-0.23176436
103	0x3dc689d4	0.096942574
104	0xbe3f5a52	-0.18686798
105	0xbe01b983	-0.12668423
106	0xbe2ca9ae	-0.16861603
107	0xbe3b07bc	-0.18264669
108	0x3e16e69a	0.14736405
109	0xbe0be2fc	-0.13660806
110	0xbe726a21	-0.23673297
111	0xbe08c75f	-0.13357304
112	0x3de8bfa8	0.113646805
113	0xbdb7956f	-0.08964049
114	0xbe33111a	-0.17486992
115	0xba335e96	-0.00068424025
116	0xbd6b78fb	-0.057488423
117	0xbd0547d7	-0.032539215
118	0xbeaecef4	-0.34142268
119	0x3c743507	0.014905221

rnn.bias_hh_l0 f4 [120]
0	0xbd6d7eeb	-0.057982367
1	0xbe895315	-0.268212
2	0xbe4dfcaa	-0.20115915
3	0x3d299e24	0.04141058
4	0xbdf16654	-0.11787096
5	0x3da347a2	0.07972647
6	0x3e914ef6	0.28380555
7	0x3da3c38c	0.07996282
8	0xbe5fed31	-0.21867825
9	0xbe165d88	-0.14684117
10	0x3eeb394f	0.4594216
11	0xbe8a161a	-0.26969987
12	0xbe16cc87	-0.14726458
13	0xbe54331f	-0.20722626
14	0x3b87b187	0.004141036
15	0x3e31f897	0.17379986
16	0xbdfdb1be	-0.12387417
17	0x3df09e72	0.11748971
18	0x3de525cf	0.11188852
19	0xbe10e6bc	-0.14150518
20	0xbb66d7b6	-0.0035223789
21	0xbe3bd8e9	-0.18344463
22	0xbe610265	-0.2197357
23	0xbda748da	-0.08168192
24	0x3de5e6cc	0.11225662
25	0x3dabb3f1	0.083839305
26	0xbe7f63e8	-0.24940455
27	0x3d9d8349	0.07691056
28	0xbeaa7bd4	-0.33297598
29	0xbe1f8b4a	-0.15580478
30	0x3e51eb5f	0.20499943
31	0xbe711dee	-0.23546574
32	0xbe9db328	-0.30800748
33	0x3d5bcd20	0.05366242
34	0x3db2017d	0.0869169
35	0x3e001bf7	0.12510668
36	0xbee3f5e8	-0.4452355
37	0xbe324fb1	-0.17413212
38	0xbdf7bc1f	-0.12096428
39	0xbdef7cad	-0.11693702
40	0xbe8a522c	-0.27015817
41	0x3ef9f5a5	0.48820224
42	0x3c3c30d5	0.011486252
43	0xbdf2d697	-0.11857336
44	0xbd949436	-0.072548315
45	0xbe34456e	-0.1760461
46	0x3d122d7e	0.035687916
47	0xbe15fa2a	-0.14646211
48	0xbd644489	-0.055729423
49	0xbe96b406	-0.29434222
50	0xbe13b30c	-0.1442377
51	0xbe3ac036	-0.18237385
52	0xbe4b0163	-0.19824748
53	0xbe001867	-0.12509309
54	0x3beceb53	0.0072302013
55	0x3d8ba67b	0.06818863
56	0xbe35785d	-0.17721696
57	0xbe03ff07	-0.12890254
58	0xbe214991	-0.1575072
59	0x3e054b9e	0.13017127
60	0x3e5adbe5	0.21372946
61	0xbd699724	-0.057028905
62	0xbe36e87e	-0.17862126
63	0xbdd005ea	-0.10157378
64	0x39af0e78	0.0003338938
65	0x3d9d3c05	0.076774634
66	0x3d243d0b	0.040097278
67	0xbdaedc55	-0.08538119
68	0x3d6cddb3	0.057828616
69	0xbda0b564	-0.078470975
70	0xbc38305f	-0.011242001
71	0x3d90fde6	0.07079677
72	0xbd15cfa8	-0.03657499
73	0x3ccf1d7f	0.02528262
74	0xbde5a445	-0.112129726
75	0x3d7d3fdd	0.061828483
76	0xbc47fe98	-0.012206696
77	0xbacb7c63	-0.0015524741
78	0x3d66ec14	0.056377485
79	0x3d8cb1a6	0.06869821
80	0x3c311a98	0.010809563
81	0x3d7769db	0.060403686
82	0xbd44b176	-0.048020802
83	0xbd073933	-0.033013534
84	0xbd0658de	-0.032799594
85	0xbde90404	-0.11377719
86	0x3d94b969	0.07261927
87	0x3e0c68c8	0.13711846
88	0xbdd6cd2c	-0.10488352
89	0xbc7a9f81	-0.015296818
90	0xbe2f3de9	-0.1711346
91	0xbe7bbc52	-0.24583557
92	0xbe4e57f1	-0.20150734
93	0xbe2ae0c7	-0.16687308
94	0xbe294ca4	-0.16533142
95	0xbdac586d	-0.084153034
96	0x3eda7305	0.42665878
97	0xbe47ed14	-0.19524032
98	0x3d9e5e14	0.07732788
99	0xbde6a25f	-0.112614386
100	0x3f0e5a15	0.55606204
101	0x3e9b57e8	0.30340505
102	0xbda11e47	-0.07867103
103	0xbd6caa98	-0.05777988
104	0xbc6a8fb6	-0.01431649
105	0xbda13a9d	-0.07872508
106	0xbe2fbb5a	-0.17161313
107	0xbd879d45	-0.06621794
108	0x3e12a3fe	0.1432037
109	0x3cfa6f7b	0.030570736
110	0xbdc28df5	-0.094997324
111	0x3c5c099e	0.013430027
112	0xbdc669ba	-0.096881345
113	0xbdb4e70b	-0.088331304
114	0xbafb377b	-0.0019166315
115	0xbd49e48a	-0.049290217
116	0xbe5fac3a	-0.21843043
117	0x3c578d2c	0.013156217
118	0xbd380a57	-0.044931736
119	0x3cc92a0f	0.024556188

rnn.weight_ih_l1 f4 [120, 30]
0	0x3dd90775	0.105971254
1	0xbe039cbf	-0.12852763
2	0xbe3f2ce2	-0.18669465
3	0x3e4944f9	0.19655217
4	0x3d44b00d	0.048019458
5	0xbd8e46be	-0.06947087
6	0xbdf7580c	-0.120773405
7	0x3d8000e1	0.06250168
8	0xbe6f3cfb	-0.23363106
9	0x3dcf24f3	0.101144694
10	0xbd20f38e	-0.03929477
11	0x3e13a277	0.14417444
12	0xbdb3493a	-0.08754201
13	0x3d85c3c0	0.06531477
14	0x3d6e7184	0.058213726
15	0x3e6afbd7	0.22947632
16	0x3dca34d0	0.098733544
17	0xbe2bafa4	-0.1676622
18	0xbddab9d4	-0.10679975
19	0x3e26daa2	0.1629434
20	0x3dff7e39	0.12475247
21	0x3dc2174a	0.09477098
22	0xbe1b0f98	-0.15142667
23	0xbe1e1c12	-0.15440395
24	0xbe030010	-0.12792993
25	0xbd5b2b0d	-0.053507853
26	0xbc69f256	-0.014278969
27	0x3e5bfa27	0.21482144
28	0x3bdbc441	0.006706745
29	0x3d6c0c44	0.057628885
30	0x3d8e7e90	0.06957734
31	0x3e6d8644	0.2319575
32	0x3c69b6d2	0.014264779
33	0x3d2b85ef	0.041875776
34	0x3d5960ce	0.053070836
35	0xbe04177c	-0.12899584
36	0xbdc76731	-0.09736479
37	0xbca6b399	-0.02034931
38	0xbe3d3979	-0.18478955
39	0x3e472f18	0.19451559
40	0xbe7a52fa	-0.24445716
41	0x3ef37b9d	0.47555247
42	0x3df6f1f8	0.120578706
43	0xbe76f02b	-0.24115054
44	0x3dbeca16	0.093158886
45	0x3dbfd79b	0.09367295
46	0x3df1e74f	0.11811697
47	0x3e31eaa5	0.17374666
48	0xbe84adf6	-0.25913972
49	0xbe64149e	-0.2227349
50	0xbd2f0a97	-0.04273471
51	0xbc735e01	-0.014853955
52	0x3e6b7f8f	0.22997878
53	0xbbd4b207	-0.006490949
54	0xbe300eeb	-0.17193191
55	0x3e60514f	0.21906017
56	0x3d4602ec	0.04834263
57	0x3ee75d8b	0.45188555
58	0xbd64ada0	-0.055829644
59	0xbe2d02a2	-0.16895536
60	0xbe2faf74	-0.17156774
61	0x3d16b657	0.036794987
62	0x3cc901e2	0.02453703
63	0x3e378412	0.17921475
64	0xbdf790e0	-0.120881796
65	0xbdfe2f7b	-0.124114
66	0x3e12dd78	0.14342296
67	0x3d3accbf	0.045605417
68	0xbcef4bce	-0.029210951
69	0x3d6b9c5a	0.057522155
70	0xbdc4f20b	-0.096164785
71	0x3ee64559	0.44974783
72	0xbd8e6202	-0.06952287
73	0xbe5bdbd7	-0.21470581
74	0x3cf4f479	0.02990173
75	0x3df05515	0.11734978
76	0x3e0af9b8	0.13571823
77	0xbda2700d	-0.07931528
78	0xbe05a311	-0.13050486
79	0x3d1f3e2f	0.038877662
80	0x3ea27205	0.31727615
81	0xbdba1e41	-0.09087802
82	0x3d9a6a7f	0.07539844
83	0xbe42e1b1	-0.19031407
84	0x3d838582	0.06421949
85	0xbd80dbc3	-0.06291916
86	0xbe1e8e83	-0.15484051
87	0x3ea7dc85	0.3278543
88	0x3e2a9031	0.16656567
89	0x3d1bf187	0.038072135
90	0xbe69483e	-0.22781464
91	0xbd096575	-0.033544023
92	0x3d4b7ef8	0.049681634
93	0xbdd4b020	-0.10385156
94	0xbe695443	-0.2278605
95	0xbc4bb955	-0.012434323
96	0xbc4b7c3c	-0.0124197565
97	0x3e6fd11c	0.23419613
98	0xbe5e2c8f	-0.21696685
99	0xbd6c7a6a	-0.05773393
100	0xbe9e0690	-0.30864382
101	0x3e867545	0.26261345
102	0x3e5127f2	0.20425394
103	0xbd1b4a6f	-0.037912782
104	0x3e31d124	0.17364937
105	0xbd01f485	-0.031727333
106	0xbd6171f0	-0.0550403
107	0xbdaa1fff	-0.08306884
108	0xbe4251c3	-0.18976502
109	0xbe740504	-0.23830038
110	0x3d529de8	0.051420122
111	0x3e1e7b66	0.1547676
112	0x3dfaeaff	0.12251853
113	0xbcd45703	-0.025920397
114	0xbcec90df	-0.028877674
115	0x3d607f2e	0.054808788
116	0x3e5af8c2	0.21383956
117	0x3ec3b3d8	0.38223147
118	0x3df8afb5	0.121428885
119	0x3dd26f92	0.102751866
120	0xbe877b9d	-0.26461497
121	0x3e3541fc	0.17700952
122	0x3e045287	0.12922107
123	0x3e31ae7f	0.17351721
124	0x3ca86827	0.020557476
125	0xbdc4fa34	-0.09618035
126	0xbe2a123d	-0.1660852
127	0x3c96d93e	0.018414136
128	0xbe3f1ed6	-0.18664107
129	0xbd69d604	-0.057088867
130	0x3de4d695	0.11173741
131	0x3ea05c45	0.31320396
132	0x3df1a152	0.117983475
133	0x3d6f0083	0.058350097
134	0xbc563133	-0.013073253
135	0xbda772d8	-0.081762016
136	0xbe0f2fe9	-0.1398312
137	0x3de9e576	0.11420719
138	0xbe91e280	-0.28493118
139	0x3dbfa02b	0.093567215
140	0xbdd8ee91	-0.10592378
141	0xbdd1b2e1	-0.102391966
142	0xbda90267	-0.08252411
143	0xbd802751	-0.06257499
144	0xbb2cb408	-0.0026352424
145	0xbd6f32d8	-0.058398098
146	0xbd9669c9	-0.07344396
147	0x3de48ee6	0.11160068
148	0xbce78fd7	-0.02826683
149	0x3d85adee	0.06527315
150	0xbd56d0e6	-0.052445315
151	0x3e499302	0.19684985
152	0x3da16941	0.07881404
153	0xbd502f82	-0.050826557
154	0xbd4a0dd5	-0.049329598
155	0x3cb800d4	0.022461332
156	0xbda68586	-0.08130936
157	0xbca318f7	-0.019909365
158	0xbda6d9a0	-0.081469774
159	0x3e64c250	0.2233975
160	0x3e93645b	0.28787503
161	0x3e52b88a	0.20578209
162	0x3e7970cc	0.24359435
163	0xbe31f051	-0.1737683
164	0x3d07ce41	0.033155683
165	0x3e023442	0.12715247
166	0x3d70f1d6	0.058824383
167	0x3c2395e2	0.009984465
168	0x3d862504	0.06550029
169	0xbe31e079	-0.17370786
170	0x3d5ef0f0	0.054428995
171	0xbcc83f5d	-0.024444276
172	0x3e2274d3	0.15864877
173	0xbdbd700c	-0.09249887
174	0xbd140256	-0.03613504
175	0x3e20bcf4	0.1569708
176	0x3e67f9e7	0.22653924
177	0x3dce7bbd	0.10082195
178	0x3e76cbd0	0.24101186
179	0x3dc40628	0.09571487
180	0xbd6c2882	-0.05765582
181	0x3e7affca	0.24511638
182	0x3d4d9753	0.050193142
183	0x3e57d9d8	0.21079195
184	0xbdc70e2c	-0.097195
185	0xbe1a595b	-0.15073149
186	0x3e374376	0.17896828
187	0x3deefd4b	0.116694055
188	0x3c25211d	0.010078696
189	0x3d15422b	0.036440056
190	0xbf44e04f	-0.7690477
191	0x3ec18806	0.3779909
192	0xbd723d7d	-0.05914067
193	0xbe08a997	-0.13345943
194	0xbe2c0305	-0.16798027
195	0xbe2b5e0a	-0.16735092
196	0x3e0ad952	0.13559464
197	0xbdcc82cd	-0.09985886
198	0xbe4217a2	-0.18954328
199	0xbe40f2a2	-0.18842557
200	0x3e0e4358	0.13892877
201	0xbde5c251	-0.112187035
202	0x3e3a6964	0.18204266
203	0xbdbb0639	-0.09132046
204	0x3dac9c55	0.084282555
205	0x3d1376d6	0.036002003
206	0xbc0559ce	-0.008139087
207	0x3ded6d8a	0.115931585
208	0x3d9b1ab8	0.075734556
209	0xbcde3503	-0.027124887
210	0x3cab4ce6	0.020910691
211	0x3e7898fb	0.24277107
212	0xbdcc59cb	-0.09978064
213	0xbe00cc83	-0.12578015
214	0xbe28797c	-0.16452593
215	0xbd758bff	-0.059947964
216	0xbd8a0f96	-0.06741254
217	0xbda2f026	-0.07955961
218	0x3d92c224	0.07165936
219	0xbdd34d6d	-0.10317502
220	0x3b07d75a	0.0020727725
221	0xbd8507a2	-0.064955965
222	0x3e4bc276	0.198984
223	0xbe432ed6	-0.19060835
224	0xbe86e69a	-0.2634781
225	0xbe1e1d57	-0.1544088
226	0x3da7738a	0.08176334
227	0xbe42439e	-0.18971106
228	0xbdba6ad0	-0.09102404
229	0x3dd4de50	0.10393965
230	0x3d1d7b5f	0.038447734
231	0x3bfeb622	0.0077731768
232	0x3d11f4ff	0.035634037
233	0x3e0833a6	0.13300952
234	0xbd331af6	-0.043726884
235	0x3e27fb5d	0.16404481
236	0xbddffc2e	-0.10936771
237	0x3da6a2a8	0.08136493
238	0x3e1d11d0	0.15338826
239	0xbdd5ce53	-0.10439744
240	0xbe6a7150	-0.22894788
241	0x3d811250	0.06302321
242	0xbd404aa2	-0.046946175
243	0x3e6df407	0.2323762
244	0xbe38c506	-0.18043908
245	0xbe070fb1	-0.1318958
246	0x3e21a5ca	0.157859
247	0x3d5e99f1	0.05434603
248	0xbddab36a	-0.10678752
249	0x3e317a4f	0.17331813
250	0xbe4d1b9c	-0.20030063
251	0x3e0b5da1	0.13609935
252	0x3d148ef9	0.03626916
253	0xbe952981	-0.29133227
254	0xbe638eea	-0.22222486
255	0x3be60d45	0.007020625

rnn.weight_hh_l1 f4 [120, 30]
0	0xbca49df9	-0.020094858
1	0xbd5996b5	-0.05312224
2	0x3c691ed6	0.014228543
3	0x3d22794f	0.03966647
4	0x3dc5a33e	0.096502766
5	0x3e8176b7	0.25285885
6	0x3d44ffce	0.048095517
7	0xbe2a2242	-0.16614631
8	0xbe00053c	-0.12501997
9	0xbd920d2e	-0.0713142
10	0xbc245fba	-0.010032589
11	0xbd8e715e	-0.06955217
12	0xbdb0b774	-0.08628741
13	0xbcb1ef34	-0.021720506
14	0x3db8b488	0.090188086
15	0xbdfdde5b	-0.123959266
16	0xbd7b7fa8	-0.06140104
17	0x3e591c21	0.21202137
18	0xbb2b4de8	-0.0026138965
19	0xbe2792bd	-0.1636457
20	0x3dcd4468	0.10022813
21	0xbc7a37d7	-0.015272102
22	0xbdf2db36	-0.118582174
23	0xbe2a2120	-0.16614199
24	0xbd58228d	-0.052767325
25	0xbe58b65f	-0.21163319
26	0xbe1182df	-0.1421008
27	0x3d5dc367	0.05414143
28	0x3db5e8ac	0.08882269
29	0xbd985e2e	-0.07439838
30	0xbe46b5d1	-0.19405295
31	0xbda8a6a6	-0.08234911
32	0xbd5472ca	-0.051867284
33	0xbe04411c	-0.12915462
34	0xbdbceefb	-0.092252694
35	0x3e24e181	0.16101648
36	0xbdca7491	-0.098855145
37	0x3d7f0ada	0.06226621
38	0x3de5b3b6	0.11215918
39	0x3e2a2cba	0.16618624
40	0x3cb7faa9	0.022458391
41	0xbcebbffe	-0.028778072
42	0xbde7b5d0	-0.11313975
43	0xbd250176	-0.040284596
44	0x3e507398	0.20356596
45	0xbea8cc90	-0.3296857
46	0xbe23d459	-0.15998973
47	0x3dae48df	0.08509993
48	0x3c4f59ac	0.012655657
49	0x3e32401e	0.17407271
50	0xbc9172e6	-0.017754983
51	0x3e281c53	0.16417055
52	0x3db36a21	0.08760477
53	0xbe7ead03	-0.24870686
54	0x3e41fcaa	0.1894404
55	0x3d864d76	0.06557743
56	0x3c1aa08d	0.009437692
57	0xbd1a260d	-0.037633944
58	0xbd207a66	-0.03917923
59	0x3df38aed	0.11891732
60	0x3df8001e	0.12109397
61	0xbe156aef	-0.14591573
62	0x3c85625d	0.016282255
63	0xbe8a344e	-0.2699303
64	0x3e540612	0.2070544
65	0x3c00b9ea	0.007856825
66	0x3dc745ba	0.09730096
67	0xbc5ffd14	-0.013671178
68	0xbbdf31f9	-0.006811377
69	0xbdbfbed4	-0.093625695
70	0xbe1fda04	-0.1561051
71	0xbda04729	-0.07826073
72	0xbdf269fd	-0.11836622
73	0xbe413353	-0.18867235
74	0x3e1ec022	0.1550298
75	0xbdc57f72	-0.09643449
76	0xbe5973f2	-0.21235636
77	0x3e144f90	0.14483476
78	0xbcf8629a	-0.030320454
79	0x3b0c3193	0.0021391853
80	0xbdf96ff7	-0.12179559
81	0x3b0cab4f	0.0021464413
82	0xbe12add4	-0.14324123
83	0x3dfee021	0.12445093
84	0x3d66bfa6	0.056335114
85	0xbe36f38c	-0.17866343
86	0xbd8033e2	-0.06259896
87	0xbd5f194a	-0.054467477
88	0xbe1b1421	-0.15144397
89	0x3cc7faee	0.024411645
90	0xbda2656c	-0.07929501
91	0xbbc18184	-0.005905332
92	0x3dd0eb10	0.102010846
93	0xbdcc075c	-0.09962341
94	0x3e45be2b	0.19310825
95	0xbe0edf38	-0.13952339
96	0xbdbfd626	-0.093670174
97	0x3dd6174d	0.10453663
98	0xbd0a1ee1	-0.033720855
99	0xbd7f0490	-0.06226021
100	0x3ddcd1b3	0.107821845
101	0x3e491280	0.19635963
102	0x3d25ca47	0.04047611
103	0xbd3609ca	-0.04444293
104	0x3e81b075	0.2532994
105	0xbe59932d	-0.2124755
106	0xbdcafd5e	-0.09911607
107	0x3d5d7c00	0.054073334
108	0x3e858698	0.2607925
109	0xbe3d3790	-0.18478227
110	0x3d3e4d23	0.046460282
111	0x3e78d1a0	0.24298716
112	0x3da20e0d	0.07912836
113	0x3d72d711	0.059287135
114	0xbd9b5fd9	-0.07586641
115	0x3d4a61d6	0.04940971
116	0x3c358dcd	0.011081171
117	0x3d60451e	0.054753415
118	0x3daff763	0.08592107
119	0x3da926b4	0.08259335
120	0xbe67e8bd	-0.22647376
121	0xbe318345	-0.17335232
122	0xbbc4714f	-0.0059949527
123	0x3dcc8615	0.099865116
124	0xbdfcf6f5	-0.12351791
125	0xbd8784b5	-0.06617109
126	0xbe01091b	-0.1260113
127	0x3dab178a	0.08354099
128	0x3e55d548	0.20882142
129	0xbdf82c6f	-0.1211785
130	0x37c79183	2.3790408e-05
131	0x3e557293	0.20844488
132	0x3df2b417	0.11850756
133	0xbe64fa85	-0.2236119
134	0x3e7230c5	0.23651417
135	0xbe6a5f5e	-0.22887942
136	0xbdb1b32b	-0.08676752
137	0x3e3cc1d7	0.18433319
138	0x3df56f4c	0.11984119
139	0xbdca8b86	-0.09889893
140	0x3dc827f3	0.09773245
141	0xbd962adb	-0.07332393
142	0xbda52d86	-0.080653235
143	0xbda7d865	-0.08195571
144	0x3e6ba7d1	0.23013236
145	0x3ce161f6	0.027512532
146	0xbd17b1ab	-0.03703467
147	0xbdbe079d	-0.09278796
148	0x3e8a2123	0.26978406
149	0xbe0a5ea9	-0.13512672
150	0xbddf2978	-0.108965814
151	0xbe0fe69d	-0.14052816
152	0x3c321956	0.010870298
153	0xbe5aaf0f	-0.21355842
154	0x3d7bd71a	0.061484434
155	0x3c436ba2	0.011927517
156	0x3d962c0c	0.0733262
157	0xbd83a5ea	-0.0642813
158	0xbd7c5642	-0.0616057
159	0xbde735ca	-0.11289556
160	0xbd87af3f	-0.066252224
161	0x3e5a142f	0.21296762
162	0x3d7f72c1	0.062365297
163	0xbe7f2662	-0.24916986
164	0xbd0a8ae8	-0.033823878
165	0xbd0a0c70	-0.033703268
166	0x3d761e10	0.060087264
167	0x3dec2ab0	0.115315795
168	0x3e8057c7	0.2506697
169	0xba7409eb	-0.0009309339
170	0x3dc8b3b1	0.097998984
171	0x3c78866a	0.015168766
172	0xbe326ff8	-0.17425525
173	0xbd372281	-0.04471064
174	0x3e5fd1a7	0.2185732
175	0xbc2d8190	-0.010589972
176	0xbd94ab23	-0.07259204
177	0x3c2fc0f3	0.010727155
178	0x3df625c7	0.12018924
179	0x3e085fe9	0.13317837
180	0xbd8a84b8	-0.06763595
181	0xbe9679ab	-0.293897
182	0x3e0472ad	0.1293437
183	0xbe3150e0	-0.17316008
184	0x3d4521be	0.048127882
185	0xbdff42ad	-0.12463889
186	0x3c1a7bdf	0.009428947
187	0xbe72d665	-0.23714598
188	0xb9cd83a9	-0.0003919874
189	0xbd926762	-0.07148625
190	0xbe2eed77	-0.17082773
191	0x3dc8b725	0.09800557
192	0xbe66aa81	-0.2252598
193	0xbd1cea0e	-0.03830915
194	0xbc6cf5c1	-0.014462889
195	0xbe8bd151	-0.27308133
196	0xbe0717d7	-0.13192688
197	0xbd6a3873	-0.05718274
198	0x3e91694e	0.28400654
199	0x3caadf42	0.02085841
200	0xbe23cf38	-0.15997016
201	0xbd19257a	-0.037389256
202	0x3e12340a	0.14277664
203	0x3d06cfdf	0.032913085
204	0x3d2a0218	0.041505903
205	0xbd5f9923	-0.054589402
206	0x3db4b1db	0.08822986
207	0x3e3d5259	0.18488444
208	0xbd213ceb	-0.039364737
209	0x3dc10d88	0.09426409
210	0xbd4cd44a	-0.050007142
211	0x3e2554f0	0.16145682
212	0x3d585bc9	0.05282191
213	0x3c19ba21	0.0093827555
214	0x3dbf16db	0.09330531
215	0xbe6a66c0	-0.22890759
216	0xbd7df88a	-0.062004603
217	0xbe23a49b	-0.15980761
218	0x3e16ef6b	0.14739768
219	0x3d2eb616	0.04265412
220	0x3d01ada2	0.03165973
221	0x3d861fb3	0.06549015
222	0x3d257aca	0.040400304
223	0xbd07398f	-0.033013877
224	0x3e210eee	0.15728351
225	0x3ea74797	0.32671806
226	0x3dce9557	0.10087078
227	0xbe212c06	-0.1573945
228	0x3e14676e	0.1449258
229	0x3e6b4040	0.22973728
230	0xbd60840c	-0.05481343
231	0x3c8d89c4	0.017277606
232	0x3e67097f	0.22562216
233	0x3e2078bd	0.15671058
234	0xbe222357	-0.15833794
235	0x3dbbca87	0.091694884
236	0xbd887119	-0.06662197
237	0x3df73ca7	0.120721154
238	0x3e009307	0.12556086
239	0x3e130b08	0.14359677
240	0xbcd6d471	-0.026224347
241	0xb81b6768	-3.7051184e-05
242	0xbdc2e475	-0.09516231
243	0xbe622116	-0.22082934
244	0xbdef50b3	-0.11685314
245	0xbe891e67	-0.26781008
246	0xbe0de1d4	-0.13855678
247	0x3d915181	0.07095624
248	0x3d99dd79	0.07512946
249	0x3cd58c7e	0.026067968
250	0xbe0db378	-0.13837993
251	0xbe104b23	-0.14091162
252	0x3c8a1570	0.016855925
253	0x3d6dff20	0.058104634
254	0x3e4ea10c	0.20178622
255	0xbe0dc6d9	-0.13845386

rnn.bias_ih_l1 f4 [120]
0	0x3cd7698e	0.02629545
1	0x3e19c0fd	0.15015025
2	0xbd8aaf20	-0.06771684
3	0xbe63b5d6	-0.22237334
4	0xbe3e7db8	-0.18602645
5	0xbd241cd9	-0.040066574
6	0xbdf5a49b	-0.119942866
7	0x3db69203	0.08914568
8	0x3d3dd0c7	0.046341684
9	0x3bbbdf6b	0.0057334206
10	0x3b98a8ec	0.004658809
11	0xbd505a13	-0.05086715
12	0x3dd625f8	0.10456461
13	0xbdf458ed	-0.11931024
14	0x3cb9267c	0.022601359
15	0x3ee9bae0	0.45650387
16	0xbdc1ac30	-0.0945667
17	0xbe3047b8	-0.17214859
18	0xbdd5a5c0	-0.10432005
19	0xbe142a50	-0.14469266
20	0xbd721eb1	-0.0591113
21	0x3e002619	0.12514533
22	0x3e027d76	0.12743172
23	0x3eac732f	0.33681628
24	0xbe5a4993	-0.21317129
25	0xbe4b1873	-0.19833545
26	0x3dc4609d	0.0958874
27	0xbde732a8	-0.11288959
28	0xbdb551e0	-0.08853507
29	0x3ce829ce	0.028340247
30	0x3d6de20f	0.058076914
31	0xbe4be530	-0.19911647
32	0xbde01407	-0.1094132
33	0x3dc220a6	0.094788834
34	0xbdd94d9e	-0.106105074
35	0xbd7bfb02	-0.061518677
36	0xbc6c6004	-0.014427189
37	0xbe4bcf06	-0.19903192
38	0xba2c69b7	-0.0006577032
39	0xbeaae553	-0.33378085
40	0x3dc89049	0.09793145
41	0x3d866a51	0.06563247
42	0x3d80215c	0.06256363
43	0x3d4a71ff	0.04942512
44	0x3d956861	0.07295299
45	0xbeb3f698	-0.35149074
46	0xbe6b3c2f	-0.22972177
47	0xbe73fdc6	-0.23827276
48	0xbe3ed954	-0.18637592
49	0xbddf0ac2	-0.10890724
50	0x3c902c3b	0.017599216
51	0xbe98b325	-0.29824176
52	0xbef0dc6e	-0.47043175
53	0xbe4d6522	-0.2005811
54	0xbdec09ee	-0.115253314
55	0xbe2e8570	-0.1704309
56	0xbdc49fe9	-0.09600813
57	0xbe32e518	-0.17470205
58	0xbd4ad106	-0.049515747
59	0xbdedc3c8	-0.11609608
60	0x3d3ccd78	0.046094388
61	0xbd44ad84	-0.04801704
62	0x3c00b747	0.007856197
63	0x3dcfd4f2	0.10148038
64	0xbd801c59	-0.06255407
65	0xbd82bc91	-0.063836224
66	0x3d00c616	0.03143891
67	0x3dc312c4	0.09525064
68	0xbddedb23	-0.10881641
69	0x3de863f9	0.11347193
70	0x3d83102a	0.063995674
71	0xbe0169d5	-0.12638028
72	0x3e370fb2	0.17877081
73	0x3daf98b3	0.08574047
74	0xbd9c0e91	-0.07619966
75	0x3d571602	0.052511223
76	0x3db32223	0.087467454
77	0xbda7ee7d	-0.08199785
78	0xbdbdca5a	-0.09267111
79	0xbc48df13	-0.012260216
80	0x3b1a7225	0.002356657
81	0x3d129ef3	0.035796117
82	0x3de2410e	0.110475644
83	0xbca241b2	-0.019806717
84	0xbd62c87b	-0.055366974
85	0x3dacdaaa	0.08440144
86	0x3d4648b9	0.048409197
87	0xbe08fc30	-0.13377452
88	0xbd8ab8eb	-0.067735516
89	0x3c4c58d1	0.012472347
90	0xbe508577	-0.20363413
91	0x3deef8c7	0.11668544
92	0xbe423aff	-0.18967818
93	0xbe299709	-0.16561522
94	0xbc0f319d	-0.008739856
95	0x3cfaf3bb	0.030633798
96	0xbe557bf7	-0.2084807
97	0xbe74671b	-0.23867457
98	0x3d4ed8e0	0.050499797
99	0xbe27f026	-0.16400203
100	0xbe0d5b6e	-0.13804409
101	0xbe12bb9a	-0.14329377
102	0x3ddb08c3	0.106950305
103	0xbda93e9c	-0.08263895
104	0xbdb582fc	-0.08862874
105	0x3ee210d0	0.44153452
106	0x3d467012	0.048446722
107	0xbe15a4f7	-0.1461371
108	0x3db05984	0.08610824
109	0x3d400b1e	0.046885602
110	0xbe8cf4e0	-0.27530575
111	0xbd8b25ab	-0.06794294
112	0x3ebab8b3	0.3646904
113	0x3e90c7ee	0.28277534
114	0x3e091752	0.13387802
115	0xbdd4b77f	-0.103865616
116	0xbe01f0fe	-0.12689587
117	0xbd6a043a	-0.057132937
118	0x3dcaedd1	0.09908641
119	0xbe03f8ae	-0.12887833

rnn.bias_hh_l1 f4 [120]
0	0x3d53df88	0.051726848
1	0xbdf1d526	-0.11808233
2	0xbe513b34	-0.2043274
3	0x3e06018e	0.1308653
4	0xbd65e22c	-0.056123897
5	0xbd612f9b	-0.05497704
6	0xbe508aa8	-0.20365393
7	0xbd690785	-0.056891937
8	0x3ce0bbf1	0.027433367
9	0xbe3cdc24	-0.18443352
10	0xbe38e9bf	-0.18057917
11	0x3d06ea2e	0.032938175
12	0x3e11a3ac	0.14222592
13	0xbe72f9cc	-0.23728102
14	0x3e111ded	0.14171572
15	0x3e9bb6a1	0.30412772
16	0x3d62fe68	0.055418402
17	0xbda263a1	-0.07929159
18	0x3d6827fb	0.056678753
19	0x3cdafa56	0.026730698
20	0x3cc88b7b	0.024480572
21	0xbda2bbf7	-0.07946008
22	0x3eb1e3f6	0.34744233
23	0x3ea73edd	0.32665148
24	0x3e0303ff	0.12794493
25	0x3dce3ba5	0.1006997
26	0xbd505caf	-0.05086964
27	0xbe560898	-0.20901716
28	0x3c9db65c	0.019251995
29	0x3ab1637e	0.0013533679
30	0x3c10d41b	0.008839632
31	0x3d878a1b	0.066181384
32	0xbcb0cf22	-0.021583144
33	0x3db273dc	0.08713505
34	0x3d1dd775	0.038535554
35	0xbd56c7ab	-0.052436512
36	0xbd567f29	-0.052367363
37	0xbd873867	-0.06602555
38	0x3ca23396	0.019799989
39	0xbe55a6d3	-0.2086442
40	0x3d7f7d24	0.062375203
41	0xbe270148	-0.16309083
42	0x3df1c84b	0.11805781
43	0x3ca9d78e	0.020732667
44	0xbc85ab30	-0.01631698
45	0xbebf2823	-0.3733531
46	0xbdaef2a0	-0.08542371
47	0x3c601b16	0.013678333
48	0xbd8b90c3	-0.068147205
49	0xbd2a56fd	-0.041586865
50	0xbcad300b	-0.021141073
51	0xbcc23559	-0.023707079
52	0xbea47f1c	-0.32128227
53	0xbe8d1a1f	-0.2755899
54	0xbe307245	-0.1723109
55	0xbe440045	-0.19140728
56	0xbdf602a7	-0.12012225
57	0xbc31781d	-0.01083186
58	0xbdeea230	-0.116520286
59	0xbd5d8571	-0.054082338
60	0x3e0dfe51	0.13866545
61	0x3da0afe1	0.07846046
62	0xbd8c0392	-0.068366185
63	0xbd7d62b0	-0.061861694
64	0x3bde4331	0.006782912
65	0x3d8a2c8d	0.06746779
66	0xbd5e1787	-0.054221656
67	0x3d4c1d66	0.049832724
68	0x3d32066d	0.04346316
69	0xbdf8c941	-0.12147761
70	0x3cae5197	0.02127914
71	0xbd0f9363	-0.03505267
72	0xbdde2794	-0.10847393
73	0x3d9bd363	0.07608678
74	0xbd8b9944	-0.068163425
75	0x3d17ff83	0.03710891
76	0x3ddc813e	0.107668385
77	0x3dded63f	0.10880708
78	0xbde8ab9c	-0.11360857
79	0xbbe9d54a	-0.0071360217
80	0x3c45b8c7	0.01206798
81	0xbd8bad8f	-0.06820213
82	0x3b8fc4b3	0.004387462
83	0x3dbd6a79	0.09248824
84	0xbd0414b5	-0.03224631
85	0x3de41907	0.11137586
86	0x3e3dc0ac	0.1853053
87	0x3df06724	0.117384225
88	0xbd2d92f2	-0.042376466
89	0xbd3d2cbc	-0.04618524
90	0x3dbbafb9	0.09164376
91	0x3d99438c	0.07483587
92	0xbca3301e	-0.019920405
93	0x3d9cadd6	0.07650344
94	0xbe556dac	-0.20842618
95	0xbe010349	-0.1259891
96	0xbe8254aa	-0.2545522
97	0xbd5ba2c1	-0.05362201
98	0x3d88f2df	0.06686949
99	0xbc9069ae	-0.017628517
100	0xbb96a76d	-0.0045975954
101	0xbe2d99ee	-0.16953251
102	0xbe4a2223	-0.19739585
103	0xbe386eab	-0.18010966
104	0x3e17bada	0.14817372
105	0x3efed7c8	0.49774003
106	0xbe002262	-0.12513116
107	0xbcb4f32a	-0.022088606
108	0xbe06cd3a	-0.13164225
109	0x3d50d01e	0.050979726
110	0xbea024f2	-0.31278187
111	0xbcb18ec8	-0.021674529
112	0x3dda48e6	0.106584355
113	0x3e429ccd	0.19005127
114	0xbcb941cb	-0.02261438
115	0x3de4bbc5	0.11168627
116	0xbdd0b539	-0.101908155
117	0xbda338c2	-0.0796981
118	0x3dc819d1	0.09770549
119	0xbe3ff006	-0.18743905

reg.weight f4 [1, 30]
0	0xbde2b7fe	-0.1107025
1	0xbd0d3f05	-0.03448393
2	0xbd0eace4	-0.03483285
3	0xbd8ea53f	-0.06965112
4	0x3d5bab36	0.053630076
5	0x3d461715	0.048361856
6	0xbdab1e8f	-0.08355438
7	0x3d2d9019	0.04237375
8	0xbd8f9c2f	-0.070122115
9	0x3cdc2d77	0.026877148
10	0x3dc16615	0.09443299
11	0x3db5d182	0.08877851
12	0xbd18fbbf	-0.03734946
13	0x3dd7b119	0.105318256
14	0x3d415597	0.047200765
15	0xbe2364ab	-0.1595637
16	0xbd15cf63	-0.036574733
17	0x3d4cd08b	0.05000357
18	0x3d2b10c0	0.04176402
19	0xbd4913b6	-0.049091063
20	0x3d5cb168	0.053880125
21	0x3dd63a5f	0.10460352
22	0xbdb45d07	-0.08806806
23	0xbe25cb8a	-0.16190925
24	0x3e076dae	0.13225433
25	0xbdb6b308	-0.08920866
26	0xbde0701f	-0.109588854
27	0xbddd85b0	-0.108165145
28	0x3d40577b	0.046958428
29	0xbc1657db	-0.00917622
