campusMCM/lstm7.pth (torch, 127943 bytes, 9 tensors)

rnn.weight_ih_l0 f4 [200, 3]
-0.32845187 -0.55071527 0.93445003 -0.29170778 -1.0033057 2.1358907 -0.27153522 -0.43129432
0.73648626 -0.4231067 -0.0056773988 -0.056323413 -0.15272568 -0.14821368 -0.10891845 -0.22076538
-0.44485876 -0.74719983 -0.015168475 -0.27448845 -0.3266917 -0.23340936 -0.10650831 -0.26368967
-0.25631103 -1.0089893 -0.033538163 -0.097926624 -0.029854348 0.013914922 -2.3366675 -1.9568869
0.31000364 -0.5977728 -0.78714395 0.86038417 -0.21863732 -0.36205733 0.094662756 -0.2723698
-0.017113492 -0.17136809 0.07793977 -0.5605583 0.33882082 -0.12110041 -0.19445717 -0.26316184
1.5996627 0.73204696 1.8295351 -0.13579626 0.0009943362 -0.05946118 -0.109890886 -0.30818042
0.054866172 0.0007640374 -0.042842496 -0.12278054 -0.466269 -0.2741823 -0.30702728 -0.0780404
-0.51077986 -0.52234524 -0.09556997 -0.30120832 -0.41243112 0.11094728 -0.06265335 -0.044075564
0.043582395 0.04457644 -0.40633735 -0.13542543 -0.07549254 -0.41467446 0.44133288 0.05278605
-0.08445271 -0.24381468 -0.17110188 -0.16222382 -0.24631377 -0.3962202 -0.23810078 0.052865397
-0.30867082 -0.2863087 -0.19452934 -0.1535926 0.022561176 -0.17440382 -0.40624923 0.13403359
-0.2695495 -0.37176916 -0.5512773 0.018752815 -0.22913857 -0.09385713 -0.043700024 -0.009974814
0.042853262 0.005703053 -0.09816349 -0.10248237 0.33081242 -0.17130098 -0.29874298 -0.08288516
0.08919706 -0.2313012 -0.14181773 -0.06013039 -0.13056126 -0.39466402 -0.31332532 -0.34253648
-0.17581108 -0.037011083 0.0074206633 -0.30956522 0.24098216 2.337098 -1.4390247 -0.83687425
-0.7211859 -0.39422107 -0.29419807 -0.27520436 -0.21979852 -0.12499993 -0.2567098 -0.11702626
-0.24976903 -0.15238024 -0.120454915 -0.09276129 -0.08736543 -0.23554476 -0.2369447 -0.09916064
-0.17406575 -0.1264524 -0.09427888 -0.6022063 -0.3074074 -0.6975752 -0.20607357 -0.28597456
0.5902942 0.59358746 -0.09365499 1.3212985 -0.10498803 -0.006707253 0.6706929 -0.14360005
-0.25921133 -0.13446629 -0.07736162 0.17896529 -0.12209708 -0.033478174 -0.18256803 -0.26586893
-0.05497251 -0.18730299 -0.29933947 0.01782274 0.03823873 -0.13874933 -0.5013942 -0.5183785
-0.3209371 -0.23480053 -0.123454385 -0.0855495 -2.2490504 0.27583277 -2.9463983 -0.61543125
-0.6757044 0.60387284 0.027960937 0.3282412 0.11034212 0.073672965 0.049935937 -0.05756952
-0.10363492 -0.48601502 0.13334966 0.013391535 0.04625226 -0.01274945 1.7156664 2.159621
1.2526555 -0.20969307 -0.08938461 0.030562405 0.10578056 -0.13233593 0.00106048 -0.17651655
-0.14607216 -0.15467343 -0.06394711 -0.10224378 -0.050809458 -0.05717796 -0.115421094 -0.43102038
-0.14366598 -0.2821976 0.093081765 0.11389802 0.14464732 -0.05870657 0.24018241 0.05191712
-0.321121 -0.10980181 -0.046640325 -0.373947 0.40330744 -0.091048196 0.111055665 0.051765285
-0.119747706 0.022680338 -0.19694169 -0.28009433 -0.2746556 0.02926701 -0.08607858 -0.11882147
-0.19344474 -0.018318787 -0.15625446 -0.033356853 -0.25071388 -0.28104565 -0.20620239 -0.15524413
-0.030968582 -0.09223399 -0.020924497 -0.15663953 -0.028494315 0.030015128 -0.031421207 0.06402018
00000000: d82a a8be adfb 0cbf 1e38 6f3f b95a 95be
00000010: 526c 80bf 6fb2 0840 aa06 8bbe 9cd2 dcbe
00000020: 5d8a 3c3f 71a1 d8be 7909 babb 61b3 66bd
00000030: 1f64 1cbe 54c5 17be a310 dfbd 5210 62be
00000040: 87c4 e3be 7d48 3fbf 3285 78bc c089 8cbe
00000050: 2244 a7be dd02 6fbe 0721 dabd 5502 87be
00000060: 333b 83be 9026 81bf 505f 09bd c18d c8bd
00000070: 1b91 f4bc 6afb 633c f68b 15c0 457b fabf
00000080: ccb8 9e3e a307 19bf 4482 49bf 2342 5c3f
00000090: 76e2 5fbe 945f b9be 8cde c13d 0e74 8bbe
000000a0: 9831 8cbc 1e7b 2fbe e39e 9f3d c080 0fbf
000000b0: ec79 ad3e 7e03 f8bd c81f 47be 26bd 86be
000000c0: bfc1 cc3f 6e67 3b3f 352e ea3f 2d0e 0bbe
000000d0: 6354 823a 918d 73bd 790e e1bd d3c9 9dbe
000000e0: 5abb 603d af49 483a 9d7b 2fbd 5d74 fbbd
000000f0: cfba eebe 9f61 8cbe ae32 9dbe a5d3 9fbd
00000100: 78c2 02bf 6bb8 05bf 30ba c3bd fa37 9abe
00000110: 2c2a d3be 5438 e33d 6650 80bd 9488 34bd
00000120: 7483 323d c995 363d 730b d0be f7ac 0abe
00000130: d59b 9abd 3650 d4be 62f6 e13e 2f36 583d
00000140: 8bf5 acbd 8eaa 79be 5535 2fbe 001e 26be
00000150: ad39 7cbe 60dd cabe b1d0 73be 6389 583d
00000160: 1a0a 9ebe 0e97 92be b332 47be 6147 1dbe
00000170: 37d2 b83c ea96 32be e6ff cfbe 1a40 093e
00000180: 6402 8abe 8758 bebe 8220 0dbf 819f 993c
00000190: 4da3 6abe 2b38 c0bd ccfe 32bd 676d 23bc
000001a0: e786 2f3d ade0 ba3b f109 c9bd 47e2 d1bd
000001b0: 3f60 a93e 8669 2fbe d7f4 98be b2bf a9bd
000001c0: f3ac b63d 39da 6cbe ab38 11be 494b 76bd
000001d0: dab1 05be 6711 cabe 2d6c a0be f160 afbe
000001e0: d207 34be ef98 17bd 0929 f33b 557f 9ebe
000001f0: 07c4 763e 0393 1540 f631 b8bf 643d 56bf
00000200: a49f 38bf 58d7 c9be 21a1 96be 96e7 8cbe
00000210: dd12 61be f7ff ffbd 786f 83be 77ab efbd
00000220: 74c3 7fbe 9109 1cbe 11b1 f6bd a2f9 bdbd
00000230: a6ec b2bd a532 71be a2a1 72be bc14 cbbd
00000240: 4b3e 32be bd7c 01be 4915 c1bd 312a 1abf
00000250: 8164 9dbe 4a94 32bf f304 53be 426b 92be
00000260: 851d 173f 59f5 173f 30ce bfbd 4f20 a93f
00000270: f703 d7bd 84c8 dbbb 88b2 2b3f e40b 13be
00000280: 59b7 84be 88b1 09be c56f 9ebd ad42 373e
00000290: 090e fabd 6920 09bd 1df3 3abe f91f 88be
000002a0: db2a 61bd 5bcc 3fbe 0643 99be ff00 923c
000002b0: 37a0 1c3d 4e14 0ebe 5f5b 00bf 74b4 04bf
000002c0: de51 a4be 8d6f 70be a7d5 fcbd 9434 afbd
000002d0: 71f0 0fc0 f439 8d3e ca91 3cc0 e78c 1dbf
000002e0: f7fa 2cbf 6997 1a3f 560e e53c 3b0f a83e
000002f0: 0dfb e13d dae1 963d a089 4c3d 04ce 6bbd
00000300: 8c3e d4bd f6d6 f8be d08c 083e 2b68 5b3c
00000310: 0373 3d3d 12e3 50bc f59a db3f 3b37 0a40
00000320: 0457 a03f c8b9 56be 470f b7bd 025e fa3c
00000330: 7aa3 d83d 1283 07be ceff 8a3a c1c0 34be
00000340: f193 15be b662 1ebe b4f6 82bd 3065 d1bd
00000350: 941d 50bd 7033 6abd e561 ecbd b4ae dcbe
00000360: 2d1d 13be 347c 90be a7a1 be3d 5d43 e93d
00000370: 6d1e 143e 4d76 70bd 61f2 753e 0ca7 543d
00000380: f969 a4be c5df e0bd ed09 3fbd fb75 bfbe
00000390: 507e ce3e 7a77 babd 2771 e33d d607 543d
000003a0: 493e f5bd 1ecc b93c 15ab 49be 8668 8fbe
000003b0: a99f 8cbe 5ec1 ef3c f749 b0bd ac58 f3bd
000003c0: 6116 46be 4811 96bc 2b01 20be 32a1 08bd
000003d0: 925d 80be 37e5 8fbe b826 53be 51f8 1ebe
000003e0: d3b1 fdbc 2de5 bcbd da69 abbc 1d66 20be
000003f0: e96c e9bc 49e2 f53c 86b3 00bd 031d 833d

rnn.weight_hh_l0 f4 [200, 50]
-0.06755388 0.22197811 -0.17238465 -0.03766156 0.2236312 0.20163102 -0.19935656 0.3004538
-0.23475064 -0.13656059 0.22548583 -0.07719819 0.20931596 0.26438156 0.11661029 -0.32066408
0.33511513 -0.01565783 -0.07517092 -0.1731897 -0.29227406 -0.5307681 0.008123328 0.051664118
0.36327833 -0.072411336 -0.13711728 -0.11649956 -0.18745059 -0.25567135 0.13727994 -0.0819593
0.0004531605 -0.14024235 0.17906106 -0.20259185 -0.06657092 0.087430954 -0.088207394 0.18505365
-0.09688813 0.13185488 0.080199376 0.03253753 -0.056061212 0.020385966 -0.11003888 -0.17447034
0.33005574 -0.18201438 -0.020387936 0.018038042 0.4614611 0.46322173 -0.28522983 -0.2781825
0.105538286 -0.0027075517 -0.2712102 0.110474065 0.23238704 -0.046802804 -0.115952015 -0.09639172
0.18680221 0.14543039 0.06784334 -0.15002336 -0.085819244 0.007909114 0.09628038 -1.2295433
0.2937872 0.11931561 0.0058752443 -0.28540003 -0.2599143 -0.24308395 0.03881732 -0.012747428
0.05973918 0.121391736 0.16548418 0.06939173 -0.105047286 0.01951476 0.24765378 -0.14121518
0.074199155 0.09224932 0.17969346 -0.14139424 0.52152133 -0.26203126 0.16932437 -0.29952964
-0.032669786 -0.1523782 -0.10177968 -0.17915577 -0.3698417 -0.16963562 0.5628043 0.51731503
0.13933727 -0.10386266 0.1139885 0.0036324188 -0.05601442 -0.21016918 0.0016502456 -0.24887767
0.24080908 0.2756649 0.44629312 -0.07820859 1.1410583 -0.18915363 -0.045388076 -0.20934354
-0.0772376 -0.3103464 0.24896917 0.28118044 0.41954398 -0.042377226 -0.4634832 -0.014351397
0.04935351 -0.06643198 0.16326465 0.16380014 -0.28597692 -0.08759486 0.28654772 -0.087205306
0.077396326 -0.06548402 -0.09513892 0.10840288 -0.16485552 -0.08372557 1.09295 0.077424146
0.11342258 0.13891613 -0.270845 -0.30080009 0.2327186 -0.023919793 -0.19448023 0.1918389
0.12702705 0.058084883 0.09303875 -0.0648322 0.05318363 0.0034761978 -0.15454762 -0.21970206
-0.16025375 -0.0045912806 0.45410922 0.30528548 0.20382462 -0.15055344 0.36914867 -0.13855149
0.06811968 -0.017139474 -0.06319437 -0.24439484 0.10033688 0.115436465 0.22769298 -0.08875328
-0.29939973 -0.026093988 -0.054909617 -0.11614648 0.13977441 0.17841941 -0.21891263 -0.10785214
0.135809 -0.20400143 -0.13453898 0.042690847 -0.12600566 -0.08567985 -0.015410488 0.1324311
0.20659722 0.15641533 0.25929606 -0.042301103 -0.06734857 -0.16214404 0.16174233 0.22858438
0.020666678 -0.03767921 0.013038302 0.058005188 0.04771492 0.075045176 0.0035770962 0.0699616
0.043668948 -0.101584 -0.25443462 -0.0960224 0.064485185 -0.118045874 0.13574259 -0.17286955
0.15715715 -0.13302809 0.013704355 -0.07800879 -0.12574284 0.094056696 0.0066785547 0.13876058
-0.056254372 -0.14513619 -0.08459996 -0.12334205 -0.09615714 0.044128392 -0.081843354 -0.08818761
-0.05556353 0.07956464 -0.035017885 -0.06110502 -0.04846925 0.09116634 -0.13815285 0.01785556
-0.11254079 0.21891285 0.12813553 0.0447626 0.1109225 -0.036804684 -0.045998417 -0.10520654
-0.06091239 0.051041678 0.073510066 -0.18191685 0.30378214 0.11600579 0.20686246 0.14047833
00000000: b059 8abd 3b4e 633e 9a85 30be 0243 1abd
00000010: 94ff 643e 5d78 4e3e 2024 4cbe 15d5 993e
00000020: 7962 70be 8ad6 0bbe c2e5 663e 161a 9ebd
00000030: ec56 563e 055d 873e 60d1 ee3d 152e a4be
00000040: 3694 ab3e d944 80bc 36f3 99bd a458 31be
00000050: f2a4 95be 6be0 07bf b517 053c c19d 533d
00000060: 9eff b93e 654c 94bd 7968 0cbe 5297 eebd
00000070: 0cf3 3fbe 5be7 82be 1d93 0c3e 47da a7bd
00000080: 2c96 ed39 b19b 0fbe c85b 373e 3d74 4fbe
00000090: 5656 88bd 000f b33d 14a6 b4bd b47e 3d3e
000000a0: 496d c6bd f704 073e 923f a43d 1346 053d
000000b0: 71a0 65bd 7800 a73c 105c e1bd 5aa8 32be
000000c0: 11fd a83e fa61 3abe 9a04 a7bc 84c4 933c
000000d0: a144 ec3e 662b ed3e a509 92be f06d 8ebe
000000e0: 7524 d83d 2e71 31bb 10dc 8abe 3a40 e23d
000000f0: def6 6d3e 4cb4 3fbd 4078 edbd 0669 c5bd
00000100: 1449 3f3e b4eb 143e 73f1 8a3d b99f 19be
00000110: 00c2 afbd 3a95 013c a62e c53d ad61 9dbf
00000120: 476b 963e be5b f43d 1f85 c03b f41f 92be
00000130: 7d13 85be 00eb 78be e9fe 1e3d 97da 50bc
00000140: 12b1 743d 3b9c f83d af74 293e 401d 8e3d
00000150: 0823 d7bd 6bdd 9f3c f498 7d3e b69a 10be
00000160: baf5 973d 36ed bc3d 9001 383e a7c9 10be
00000170: 6c82 053f f628 86be 5e63 2d3e f35b 99be
00000180: c1d0 05bd 0809 1cbe dd71 d0bd 9c74 37be
00000190: e45b bdbe f6b4 2dbe f113 103f c26e 043f
000001a0: 6eae 0e3e f2b5 d4bd cd72 e93d e00d 6e3b
000001b0: 606f 65bd 9736 57be 0e4d d83a cad9 7ebe
000001c0: a896 763e f323 8d3e 8880 e43e d32b a0bd
000001d0: 330e 923f 7db1 41be d9e8 39bd 275e 56be
000001e0: bf2e 9ebd b9e5 9ebe c6f1 7e3e e2f6 8f3e
000001f0: 78ce d63e be93 2dbd ac4d edbe 1f22 6bbc
00000200: e826 4a3d 7d0d 88bd d92e 273e 39bb 273e
00000210: 916b 92be ef64 b3bd 62b6 923e b298 b2bd
00000220: f781 9e3d 7c1c 86bd 32d8 c2bd 5402 de3d
00000230: e3cf 28be 5078 abbd c9e5 8b3f 8d90 9e3d
00000240: 194a e83d 0840 0e3e 32ac 8abe 7802 9abe
00000250: c94d 6e3e 71f3 c3bc d325 47be 6b71 443e
00000260: 6113 023e 6aea 6d3d 1a8b be3d bfc6 84bd
00000270: 14d7 593d ecd0 633b bb41 1ebe 94f9 60be
00000280: 8f19 24be 7472 96bb 0181 e83e 614e 9c3e
00000290: 67b7 503e ae2a 1abe 0e01 bd3e 71e0 0dbe
000002a0: 5582 8b3d 1568 8cbc 0d6c 81bd a442 7abe
000002b0: 6c7d cd3d f469 ec3d 5928 693e 48c4 b5bd
000002c0: ec4a 99be 0fc3 d5bc e8e8 60bd 35de edbd
000002d0: 0621 0f3e 94b3 363e a22a 60be 95e1 dcbd
000002e0: 8411 0b3e c0e5 50be 96c4 09be 99dc 2e3d
000002f0: a107 01be eb78 afbd 457c 7cbc 059c 073e
00000300: 398e 533e 572b 203e 74c2 843e ec43 2dbd
00000310: 0cee 89bd 1609 26be c89f 253e 0612 6a3e
00000320: 2a4d a93c 8455 1abd 9a9e 553c d996 6d3d
00000330: b870 433d 49b1 993d b76d 6a3b 0748 8f3d
00000340: 36de 323d 460b d0bd 4145 82be 64a7 c4bd
00000350: cf10 843d 09c2 f1bd 1b00 0b3e b704 31be
00000360: ceed 203e 8438 08be 3b88 603c 13c3 9fbd
00000370: bbc2 00be cca0 c03d c7d7 da3b 4117 0e3e
00000380: fc6a 66bd 959e 14be be42 adbd c29a fcbd
00000390: 09ee c4bd f9bf 343d 7d9d a7bd b59b b4bd
000003a0: 9696 63bd c9f2 a23d ea6e 0fbd 4249 7abd
000003b0: b187 46bd 6bb5 ba3d f177 0dbe d345 923c
000003c0: c97b e6bd b12a 603e f635 033e fd58 373d
000003d0: 562b e33d 82c0 16bd d668 3cbd 8776 d7bd
000003e0: 457f 79bd 1411 513d 728c 963d 6948 3abe
000003f0: 5589 9b3e 7294 ed3d c1d3 533e 8dd9 0f3e

rnn.bias_ih_l0 f4 [200]
-0.1404294 -0.10775556 -0.27300844 -0.4016527 0.06816047 -0.10476649 -0.08808521 -0.019132424
-0.049079817 0.03338334 0.5802201 -0.1797401 -0.007215468 -0.08538915 -0.30300716 0.0316436
0.22506675 0.0033353586 -0.17242283 -0.123700075 -0.08772078 -0.2928043 -0.07838273 -0.1781265
0.045933314 -0.07909427 -0.15164536 -0.21032819 0.0022363365 0.011782385 -0.031861942 -0.18421078
-0.14434744 -0.053376038 -0.049943503 0.00023462863 -0.057225958 0.09791811 0.027222088 -0.2657248
-0.06760534 -0.09206342 -0.32199544 -0.12530361 -0.14418848 -0.3855225 -0.13227828 0.028187543
-0.22968425 -0.2951519 -0.30700704 -0.16677292 -0.14550453 -0.114733554 -0.08361715 -0.16559204
0.029773016 0.019386876 -0.097595 -0.059667252 -0.3133785 -0.32649973 0.3008432 0.196638
-0.22778551 0.031543925 -0.098134235 -0.25121436 -0.19546267 -0.029601108 -0.084601544 -0.2641757
-0.2460665 0.08639018 0.13602118 -0.015861658 -0.32928655 -0.26805198 -0.043367773 -0.18654709
-0.11569187 -0.22940335 -0.34683543 -0.01431405 -0.1273587 -0.09638875 -0.13845995 -0.04415374
0.08693171 -0.17122597 0.03715229 0.064030066 0.061754584 -0.18554178 -0.025868066 -0.10402676
-0.09924095 -0.058148492 -0.104365945 -0.19927768 0.023037743 -0.11070086 -0.035545327 -0.08586905
-0.013873136 -0.031431068 -0.055672575 0.01364838 0.055091605 0.119754955 -0.057143535 -0.061017554
-0.18099222 -0.08139403 -0.12444454 0.0973448 -0.10158831 -0.022620846 0.011860069 0.016111132
0.00030915267 -0.06510475 0.019807346 0.0067147934 0.046631977 0.10561892 0.031204183 0.065980494
-0.06708689 0.06745305 -0.07056263 -0.066918686 -0.004062829 0.023172418 -0.02922946 0.08706656
-0.04359783 -0.008917496 0.036937352 -0.07678289 -0.07422059 -0.0021844534 -0.026189782 -0.02075541
-0.038374566 0.20260778 0.08174655 0.030520413 -0.009072016 -0.06702463 -0.34879062 0.08087608
-0.4442232 -0.1929924 -0.1753335 -0.2568258 -0.26225755 -0.20167096 -0.17383167 0.0393014
0.30711862 -0.29834342 0.058778144 -0.13468756 -0.25071424 -0.0911173 -0.057667762 -0.24609283
-0.296328 -0.11542968 -0.19083035 -0.24829878 -0.16893743 0.07161376 0.048976623 -0.31797984
-0.3741405 -0.21259303 -0.120652966 -0.23846963 0.08171005 -0.33307493 -0.086965404 -0.22304145
-0.18493864 -0.121901624 0.07336351 -0.0029917117 -0.18757403 -0.09208019 -0.2076036 -0.14371355
-0.20369527 -0.03439919 -0.1513899 -0.39154652 -0.021754416 -0.18766966 -0.1290472 -0.076648824
00000000: bacc 0fbe f2ae dcbd c3c7 8bbe 6ca5 cdbe
00000010: b797 8b3d d08f d6bd 0566 b4bd 9abb 9cbc
00000020: eb07 49bd f8bc 083d 4e89 143f ca0d 38be
00000030: bc6f ecbb 82e0 aebd c123 9bbe b89c 013d
00000040: e677 663e 0896 5a3b 9c8f 30be 7756 fdbd
00000050: f4a6 b3bd 72ea 95be 2087 a0bd cb66 36be
00000060: 9224 3c3d 2dfc a1bd ec48 1bbe 4660 57be
00000070: 808f 123b e80a 413c ab81 02bd c0a1 3cbe
00000080: d1cf 13be d5a0 5abd 8f91 4cbd a506 7639
00000090: c465 6abd 4a89 c83d db00 df3c 150d 88be
000000a0: ab74 8abd bf8b bcbd 96dc a4be 974f 00be
000000b0: 25a6 13be 3563 c5be f573 07be 90e9 e63c
000000c0: 5932 6bbe 261e 97be 0730 9dbe 85c6 2abe
000000d0: 24ff 14be 6df9 eabd 783f abbd f690 29be
000000e0: 8ae6 f33c 3ad1 9e3c e3df c7bd a665 74bd
000000f0: 2673 a0be f92a a7be 1f08 9a3e 795b 493e
00000100: 9b40 69be 3434 013d 9afa c8bd 2b9f 80be
00000110: 5e27 48be 067e f2bc 9343 adbd 0a42 87be
00000120: dbf8 7bbe 56ed b03d 2349 0b3e 4ff0 81bc
00000130: 3f98 a8be 1c3e 89be 68a2 31bd 3306 3fbe
00000140: dcef ecbd b6e8 6abe 6a94 b1be 7a85 6abc
00000150: 526a 02be 7767 c5bd 72c8 0dbe 8dda 34bd
00000160: 4109 b23d dc55 2fbe 002d 183d 3222 833d
00000170: 60f2 7c3d aafe 3dbe 44e9 d3bc fb0b d5bd
00000180: d73e cbbd 1d2d 6ebd d0bd d5bd 730f 4cbe
00000190: a6b9 bc3c 22b7 e2bd fa97 11bd 1ddc afbd
000001a0: 264c 63bc ddbd 00bd ed08 64bd 749d 5f3c
000001b0: bca7 613d 1642 f53d 570f 6abd 8bed 79bd
000001c0: 0656 39be eab1 a6bd c7dc febd b65c c73d
000001d0: 880d d0bd 5a4f b9bc bc50 423c 7efb 833c
000001e0: c515 a239 a455 85bd 0443 a23c c507 dc3b
000001f0: 2c01 3f3d bb4e d83d ea9f ff3c c820 873d
00000200: da64 89bd d324 8a3d 2483 90bd aa0c 89bd
00000210: 7b21 85bb 15d4 bd3c 9f72 efbc f44f b23d
00000220: a393 32bd b01a 12bc 9f4b 173d 5940 9dbd
00000230: f700 98bd 0c29 0fbb f48b d6bc 4007 aabc
00000240: a62e 1dbd 6a78 4f3e bc6a a73d f205 fa3c
00000250: cba2 14bc 3644 89bd af94 b2be 5ca2 a53d
00000260: 3971 e3be cd9f 45be a08a 33be ac7e 83be
00000270: 9f46 86be d582 4ebe ee00 32be 81fa 203d
00000280: a73e 9d3e 78c0 98be 5ac1 703d 89eb 09be
00000290: 9e5d 80be b59b babd 0835 6cbd c2ff 7bbe
000002a0: 4eb8 97be 6566 ecbd 0869 43be 0942 7ebe
000002b0: effd 2cbe 3caa 923d b69b 483d 41ce a2be
000002c0: 588f bfbe fdb1 59be e718 f7bd 6231 74be
000002d0: 9957 a73d cc88 aabe eb1a b2bd fa64 64be
000002e0: 8e60 3dbe 8fa7 f9bd 9c3f 963d 9810 44bb
000002f0: 6813 40be 8a94 bcbd 0a96 54be a529 13be
00000300: 7e95 50be 2ae6 0cbd f405 1bbe c978 c8be
00000310: 5136 b2bc 7a2c 40be f324 04be 0ffa 9cbd

rnn.bias_hh_l0 f4 [200]
-0.2600853 0.098443314 -0.46717966 -0.2906429 -0.08904199 -0.09939641 -0.17421022 0.039609544
-0.18686652 0.0031290702 0.5489871 -0.08282064 0.039363008 -0.17722157 -0.31464028 -0.009779378
0.19893605 -0.21175887 -0.14389093 0.059861314 -0.041248865 -0.16413663 -0.09589925 -0.0018871294
-0.15581533 -0.23770459 -0.10647419 -0.16128236 0.070381045 -0.20106418 -0.09017434 -0.104321636
-0.27036545 -0.034445442 -0.11025342 -0.0073811626 0.09382303 0.0975215 0.06147267 -0.11100139
-0.04544026 -0.040654376 -0.2961577 -0.24372035 -0.018622093 -0.35683477 -0.18793522 0.021404732
-0.11352275 -0.07775405 -0.14267613 -0.20781703 0.06114216 -0.35682797 -0.13588895 -0.019691536
-0.11972405 0.08125241 -0.24608524 0.047223326 -0.4016461 -0.35281715 0.23614794 0.078028455
-0.0923579 -0.03365455 0.090925805 -0.1633863 -0.24442904 -0.024287576 -0.1806994 -0.07666801
-0.40282845 -0.010355737 -0.008426641 0.0029797007 -0.07844761 -0.09156587 0.1599525 -0.21695542
-0.026988404 -0.24940956 -0.290676 0.009203657 -0.10693637 0.035472292 -0.2285133 -0.12033184
0.047832206 -0.09913293 0.07896372 0.22109844 -0.024951994 -0.2158952 0.02853434 -0.2450644
0.071756564 -0.16233167 0.07082165 -0.13407439 0.086012155 -0.06961441 0.015224846 -0.12857306
-0.104796864 0.025230797 0.014311352 0.013577926 0.14871262 0.09535384 0.01522067 0.12741691
-0.08246128 0.017845334 -0.00044054003 -0.03055667 -0.0149811655 0.037964314 -0.003136294 0.0637511
0.041611653 0.08090279 -0.12788108 -0.07922214 -0.10176367 0.005754483 0.007866565 0.043631826
-0.077861875 0.043124754 -0.020728316 -0.019239679 0.03106778 0.02587409 -0.043689467 0.025275547
0.12328206 -0.02316013 0.09325706 -0.013387988 0.12313769 -0.013808933 -0.04418672 -0.006192301
2.6037083e-05 0.061966047 0.04969053 0.051375933 -0.049860667 0.09227599 -0.2703263 0.06836216
-0.3453467 -0.3798562 0.06035674 -0.16740753 -0.028847633 -0.1024706 -0.28154182 0.023835024
0.4078822 -0.29857397 -0.01754037 -0.13046029 -0.2186079 0.098053865 0.027049981 -0.057735723
-0.051772293 0.013407505 -0.20307845 -0.13245939 -0.17190932 -0.07982728 -0.22778188 -0.29285848
-0.26915386 -0.026981682 -0.007481461 -0.058482807 0.073359944 -0.21315278 -0.25250265 -0.12145379
-0.17007154 -0.014718321 0.1149212 0.053376265 -0.16629471 -0.22475228 -0.12186888 -0.122832626
-0.378174 -0.11814998 -0.08618792 -0.18107201 0.027836982 0.032048624 -0.120673776 -0.14267418
00000000: e729 85be a69c c93d 2c32 efbe 25cf 94be
00000010: a65b b6bd 5890 cbbd 2a64 32be 9e3d 223d
00000020: f059 3fbe 1611 4d3b 6b8a 0c3f de9d a9bd
00000030: 1b3b 213d 9279 35be 8818 a1be af39 20bc
00000040: e4b5 4b3e 51d7 58be 2558 13be 2331 753d
00000050: 92f4 28bd 6f13 28be d366 c4bd 8e59 f7ba
00000060: 0e8e 1fbe d568 73be 240f dabd 3427 25be
00000070: f023 903d c5e3 4dbe 53ad b8bd 95a6 d5bd
00000080: 576d 8abe aa16 0dbd 8ccc e1bd aedd f1bb
00000090: 4a26 c03d 5ab9 c73d c4ca 7b3d b254 e3bd
000000a0: 911f 3abd 3485 26bd fba1 97be d491 79be
000000b0: 5c8d 98bc 0cb3 b6be 1772 40be fa58 af3c
000000c0: 9e7e e8bd 843d 9fbd b119 12be fdcd 54be
000000d0: 3470 7a3d 28b2 b6be 7926 0bbe 2550 a1bc
000000e0: e231 f5bd aa67 a63d c5fd 7bbe 3f6d 413d
000000f0: 8fa4 cdbe 73a4 b4be c4d0 713e 62cd 9f3d
00000100: 2426 bdbd 5ad9 09bd 4f37 ba3d bd4e 27be
00000110: 9b4b 7abe bdf6 c6bc 4309 39be 1e04 9dbd
00000120: 883f cebe 1cab 29bc e50f 0abc 1547 433b
00000130: 24a9 a0bd e386 bbbd 97ca 233e 9029 5ebe
00000140: c916 ddbc 3865 7fbe 7cd3 94be efca 163c
00000150: 7501 dbbd 654b 113d 64ff 69be 8a70 f6bd
00000160: b4eb 433d 3506 cbbd bbb7 a13d a167 623e
00000170: 2068 ccbc a213 5dbe d9c0 e93c 29f2 7abe
00000180: 1bf5 923d 463a 26be f10a 913d cc4a 09be
00000190: 2427 b03d 0092 8ebd a271 793c a8a8 03be
000001a0: bd9f d6bd d1b0 ce3c 297a 6a3c f375 5e3c
000001b0: 1f48 183e e048 c33d 1e60 793c 9479 023e
000001c0: 76e1 a8bd 6130 923c 48f8 e6b9 fb51 fabc
000001d0: 9073 75bc 7880 1b3d 488a 4dbb f08f 823d
000001e0: fb70 2a3d 5db0 a53d 42f3 02be 383f a2bd
000001f0: 7969 d0bd 1a90 bc3b c4e2 003c 49b7 323d
00000200: 0c76 9fbd 95a3 303d 6ece a9bc 889c 9dbc
00000210: db81 fe3c e6f5 d33c baf3 32bd aa0e cf3c
00000220: 4e7b fc3d 50ba bdbc 8ffd be3d 4b59 5bbc
00000230: 9d2f fc3d dd3e 62bc 22fd 34bd c9e8 cabb
00000240: 366a da37 1cd0 7d3d 4c88 4b3d 926f 523d
00000250: b33a 4cbd 32fb bc3d 3568 8abe 7601 8c3d
00000260: 48d1 b0be 837c c2be a138 773d e16c 2bbe
00000270: df51 ecbc 1bdc d1bd 4026 90be ab41 c33c
00000280: f0d5 d03e b0de 98be d2b0 8fbc 6297 05be
00000290: c0da 5fbe 77d0 c83d ec97 dd3c 4b7c 6cbd
000002a0: 2f0f 54bd 27ab 5b3c ccf3 4fbe 6fa3 07be
000002b0: ff08 30be 7c7c a3bd a73f 69be 8cf1 95be
000002c0: 89ce 89be b008 ddbc 0b27 f5bb ab8b 6fbd
000002d0: bd3d 963d b944 5abe 0748 81be c4bc f8bd
000002e0: 3c27 2ebe 1d25 71bc ce5b eb3d 12a1 5a3d
000002f0: 2949 2abe 7625 66be 6496 f9bd ac8f fbbd
00000300: 06a0 c1be 9ef8 f1bd 4b83 b0bd f16a 39be
00000310: 620a e43c 6b45 033d d023 f7bd 2e19 12be

rnn.weight_ih_l1 f4 [200, 50]
0.038865317 0.05980952 0.10473692 -0.051755622 -0.07021221 0.1589667 0.03422685 -0.15321851
0.15684561 0.054766417 0.05818736 -0.108265564 0.12221818 0.08123109 -0.08832829 -0.041052125
0.40706527 -0.015089751 -0.046132483 0.04940008 0.08699483 -0.012386167 0.16550656 0.05288449
-0.12922934 -0.010579541 -0.18303671 -0.053974245 -0.046323784 -0.08318634 -0.098415814 -0.084893875
-0.10573259 0.07964061 0.10433938 -0.11266894 0.1642801 0.0963363 -0.02547161 0.019604217
-0.11032635 0.15081924 0.22369535 -0.006715792 -0.12814575 -0.02384986 -0.0071111415 0.030549174
0.13938043 -0.042419773 -0.05831476 0.016089693 0.05632124 -0.009427857 -0.037865147 -0.023125788
0.042774837 0.16868001 -0.16180961 0.06990633 -0.3444945 -0.120079316 0.010337528 0.07326754
0.11641519 -0.087521516 0.04524073 -0.0044211172 -0.08775049 -0.08550078 -0.04180388 -0.22221142
0.15805015 0.21307617 0.10895273 -0.04262617 -0.14006211 -0.108396634 -0.14537852 0.039403174
0.080740094 0.12870601 0.048997425 -0.061304346 0.114130795 -0.10308682 0.034868985 -0.05894593
-0.04633938 -0.038374756 0.09350398 -0.1678788 0.06851491 0.12082438 0.053374287 0.044964183
-0.093578085 0.049153917 0.07777916 -0.004425929 -0.114737004 0.024101263 -0.102018625 0.107014194
-0.005358044 0.05493114 -0.04692641 0.006291118 -0.027762156 -0.19007471 0.18178576 -0.21672265
0.03028628 -0.011360671 0.22046752 0.061650895 -0.025627427 -0.10653089 0.032542743 -0.10546721
-0.035419676 -0.08077449 0.046094254 0.054537244 -0.020923715 -0.14790513 -0.31932402 -0.19679017
0.07009776 -0.03304363 0.046672724 -0.036930628 0.018624816 0.007826449 0.0854304 0.06689623
0.24308757 0.07055535 -0.16276321 -0.014981568 0.033500794 -0.14562948 0.14373493 -0.19407488
-0.14543398 0.11458815 -0.010869638 -0.049054287 0.026563158 -0.0408409 -0.10402786 0.016247993
-0.08029981 0.084068835 0.0889359 -0.02073413 -0.07689983 0.10768603 0.14001718 -0.16069765
0.07969487 0.09034354 0.07946163 0.09356387 0.013056381 -0.0683465 0.4221155 -0.025281291
-0.015977452 -0.11269528 -0.12809691 -0.072068326 -0.05292523 -0.046376206 -0.045144133 0.0939258
-0.031138008 -0.13658689 0.072185256 0.103405066 0.044098947 -0.06277572 -0.10581482 0.096002676
0.15992072 -0.14213067 0.06250493 -0.078845896 0.08579225 0.041937415 -0.18085487 0.28883123
-0.040299598 -0.13029104 0.054500725 0.12127082 -0.16854571 -0.07014369 0.027163628 0.09578935
-0.33376962 -0.5437302 0.22147252 0.15215644 0.059442442 0.19331008 -0.15777919 -0.015152224
0.2832496 0.11339385 -0.7553137 -0.24080117 0.015504795 -0.25144842 0.28285366 -0.19167805
-0.8829112 -0.17406757 -0.03582476 -0.15697357 0.06078395 -0.192932 0.0525637 0.21001118
-0.048734058 -0.21082124 -0.08949307 -0.23874435 -0.11676167 -0.107520714 0.17412378 0.18070145
0.037086118 -0.057848 0.006731768 -0.07681999 0.09790764 -0.08751739 -0.09539627 0.10523155
-0.0015455734 -1.2707913 0.53247696 -0.124416 0.069368206 -0.14383537 -0.19956438 -0.045378458
0.02154605 -0.12581517 0.0018648683 -0.21794868 0.0037299918 0.19419664 -0.052255906 -0.028926725
00000000: 3d31 1f3d d4fa 743d 4f80 d63d b4fd 53bd
00000010: 6bcb 8fbd 2bc8 223e 7431 0c3d 50e5 1cbe
00000020: 239c 203e c052 603d df55 6e3d 56ba ddbd
00000030: 864d fa3d 7c5c a63d 76e5 b4bd 4626 28bd
00000040: dc6a d03e 013b 77bc 6af5 3cbd bd57 4a3d
00000050: 582a b23d 5aef 4abc 8d7a 293e 689d 583d
00000060: b254 04be d055 2dbc fa6d 3bbe 1914 5dbd
00000070: 02be 3dbd 9a5d aabd 3b8e c9bd d7dc adbd
00000080: 548a d8bd 9e1a a33d e3af d53d f9be e6bd
00000090: 0b39 283e f74b c53d d6a9 d0bc 0699 a03c
000000a0: c8f2 e1bd 5c70 1a3e 6510 653e 2610 dcbb
000000b0: a438 03be c860 c3bc 9404 e9bb 4342 fa3c
000000c0: beb9 0e3e 5bc0 2dbd 75db 6ebd 88ce 833c
000000d0: 1ab1 663d 4c77 1abc 7c18 1bbd 4b72 bdbc
000000e0: ab34 2f3d 74ba 2c3e 6bb1 25be 0d2b 8f3d
000000f0: 9561 b0be 25ec f5bd bc5e 293c 4b0d 963d
00000100: 166b ee3d 7b3e b3bd 584e 393d 05df 90bb
00000110: 87b6 b3bd 081b afbd 8c3a 2bbd 648b 63be
00000120: e6d7 213e a430 5a3e 9c22 df3d c798 2ebd
00000130: 716c 0fbe 0eff ddbd 1bde 14be 3965 213d
00000140: 105b a53d 82cb 033e 86b1 483d 441a 7bbd
00000150: 68bd e93d 2f1f d3bd c8d2 0e3d 4a71 71bd
00000160: 5dce 3dbd d92e 1dbd 047f bf3d 6ce8 2bbe
00000170: 8c51 8c3d c672 f73d ff9e 5a3d 5d2c 383d
00000180: dea5 bfbd 9e55 493d ae4a 9f3d 6207 91bb
00000190: 3cfb eabd 0370 c53c 24ef d0bd 422a db3d
000001a0: 8892 afbb 7aff 603d e835 40bd b925 ce3b
000001b0: 766d e3bc f2a2 42be 0c26 3a3e 8bec 5dbe
000001c0: ef1a f83c 1c22 3abc 3dc2 613e a685 7c3d
000001d0: 9cf0 d1bc de2c dabd 8a4b 053d 31ff d7bd
000001e0: 3914 11bd 196d a5bd 54cd 3c3d 7262 5f3d
000001f0: 3668 abbc 7174 17be 707e a3be 5d83 49be
00000200: 6a8f 8f3d c258 07bd e62b 3f3d 9244 17bd
00000210: 1293 983c 823a 003c 22f6 ae3d e400 893d
00000220: f3eb 783e 537f 903d 66ab 26be 4075 75bc
00000230: 2138 093d e51f 15be 402f 133e 91bb 46be
00000240: a5ec 14be 31ad ea3d 9116 32bc 26ed 48bd
00000250: fb9a d93c ca48 27bd 8f0c d5bd 831a 853c
00000260: 3a74 a4bd 482c ac3d 0624 b63d 9fda a9bc
00000270: a87d 9dbd 7e8a dc3d aa60 0f3e ed8d 24be
00000280: 1037 a33d 0906 b93d c7bc a23d 6a9e bf3d
00000290: 6eea 553c 40f9 8bbd 861f d83e b61a cfbc
000002a0: 25e3 82bc c8cc e6bd d62b 03be 8f98 93bd
000002b0: 20c8 58bd faf4 3dbd 0ee9 38bd 2b5c c03d
000002c0: 2315 ffbc 6fdd 0bbe ddd5 933d 09c6 d33d
000002d0: 19a1 343d 8f90 80bd 71b5 d8bd 0d9d c43d
000002e0: 42c2 233e b48a 11be 9602 803d f579 a1bd
000002f0: d9b3 af3d 91c6 2b3d 0532 39be b0e1 933e
00000300: 3111 25bd 046b 05be 273c 5f3d d65c f83d
00000310: 3f97 2cbe 7fa7 8fbd 4286 de3c 352d c43d
00000320: dae3 aabe e731 0bbf b1c9 623e e6ce 1b3e
00000330: eb79 733d 14f3 453e de90 21be 0941 78bc
00000340: 1706 913e 093b e83d 3d5c 41bf 9594 76be
00000350: d307 7e3c d9bd 80be 32d2 903e 4047 44be
00000360: 7806 62bf c53e 32be fcbc 12bd aebd 20be
00000370: 97f8 783d f78f 45be 094d 573d 2c0d 573e
00000380: 5d9d 47bd 86e1 57be 2548 b7bd 6679 74be
00000390: be20 efbd d233 dcbd 814d 323e cd09 393e
000003a0: 9de7 173d 06f2 6cbd 2a96 dc3b cd53 9dbd
000003b0: cd83 c83d 513c b3bd 1f5f c3bd a483 d73d
000003c0: d694 caba 4aa9 a2bf 6950 083f d1cd febd
000003d0: eb10 8e3d 9449 13be 9b5a 4cbe c3de 39bd
000003e0: 5881 b03c b1d5 00be 996e f43a f02d 5fbe
000003f0: e172 743b 7cdb 463e 4a0a 56bd bdf7 ecbc

rnn.weight_hh_l1 f4 [200, 50]
0.051216986 -0.10689391 0.16864875 0.16078502 -0.13576259 -0.12068258 -0.04530772 -0.05714634
0.108485535 -0.08761791 -0.013375562 0.18206708 -0.05338412 0.15766789 -0.06857292 0.13814978
0.16249447 -0.0018423975 0.05491879 -0.0359945 -0.072208025 0.11603692 0.035641015 0.039652452
-0.095707044 0.1103427 0.123703994 0.14015855 0.08471435 0.1886577 -0.07213168 0.03003187
0.17586154 -0.28516525 0.06484738 0.00952873 0.16919205 -0.0822268 0.00758879 0.036791395
0.101988144 -0.014122189 0.03526954 0.059411332 -0.08311264 0.0054689683 -0.00329446 -0.16280033
0.036474645 0.0011379101 -0.03703968 0.06507374 -0.23501639 0.13140573 -0.32090336 0.09378321
-0.07943579 0.05710642 0.08029767 0.010292063 0.025912764 0.14360361 -0.043657586 -0.066197045
-0.18035644 0.16262661 0.12426532 -0.09913138 0.039744467 -0.048062433 0.18502948 -0.19623818
-0.0019882235 -0.10281012 -0.045645952 0.10367799 0.055868145 0.016302954 0.02628397 0.022042368
-0.123074606 0.092891 0.10935873 -0.14946537 -0.013552137 0.072158046 0.17569709 -0.024531204
0.037385486 0.02276418 -0.12645234 -0.03199574 -0.074432135 0.09168288 0.009895037 0.12884344
0.117370315 0.16351521 -0.030722978 0.04003026 -0.09675135 -0.13392995 -0.2728335 0.10812944
0.08184856 0.010662239 -0.09808529 0.098710656 -0.10683289 -0.15712331 -0.116930045 0.28559276
-0.055487156 0.061905377 -0.16308211 0.2420072 0.03962106 -0.11878351 -0.07993445 0.07722607
0.11798423 -0.012972254 0.0032545864 -0.13589743 0.03854374 0.08785094 0.19776507 0.20381927
-0.009284301 0.115218475 0.1192374 0.14873408 0.011041196 -0.3431315 -0.16013217 -0.19640157
0.24172486 -0.16246982 0.102598935 -0.060601708 0.15115334 -0.28657436 -0.06919531 0.18450025
-0.12738346 -0.13587171 0.11872709 0.17735878 -0.083384335 -0.072043076 -0.16354544 -0.08902045
0.10330989 -0.09017343 -0.10788407 -0.06372502 -0.014271091 -0.084477395 0.15620016 0.026937554
-0.08635142 0.084983595 0.011480538 -0.0038233802 0.044181876 0.15584289 -0.12108409 0.107761316
-0.016756363 -0.110640116 0.0028625128 0.07229702 0.095915645 -0.17030331 -0.012106015 -0.08531033
0.15564448 -0.067745864 0.078128144 0.1038675 -0.084584154 -0.019295959 0.116079874 0.10293585
0.022774298 0.06141777 0.08076877 -0.15321016 -0.0043114633 -0.18172117 -0.05774753 0.05629884
0.14752612 0.013851915 -0.06781663 0.13752446 -0.21021536 -0.07418195 0.037595443 0.058189202
0.15874673 -0.09336755 -0.15018225 0.14855084 0.13973722 -0.5121161 -0.06571382 0.13982347
-0.15351744 0.054750014 -0.017204594 0.177296 0.0921981 0.19790283 -0.3828308 0.05178314
-0.28322992 0.09966027 -0.034838937 -0.22096168 -0.5411959 -0.0020750859 0.17541833 -0.3006999
-0.025131168 0.18268453 0.17993137 0.3114447 0.044405438 0.49781063 0.20918548 0.15722445
-0.031701326 -0.449016 0.13429719 -0.2065951 0.5465755 -0.114541814 0.6283691 -0.2159815
0.06037525 0.373543 -0.102203175 0.24380687 -0.44942304 0.49578002 0.117742896 0.15636422
0.17700304 -0.17628601 0.033177163 0.029990043 0.02265431 0.12771046 -0.18034123 0.088562235
00000000: e7c8 513d 32eb dabd 42b2 2c3e d4a4 243e
00000010: 5905 0bbe 6e28 f7bd 9694 39bd 4812 6abd
00000020: aa2d de3d 0571 b3bd 2c25 5bbc cb6f 3a3e
00000030: 4fa9 5abd b173 213e f66f 8cbd 2377 0d3e
00000040: f364 263e 9a7c f1ba 86f2 603d f86e 13bd
00000050: cde1 93bd c4a4 ed3d 50fc 113d 9c6a 223d
00000060: 0e02 c4bd 5afb e13d 8558 fd3d b985 0f3e
00000070: b87e ad3d 7c2f 413e c6b9 93bd 6505 f63c
00000080: 0c15 343e 2e01 92be b4ce 843d 641e 1c3c
00000090: ae40 2d3e 8666 a8bd 62ab f83b 93b2 163d
000000a0: 29df d03d c160 67bc cb76 103d 4c59 733d
000000b0: f636 aabd 0835 b33b dee7 57bb 21b5 26be
000000c0: 7066 153d ed25 953a ebb6 17bd 6245 853d
000000d0: 23a8 70be 398f 063e 724d a4be 6911 c03d
000000e0: 3baf a2bd 6ce8 693d 1b73 a43d 0aa0 283c
000000f0: 0147 d43c d30c 133e 4cd2 32bd 5192 87bd
00000100: 5caf 38be 9787 263e d17e fe3d 6505 cbbd
00000110: 18cb 223d 1ddd 44bd 5e78 3d3e a9f2 48be
00000120: db4c 02bb 1d8e d2bd 40f7 3abd 2055 d43d
00000130: ffd5 643d c68d 853c 7b51 d73c 3292 b43c
00000140: 8a0e fcbd a33d be3d 78f7 df3d 730d 19be
00000150: c809 5ebc 99c7 933d f0e9 333e aaf5 c8bc
00000160: 8621 193d f27b ba3c b97c 01be f70d 03bd
00000170: e06f 98bd 3cc4 bb3d cb1e 223c 89ef 033e
00000180: d95f f03d 8870 273e c1ae fbbc c5f6 233d
00000190: 9225 c6bd ef24 09be d5b0 8bbe f872 dd3d
000001a0: 38a0 a73d acb0 2e3c f1e0 c8bd d028 ca3d
000001b0: 34cb dabd efe4 20be 0579 efbd 3739 923e
000001c0: 8046 63bd 7e90 7d3d fffe 26be bcd0 773e
000001d0: b149 223d c544 f3bd acb4 a3bd b428 9e3d
000001e0: b7a1 f13d 9489 54bc e64a 553b b228 0bbe
000001f0: 0ae0 1d3d 32eb b33d ed82 4a3e 00b6 503e
00000200: 2e1d 18bc aaf7 eb3d bd32 f43d bf4d 183e
00000210: 22e6 343c efae afbe b0f9 23be 7e1d 49be
00000220: b986 773e 7d5e 26be 641f d23d 7f39 78bd
00000230: f1c7 1a3e e0b9 92be 45b6 8dbd a2ed 3c3e
00000240: cf70 02be f421 0bbe 3027 f33d 8a9d 353e
00000250: 68c5 aabd 528b 93bd 7578 27be 5b50 b6bd
00000260: 2394 d33d d9ac b8bd 53f2 dcbd 4382 82bd
00000270: 4bd1 69bc 7c02 adbd eff2 1f3e 25ac dc3c
00000280: 03d9 b0bd e10b ae3d de18 3c3c ad91 7abb
00000290: 0ef8 343d 4795 1f3e effa f7bd f7b1 dc3d
000002a0: a444 89bc 4997 e2bd ff98 3b3b 7610 943d
000002b0: 6c6f c43d fe63 2ebe 4f58 46bc 2fb7 aebd
000002c0: 4461 1f3e 58be 8abd a601 a03d 7cb8 d43d
000002d0: 753a adbd 8f12 9ebc 49bb ed3d 08d0 d23d
000002e0: 2a91 ba3c 3391 7b3d 196a a53d 20e3 1cbe
000002f0: 2d47 8dbb 1d15 3abe ad88 6cbd 9d99 663d
00000300: 1611 173e 24f3 623c 72e3 8abd 36d3 0c3e
00000310: b242 57be b5ec 97bd aefd 193d cd57 6e3d
00000320: 818e 223e 7c37 bfbd 60c9 19be b61d 183e
00000330: 4617 0f3e 0a1a 03bf f894 86bd e22d 0f3e
00000340: ad33 1dbe 8d41 603d a6f0 8cbc 158d 353e
00000350: 5cd2 bc3d 0aa7 4a3e 6602 c4be 8f1a 543d
00000360: 8303 91be af1a cc3d 46b3 0ebd c743 62be
00000370: d18b 0abf 2afe 07bb dda0 333e 56f5 99be
00000380: e1df cdbc a711 3b3e ee3f 383e ae75 9f3e
00000390: 7ae2 353d 09e1 fe3e b834 563e 72ff 203e
000003a0: 40d9 01bd 6de5 e5be 3485 093e aa8d 53be
000003b0: 5fec 0b3f e694 eabd ccdc 203f 412a 5dbe
000003c0: 0a4c 773d 0741 bf3e e64f d1bd 82a8 793e
000003d0: c71a e6be e1d6 fd3e 3023 f13d f11d 203e
000003e0: 4940 353e 5284 34be c7e4 073d aead f53c
000003f0: 8895 b93c 88c6 023e 5fab 38be 1e60 b53d

rnn.bias_ih_l1 f4 [200]
-0.00095411064 -0.14307825 -0.052796647 0.051196195 -0.053898193 -0.18279783 0.026904697 -0.08307251
-0.22085807 -0.024752544 0.084453985 0.027493412 -0.06558906 0.027455024 -0.17557044 -0.03523811
0.032848924 -0.13531365 0.048173707 0.101154536 -0.12411069 0.056530304 -0.06951207 -0.11021435
0.091666564 -0.13269043 0.028833354 -0.07896373 0.075979985 0.06514238 0.036616467 0.07331758
0.07513077 -0.14665844 -0.19070692 -0.12424426 -0.16729736 -0.028802775 -0.068271145 -0.16376883
-0.13737625 0.031763017 -0.0069153956 -0.03891545 -0.060739387 -0.100657396 -0.17923075 -0.19990759
-0.19498071 -0.15242715 -0.1421997 -0.06273839 -0.115076266 -0.051029783 0.21898188 -0.108226456
0.014606262 -0.057752907 -0.24415255 -0.02479639 0.110205464 0.115433015 -0.070430316 -0.005576097
-0.14630605 0.07641052 -0.16174254 -0.10052308 0.030264944 0.0018060328 -0.14810786 0.027877407
-0.06333747 -0.047635633 -0.050531853 0.13825034 -0.09094129 0.06086469 -0.16860154 -0.20521086
-0.52499264 0.065986976 0.12527025 0.14981423 -0.033545863 -0.09563154 -0.096269324 -0.11590002
-0.13976507 -0.020958 -0.11726877 -0.12543209 -0.08830061 -0.017898852 -0.36610094 -0.21817908
-0.1393351 -0.17789048 -0.07589574 -0.13180125 0.12051635 0.02676665 -0.13212478 -0.060173232
0.04787126 -0.06354374 -0.14041972 -0.018127494 0.051145744 0.09149064 0.15243162 -0.0108602
0.053151455 -0.044949282 -0.007565451 -0.09865934 0.012144935 0.026490722 0.07940183 0.0087335855
0.0077609182 -0.08640054 -0.063278526 -0.007795752 0.015413757 -0.13377917 0.092009574 0.098696336
-0.062344305 -0.026387699 0.121514305 -0.048889663 -0.025338603 0.0943679 -0.07788943 -0.11128343
-0.01734592 0.0076018125 -0.021089753 0.10320389 -0.07155504 0.0013099333 -0.004488431 0.09452931
-0.09654449 -0.04525403 -0.08599772 -0.046527192 -0.057730265 0.060488008 -0.078808054 -0.14325078
-0.19013207 0.0017824024 -0.12547648 0.042063307 -0.15263468 -0.20258288 -0.15715376 -0.092244744
0.041823078 -0.118941724 -0.10302177 -0.09323849 -0.1584117 -0.018591713 0.066406585 0.021412002
0.053441692 0.06303663 0.05859036 0.05200496 0.04430774 -0.12767449 -0.04173434 0.037525587
-0.083664775 0.043364834 0.057518017 -0.21856192 0.051358793 -0.09566519 -0.07391007 -0.2170407
-0.03706461 -0.1319002 -0.10660312 -0.05551497 -0.20186198 -0.033704363 -0.1990796 -0.002799952
-0.22049992 -0.16898872 -0.12234419 -0.32783765 -0.103580855 -0.12774329 -0.14538391 -0.11428243
00000000: 481d 7aba 1b83 12be 4c41 58bd 1ab3 513d
00000010: 5ac4 5cbd 5b2f 3bbe 3d67 dc3c ec21 aabd
00000020: 9e28 62be d9c5 cabc 36f6 ac3d dd39 e13c
00000030: 8f53 86bd 5ce9 e03c bdc8 33be d655 10bd
00000040: 988c 063d a98f 0abe cb51 453d 1c2a cf3d
00000050: bf2d febd 528c 673d 585c 8ebd 10b8 e1bd
00000060: aebb bb3d 00e0 07be ed33 ec3c bcb7 a1bd
00000070: 659b 9b3d 5e69 853d 26fb 153d 8727 963d
00000080: 29de 993d a12d 16be ad48 43be c673 febd
00000090: 0050 2bbe ccf3 ebbc bed1 8bbd 04b3 27be
000000a0: 5cac 0cbe f019 023d 8b9a e2bb cf65 1fbd
000000b0: ddc9 78bd 7725 cebd 4488 37be 93b4 4cbe
000000c0: 06a9 47be dd15 1cbe cc9c 11be fc7c 80bd
000000d0: 1bad ebbd 9b04 51bd c93c 603e d5a5 ddbd
000000e0: 1a4f 6f3c 508e 6cbd 2003 7abe cd21 cbbc
000000f0: 67b3 e13d 2568 ec3d c53d 90bd b1b7 b6bb
00000100: 41d1 15be 1e7d 9c3d d69f 25be 0bdf cdbd
00000110: 30ee f73c 68b8 ec3a 96a9 17be 295f e43c
00000120: 13b7 81bd 951d 43bd 7dfa 4ebd 7f91 0d3e
00000130: 6d3f babd 414d 793d e2a5 2cbe cc22 52be
00000140: eb65 06bf 2e24 873d d846 003e e768 193e
00000150: 6367 09bd 78da c3bd da28 c5bd fd5c edbd
00000160: 931e 0fbe 1db0 abbc 9c2a f0bd 4571 00be
00000170: f3d6 b4bd 9da0 92bc 9571 bbbe 566a 5fbe
00000180: dcad 0ebe ec28 36be 3a6f 9bbd e8f6 06be
00000190: 47d1 f63d bc45 db3c b84b 07be 3578 76bd
000001a0: a814 443d 3823 82bd 30ca 0fbe 1c80 94bc
000001b0: 337e 513d 725f bb3d 0917 1c3e fbee 31bc
000001c0: 57b5 593d bd1c 38bd 9ae7 f7bb e80d cabd
000001d0: 8dfb 463c 1203 d93c 6d9d a23d 5017 0f3c
000001e0: 4d4f fe3b c4f2 b0bd 2c98 81bd 8273 ffbb
000001f0: fc89 7c3c 68fd 08be 846f bc3d 4e21 ca3d
00000200: be5c 7fbd 042b d8bc 7edc f83d 8740 48bd
00000210: e792 cfbc f543 c13d 7e84 9fbd 91e8 e3bd
00000220: 0819 8ebc a018 f93b 6bc4 acbc 905c d33d
00000230: 738b 92bd 11b2 ab3a b013 93bb 9598 c13d
00000240: 1eb9 c5bd 4a5c 39bd 931f b0bd 4c93 3ebd
00000250: 9276 6cbd 46c2 773d 1e66 a1bd 55b0 12be
00000260: fbb1 42be 809f e93a e87c 00be 934a 2c3d
00000270: 444c 1cbe e371 4fbe eaec 20be d0ea bcbd
00000280: ad4e 2b3d b897 f3bd 14fd d2bd d2f3 bebd
00000290: ad36 22be a64d 98bc 2d00 883d 3968 af3c
000002a0: ade5 5a3d 5919 813d 72fc 6f3d 2703 553d
000002b0: 087c 353d 1abd 02be a1f1 2abd 6eb4 193d
000002c0: 7058 abbd 539f 313d 0398 6b3d b2ce 5fbe
000002d0: 995d 523d 1cec c3bd 2a5e 97bd eb3f 5ebe
000002e0: 0fd1 17bd d910 07be bd52 dabd aa63 63bd
000002f0: e8b4 4ebe 960d 0abd 86db 4bbe 667f 37bb
00000300: bbca 61be 610b 2dbe 978f fabd 56da a7be
00000310: 3322 d4bd 23cf 02be 85df 14be e80c eabd

rnn.bias_hh_l1 f4 [200]
0.05529351 0.010407059 -0.06736802 -0.10752532 -0.117878765 0.04757146 -0.057187185 -0.033903018
-0.2415954 -0.15414265 -0.102139704 0.086740345 -0.15942469 -0.07405108 -0.08408526 0.006461174
-0.121963054 0.0022686785 -0.07600715 -0.011136031 -0.055623837 0.07393797 0.04430125 -0.130538
-0.17132448 -0.07507725 -0.0059991595 -0.07206525 -0.036587127 0.04341663 0.25616282 -0.09419293
0.07032374 -0.25537762 -0.17096865 -0.11210173 0.08372169 -0.01550169 -0.072069205 -0.12497972
0.020436658 0.009240289 -0.03754827 0.08370736 -0.051054217 -0.17114405 -0.11008614 -0.037340645
-0.16512802 -0.1087506 -0.051380306 -0.008687259 -0.20709161 0.03794692 0.06348614 0.031853158
-0.1622495 0.046237368 -0.058339443 -0.05981797 -0.11369089 0.09417591 -0.082573116 -0.09393847
-0.16459845 0.06304757 -0.095647156 -0.15963858 -0.010910339 0.25323373 0.03563358 -0.07401537
0.08652696 -0.17627785 0.053668387 0.09893781 0.05792807 -0.08804786 -0.12208995 -0.10049773
-0.5056085 0.12204002 -0.045277223 0.111864515 -0.017606635 -0.040360864 -0.07629799 0.067974
-0.24214232 0.077803686 -0.11239725 0.008545371 0.011272371 -0.112294875 -0.27135062 -0.078909084
-0.035217233 -0.028655212 -0.10250052 -0.032925606 -0.041675232 0.034939207 0.08224264 0.026828524
0.14578803 -0.0065104594 0.102813534 0.02349429 -0.012561802 -0.027438676 0.08077155 -0.057693046
0.0041656573 0.04067339 -0.06839518 -0.11044381 -0.036004078 0.0055698096 0.06657829 -0.031726904
-0.02141304 0.094457306 0.05277954 0.05252273 -0.061947223 -0.13590176 -0.15092246 -0.11178503
0.08959087 -0.05049258 -0.072557405 -0.08406106 -0.101763435 0.01348551 0.07545289 0.10879159
0.0739473 0.10694919 0.06099953 -0.026614564 0.07636388 -0.021172127 0.015133723 0.014476752
0.09924938 -0.043627992 0.08481884 0.04655297 0.06464469 -0.0828281 -0.15862718 -0.22514273
-0.19338381 0.012969172 -0.12247379 -0.1173026 0.0035944984 -0.17869428 -0.07610801 -0.0884252
0.06506865 -0.10723413 -0.03544262 -0.09470762 -0.07244511 -0.061608568 -0.0661044 -0.0073384293
-0.05453367 0.02669273 0.02172983 -0.04479392 -0.032549255 -0.11342608 0.038102377 -0.044447534
-0.042937584 0.11645322 0.01749739 -0.083848976 0.17348868 0.09024019 0.011663712 -0.083935134
-0.11608633 -0.09768079 -0.07119115 -0.021829829 -0.06740672 0.0064484463 -0.22089675 -0.0022200309
-0.17994809 -0.016924128 0.11229457 -0.3415461 -0.18164657 -0.12452467 -0.08345292 -0.078166895
00000000: 737b 623d 5f82 2a3c 3ff8 89bd 3c36 dcbd
00000010: 6c6a f1bd 4bda 423d 1c3d 6abd e4dd 0abd
00000020: c964 77be 92d7 1dbe 9f2e d1bd eca4 b13d
00000030: 3a40 23be 18a8 97bd e534 acbd 42b8 d33b
00000040: c4c7 f9bd 1cae 143b a3a9 9bbd e673 36bc
00000050: d2d5 63bd ca6c 973d 3a75 353d c1ab 05be
00000060: af6f 2fbe 1ac2 99bd 9994 c4bb f296 93bd
00000070: 62dc 15bd a3d5 313d c627 833e 39e8 c0bd
00000080: e505 903d dbc0 82be 6812 2fbe 9895 e5bd
00000090: 4776 ab3d cdfa 7dbc 0599 93bd 5ef5 ffbd
000000a0: c76a a73c 9564 173c 37cc 19bd c46e ab3d
000000b0: 3a1e 51bd 6340 2fbe d874 e1bd 81f2 18bd
000000c0: 5217 29be a2b8 debd 2874 52bd 0155 0ebc
000000d0: d30f 54be 3b6e 1b3d 0505 823d 7578 023d
000000e0: bc24 26be 6563 3d3d 57f5 6ebd b003 75bd
000000f0: c5d6 e8bd 4ddf c03d 181c a9bd d062 c0bd
00000100: 7f8c 28be 161f 813d a8e2 c3bd 4c78 23be
00000110: 47c1 32bc daa7 813e 84f4 113d 5f95 97bd
00000120: 0c35 b13d 2e82 34be 62d3 5b3d e89f ca3d
00000130: fc45 6d3d 7052 b4bd 4c0a fabd c1d1 cdbd
00000140: 8f6f 01bf 1ef0 f93d 9c74 39bd 3919 e53d
00000150: ca3b 90bc 6f51 25bd 1f42 9cbd f435 8b3d
00000160: 28f4 77be 8a57 9f3d 8830 e6bd e201 0c3c
00000170: c0af 383c dbfa e5bd 78ee 8abe 169b a1bd
00000180: f23f 10bd 56be eabc cbeb d1bd 00dd 06bd
00000190: a6b3 2abd 6a1c 0f3d d46e a83d 7ec7 db3c
000001a0: 7549 153e b155 d5bb e78f d23d 1977 c03c
000001b0: 04d0 4dbc 13c7 e0bc 8e6b a53d 8b4f 6cbd
000001c0: 1180 883b 2499 263d c612 8cbd 5d30 e2bd
000001d0: 0379 13bd f382 b63b 335a 883d 12f4 01bd
000001e0: 666a afbc d572 c13d 5c2f 583d 1322 573d
000001f0: 5fbc 7dbd d529 0bbe 6b8b 1abe 8def e4bd
00000200: 6b7b b73d 4fd1 4ebd fa98 94bd 3428 acbd
00000210: 5969 d0bd 54f2 5c3c 0b87 9a3d 20ce de3d
00000220: af71 973d 2d08 db3d a5da 793d c906 dabc
00000230: aa64 9c3d 2b71 adbc 6ff3 773c e62f 6d3c
00000240: 4243 cb3d 44b3 32bd 80b5 ad3d 54ae 3e3d
00000250: 6f64 843d c7a1 a9bd 2a6f 22be d18b 66be
00000260: 6806 46be a67c 543c 8ad3 fabd 583c f0bd
00000270: ad91 6b3b a2fb 36be 84de 9bbd 4518 b5bd
00000280: b642 853d 919d dbbd 482c 11bd 12f6 c1bd
00000290: 1a5e 94bd 4459 7cbd be61 87bd 3577 f0bb
000002a0: b35e 5fbd b6aa da3c c202 b23c d479 37bd
000002b0: 5e52 05bd ef4b e8bd 3d11 1c3d 9e0e 36bd
000002c0: 52df 2fbd 077f ee3d b056 8f3c 03b9 abbd
000002d0: 04a7 313e d9cf b83d 2719 3f3c 2fe6 abbd
000002e0: abbe edbd de0c c8bd aacc 91bd 78d4 b2bc
000002f0: 890c 8abd 7d4d d33b c232 62be f07d 11bb
00000300: 5044 38be 78a4 8abc b2fa e53d 21df aebe
00000310: 8f01 3abe ca06 ffbd 5de9 aabd f715 a0bd

reg.weight f4 [1, 50]
0.01590861 0.018780202 -0.012695353 -0.028425144 -0.030900812 0.0353245 -0.021355249 0.03436721
-0.029966941 0.040938485 0.101772554 -0.08053554 -0.021892708 -0.0073544416 -0.038662355 -0.053922627
0.005036628 -0.0128756305 0.06988065 0.034432143 0.0642725 -0.036710203 -0.045233015 0.056455
-0.044937458 -0.10972643 -0.054466736 -0.04124081 0.036947917 -0.051043242 0.14110655 -0.046737876
-0.12452088 -0.05779313 -0.007623275 0.04107866 0.07865008 0.032788023 0.007983519 0.021388287
0.0012574845 -0.03564292 -0.018631265 0.05417278 -0.047151137 0.0251079 0.029194042 0.0020378663
-0.03450281 0.048384156
00000000: c652 823c f0d8 993c 2b00 50bc d9db e8bc
00000010: b323 fdbc 6cb0 103d 34f1 aebc a2c4 0c3d
00000020: 3b7d f5bc 1daf 273d 216e d03d d1ef a4bd
00000030: 5658 b3bc 87fd f0bb 6b5c 1ebd f9dd 5cbd
00000040: 4c0a a53b 4ff4 52bc 961d 8f3d b808 0d3d
00000050: 4da1 833d 705d 16bd 4146 39bd 5c3d 673d
00000060: 5710 38bd 40b8 e0bd 8318 5fbd 20ec 28bd
00000070: b356 173d b812 51bd 3c7e 103e 3770 3fbd
00000080: ce04 ffbd 7db8 6cbd aacc f9bb 1942 283d
00000090: 4b13 a13d bc4c 063d 4ecd 023c 7d36 af3c
000000a0: 2ed2 a43a 4ffe 11bd 98a0 98bc 47e4 5d3d
000000b0: 8d21 41bd 15af cd3c 5828 ef3c b98d 053b
000000c0: d252 0dbd 772e 463d
