campusMCM/lstm5.pth (torch, 3399 bytes, 9 tensors)

rnn.weight_ih_l0 f4 [16, 3]
1.8608049 -0.7456784 3.6542666 0.36632875 -0.31484672 -0.029078707 -0.41978619 0.080094665
0.2035057 0.43390828 -0.3550266 2.3069668 -0.5854379 0.024552016 3.9936283 -0.5247671
-0.7676416 0.012580702 -0.39238358 0.5322928 0.34135297 -0.9105356 -0.09826795 1.6842753
-1.3626721 0.8245162 -1.6595864 0.44318524 0.073621474 0.082317434 -0.38621014 -0.022000851
-0.17745122 0.6270447 -0.43062142 1.4025407 2.303393 -0.12255245 7.0776105 0.40032974
-0.45733416 0.432081 -0.42574453 0.027775418 -0.3818837 2.7053998 1.3151788 3.8690639
00000000: db2e ee3f c8e4 3ebf 81df 6940 718f bb3e
00000010: 9733 a1be 7836 eebc 37ee d6be ac08 a43d
00000020: cc63 503e 3a29 de3e 0cc6 b5be 58a5 1340
00000030: 42df 15bf 4f21 c93c 9b97 7f40 2357 06bf
00000040: 2984 44bf 4a1f 4e3c 80e6 c8be 5744 083f
00000050: d1c5 ae3e dc18 69bf b540 c9bd 5596 d73f
00000060: 0a6c aebf 7e13 533f 546d d4bf 2de9 e23e
00000070: dbc6 963d 0b96 a83d 56bd c5be 213b b4bc
00000080: c6b5 35be 0086 203f 697a dcbe 7486 b33f
00000090: ca6a 1340 c7fc fabd c97b e240 05f8 cc3e
000000a0: b427 eabe b939 dd3e 30fb d9be 4689 e33c
000000b0: 4386 c3be 4525 2d40 c757 a83f be9e 7740

rnn.weight_hh_l0 f4 [16, 4]
-1.0922465 -2.2624857 -0.06347422 -0.7630709 -0.8191718 -0.10668616 -0.14584279 0.05156969
-0.39068437 -0.047740713 -0.4987663 -0.44674474 -1.0443377 0.4794512 -0.057211887 0.8983994
-0.6888867 -3.386618 -0.44602868 -2.6278818 -0.9748933 0.4630309 -0.17362866 0.2009156
-0.33421066 -0.28668413 -0.3972247 -0.058248386 -1.3348964 -0.30575982 -0.25592178 0.76288223
0.748298 0.75749767 0.13692255 -0.04392912 -0.29414865 0.4372443 0.18108314 0.2769836
0.43263865 0.05110439 -0.31770453 0.10030941 -0.5407844 0.39824095 0.027273867 -0.28705207
-1.5540552 -2.019217 -0.14394037 -0.78085506 -0.8793816 0.19802222 0.23117754 -0.016504917
-0.25018257 0.037532844 0.06940601 0.30323386 -0.42307693 0.095269896 -0.37709427 0.39578238
00000000: bcce 8bbf 91cc 10c0 c6fe 81bd 9d58 43bf
00000010: 3eb5 51bf 467e dabd d057 15be bd3a 533d
00000020: c807 c8be c48b 43bd 4c5e ffbe babb e4be
00000030: dcac 85bf a17a f53e 0357 6abd 81fd 653f
00000040: e15a 30bf 59be 58c0 df5d e4be 372f 28c0
00000050: 9b92 79bf 6312 ed3e b6cb 31be d2bc 4d3e
00000060: a91d abbe 43c8 92be 0961 cbbe dc95 6ebd
00000070: e3dd aabf 8d8c 9cbe 2e08 83be 404c 433f
00000080: 7590 3f3f 5eeb 413f 6d35 0c3e 05ef 33bd
00000090: a79a 96be 7cde df3e dc6d 393e cbd0 8d3e
000000a0: d082 dd3e d652 513d 2baa a2be 056f cd3d
000000b0: d970 0abf 3de6 cb3e 726d df3c 7df8 92be
000000c0: 48eb c6bf da3a 01c0 1b65 13be 1ee6 47bf
000000d0: 271f 61bf 56c6 4a3e ceb9 6c3e 5235 87bc
000000e0: ee17 80be 0abc 193d bd24 8e3d 7841 9b3e
000000f0: 8a9d d8be dd1c c33d 8012 c1be fda3 ca3e

rnn.bias_ih_l0 f4 [16]
0.5582517 -0.5106059 -0.3061239 -0.39837873 0.7551172 -0.063347675 0.38903463 0.20241626
-0.10075545 -0.42136994 -0.47941822 -0.20843816 0.33348823 -0.5610112 0.3503829 -0.021907313
00000000: 95e9 0e3f 11b7 02bf 46bc 9cbe 4cf8 cbbe
00000010: 5c4f 413f 6dbc 81bd 8c2f c73e 3546 4f3e
00000020: e058 cebd cdbd d7be 4e76 f5be d070 55be
00000030: f8be aa3e 6e9e 0fbf 6365 b33e f776 b3bc

rnn.bias_hh_l0 f4 [16]
-0.23017731 -0.07203218 0.025335798 0.06512889 0.16200046 0.17927575 0.46038026 -0.11255546
0.0052871895 0.4217067 -0.51037425 0.2995703 -0.35174388 -0.41502726 0.1087691 0.24641763
00000000: 9ab3 6bbe 9c85 93bd 058d cf3c 4c62 853d
00000010: 73e3 253e 1094 373e f6b6 eb3e 7a83 e6bd
00000020: 2940 ad3b f1e9 d73e e3a7 02bf 4761 993e
00000030: c617 b4be 747e d4be 55c2 de3d e754 7c3e

rnn.weight_ih_l1 f4 [16, 4]
-1.0554932 0.33884984 -0.22286487 0.6619563 -0.8469711 0.08213246 -0.03265098 0.46873575
-1.0005896 0.26672855 0.26704547 1.4893337 0.27775082 -0.2239381 0.27933824 0.046020273
-0.93897873 -0.00024345813 0.3660221 0.45797572 -0.6090234 -0.46097136 -0.5290868 -0.21064344
-0.46684584 -0.019417057 -0.010551244 0.014609357 0.41248536 -0.069449775 -0.23221427 0.33186176
-1.1279849 -0.14076896 0.14784923 0.9072361 -0.15857205 -0.08809505 -0.53545845 0.32758832
-0.73027265 0.44777304 -0.27366528 0.6435209 -0.004289383 0.25486675 0.49349403 0.24405654
-1.3421375 0.56506544 0.44890118 1.5904982 -0.06844448 -0.42445338 0.07022026 0.22183886
-1.1326749 0.073324084 0.07126587 1.5406677 0.32416523 -0.039567277 -0.320364 -0.31177446
00000000: 671a 87bf ba7d ad3e b036 64be f875 293f
00000010: 19d3 58bf 1035 a83d 09bd 05bd 22fe ef3e
00000020: 5213 80bf a590 883e 2fba 883e 7da2 be3f
00000030: 5b35 8e3e 0750 65be 6c05 8f3e c17f 3c3d
00000040: e960 70bf cb48 7fb9 4067 bb3e cb7b ea3e
00000050: f5e8 1bbf 7004 ecbe 3c72 07bf eab2 57be
00000060: 6b06 efbe 8510 9fbc 20df 2cbc 165c 6f3c
00000070: 4831 d33e af3b 8ebd 94c9 6dbe c9e9 a93e
00000080: cf61 90bf bd25 10be ca65 173e a040 683f
00000090: b660 22be 2d6b b4bd ce13 09bf a8b9 a73e
000000a0: 26f3 3abf 8242 e53e db1d 8cbe c9bd 243f
000000b0: f48d 8cbb e57d 823e 40ab fc3e f5e9 793e
000000c0: 29cb abbf 21a8 103f 60d6 e53e 7295 cb3f
000000d0: 9f2c 8cbd f451 d9be a4cf 8f3d ba29 633e
000000e0: 7efb 90bf f02a 963d d7f3 913d 9934 c53f
000000f0: fcf8 a53e 4c11 22bd c006 a4be e7a0 9fbe

rnn.weight_hh_l1 f4 [16, 4]
0.20977615 0.008228836 -0.33988002 0.05277191 -0.4311935 -0.0796733 -0.025208315 0.3413993
0.20871682 0.48696262 0.57582384 0.5236405 0.47940472 0.09166631 -0.007474429 0.38500237
0.09573715 0.008732054 -0.0060224542 0.3988191 0.11239734 0.41555753 -0.009485312 0.24865301
-0.37388137 -0.43930843 0.39587507 0.5778122 -0.3009825 0.1841612 -0.16413774 0.1350408
-0.07441189 -0.26259422 -0.43569595 -0.11389821 0.2876134 0.20963767 0.4669089 -0.1077281
-0.15287955 -0.47869188 -0.2867326 0.13133056 -0.24718215 -0.23854476 -0.6080358 -0.4888457
0.22534272 -0.06823302 0.47167394 -0.25363734 -0.14131978 0.20015135 -0.1993269 0.3740975
-0.087650105 0.087249175 0.57111746 0.09977906 -0.028903758 -0.30004847 0.10068656 -0.3503323
00000000: 8fcf 563e 3dd2 063c c104 aebe 5c27 583d
00000010: 65c5 dcbe c12b a3bd ab81 cebc e4cb ae3e
00000020: ddb9 553e 2a53 f93e 3169 133f 4e0d 063f
00000030: 8974 f53e 8cbb bb3d 0eec f4bb 081f c53e
00000040: d711 c43d e410 0f3c 0258 c5bb 0432 cc3e
00000050: 9430 e63d f5c3 d43e 4868 1bbc e59e 7e3e
00000060: 616d bfbe 09ed e0be 23b0 ca3e 80eb 133f
00000070: 611a 9abe c194 3c3e b913 28be 2348 0a3e
00000080: 4365 98bd c072 86be 8a13 dfbe 7743 e9bd
00000090: 1042 933e 42ab 563e af0e ef3e 8da0 dcbd
000000a0: 758c 1cbe 1a17 f5be 9ece 92be 857b 063e
000000b0: 511d 7dbe 1445 74be 3ca8 1bbf fc49 fabe
000000c0: 3ec0 663e c1bd 8bbd 3f7f f13e c1dc 81be
000000d0: 22b6 10be 7af4 4c3e 5a1c 4cbe b589 bf3e
000000e0: e681 b3bd b2af b23d c134 123f f758 cc3d
000000f0: 93c7 ecbc f49f 99be c134 ce3d c15e b3be

rnn.bias_ih_l1 f4 [16]
-0.0888997 0.015101981 0.17671749 0.07533738 -0.17187335 0.25892365 -0.39201993 0.3526121
-0.2243749 0.31823245 -0.32877094 -0.44180214 -0.29486302 -0.06024574 0.46829554 0.0816431
00000000: 0c11 b6bd 4d6e 773c 6ef5 343e 7c4a 9a3d
00000010: 91ff 2fbe a491 843e d6b6 c8be 9389 b43e
00000020: 89c2 65be 5def a23e aa54 a8be e433 e2be
00000030: 49f8 96be 3dc4 76bd 6fc4 ef3e 7f34 a73d

rnn.bias_hh_l1 f4 [16]
-0.16512203 0.04259034 0.06436914 0.47438997 -0.33508268 0.40608835 -0.16774097 -0.15360972
0.2669418 -0.4265388 0.16528592 -0.35283297 0.1300636 0.25005302 0.21930867 -0.3923224
00000000: c015 29be 3573 2e3d f8d3 833d 3ee3 f23e
00000010: f58f abbe d0ea cf3e 4ac4 2bbe de4b 1dbe
00000020: 98ac 883e 4b63 dabe b640 293e 86a6 b4be
00000030: 642f 053e f306 803e 7492 603e 7bde c8be

reg.weight f4 [1, 4]
-0.08246796 0.26937333 -0.41134912 -0.22520396
00000000: f6e4 a8bd 4deb 893e 5a9c d2be de9b 66be
