campusMCM/lstm8.pth (torch, 493767 bytes, 9 tensors)

rnn.weight_ih_l0 f4 [400, 3]
00000000: 889f 48be 9181 33be 2956 b63c b42c b93c
00000010: 5cbe ecbe e9f5 6d3e 12bb 15be a80d 92be
00000020: b7ef 18bc 8fcb c9bc 0565 52be c6dc 65be
00000030: 67ec f9bd 98f0 5fbe 18ad c93d f701 a8bd
00000040: cc81 81be a088 3a3d 43e3 7abe c97f 77bd
00000050: e0d3 debc 140f a3bc 95aa e9bd 0f12 3c3d
00000060: da0b 89bd 5773 8bbd ecf4 1abe be5e c0bd
00000070: 2fa4 f2be 1777 22be ae6e 4abe 471c 81bd
00000080: baa3 dfbd f20a 11bf 08e8 a4be 7bee babe
00000090: 4dfe 06be 742e a8be d3f1 99be 2d8a 0cbe
000000a0: d47b acbd 95e3 04be 2d13 1fbf c7ae 45bc
000000b0: 91b0 cf3d 95a2 40be fd99 93be 3712 a43e
000000c0: f4b9 2d3e 0dd6 0abf d9db 863f fcdc 91be
000000d0: ad02 d6be d40a 9f3d f0e9 21bd d8f0 41be
000000e0: ed4b 39bf f3eb 34be 96b7 5abe 2529 b93e
000000f0: a7ff 54be 133b 04bf f535 203f 4567 f7be
00000100: 2f08 0cbf 28ec 40bf c11f 0bbf f363 22bc
00000110: 9b62 ffbe a220 20be 70f7 70be ac4e 893d
00000120: bd83 99bd bed1 4cbe 3a5d 883c 6c99 acbe
00000130: 8631 53be 1c74 aebe 0ac1 9dbe c76e 92be
00000140: 93b5 14bf 3350 0ebf e997 43bf f7d4 b13e
00000150: 970e 903e 058d b1be a46c 2a3f f1a9 ccbd
00000160: 6340 29be 97fb 8b3d 6fa5 56bd d15e 803c
00000170: 763e dcbd e3ad 2bbf a69e 6bbd ce5e 0d3f
00000180: 9262 66bf bff4 1cbf 3d96 17bf ed41 60be
00000190: 6de3 a73d baf8 a93e e291 6fbe baee 8bbe
000001a0: dd0d 4bbe e656 96be 4fb6 e2be fa8d 9cbe
000001b0: 2c5c a4be c138 07be a782 90be 80ff c0bd
000001c0: c434 5bbe ca23 bd3d 3041 fabd da44 b8bd
000001d0: ad74 c9bc 8f74 debd 3391 0ebf f015 183f
000001e0: 9193 44be 24a5 c8be 8ee1 1dbf 2d38 4ebf
000001f0: 7378 12bf 65ce b73f a8f9 82be fdbc 43bf
00000200: 87dc 07bf 066d 1bbe 5208 40be 8b89 4fbc
00000210: 7910 03bd e3e7 803c f911 acbc 4068 99bb
00000220: 3a70 40bc b78f 38be d6a3 38be 5f39 ae3e
00000230: 8a8b b7be 9292 1cbe ba46 3fbe 9f71 123b
00000240: 5eb4 57be 76dd 2abe 900c 133e 279b adbd
00000250: 0789 b4be a7ee 26bf ed47 50be 7641 9bbe
00000260: 8c5c 8fbe c4dd 533e 903c 84bd a621 96bd
00000270: ffa7 babd a1c9 20be c1f0 7dbe 1075 73bd
00000280: 69b2 d0bd 33d8 fcbd 4a77 fc3d ab66 bcbe
00000290: cdda 883e 5f6c 7fbe b5a9 0abe 74e9 84bd
000002a0: 6f00 f0bd 00f6 b2bd e2d3 efbb 2b8d 40be
000002b0: 9429 5fbe aa57 9fbe 7141 4bbe 8d9c a5bc
000002c0: 350b 36bd c2ce 38bd 3fda b2bd 7ef2 ce3b
000002d0: f72c 45be f07b 16bd d68b 47be 0e93 7fbe
000002e0: cfab 34bd df04 5fbe 5c15 3d3b 2ee3 19be
000002f0: 0e5c 11be d27c 48be cdce 59be 9147 c3be
00000300: 29e2 3abe 07a1 61be 869e 173d 7ac1 4fbd
00000310: 9b22 a63b 38af bebc a292 343d a86b 89bd
00000320: 405c 79bd 53f5 3abd 8c54 8fbd b8c4 07be
00000330: fce3 6ebe ba09 49be 64dd 3b3e 0732 d3be
00000340: ad24 3bbf 398f 82be a832 93be aba3 b9be
00000350: ba2a 1dbe 5e3a bfbe 45f3 45be 27ce 5dbe
00000360: 1f8f 1bbd 8a5e 50bd d567 0dbe 0636 7fbe
00000370: a9bf a7bd 1141 b43d 7e58 e9bc a814 e1bd
00000380: 4bf8 dcbd c46e b1bd 32cc 3fbe 88d7 cdbd
00000390: 37fa 22be 4e55 54be 6047 34bc 8520 09bf
000003a0: 1d88 20be 8275 dfbe ff51 083d 61c5 dfbd
000003b0: af1b 9c3c 400a 1abf cd57 993b 1cc4 933e
000003c0: 61c9 58bf 22c3 093f ace8 94bf 2778 98bc
000003d0: 1932 2abe 7306 d73d 34fe b8be a494 88be
000003e0: 2ade 193d 9fb4 3abe a66b 26bc 44a5 33bc
000003f0: 0ab7 15bb 6833 0abe dfbd 36be c6d2 d8bd
-0.19592106 -0.17529894 0.022257881 0.022604324 -0.46238983 0.23238339 -0.14622143 -0.28526044
-0.009334496 -0.024633197 -0.20546348 -0.224475 -0.12203293 -0.21869123 0.09847468 -0.082035
-0.2529434 0.045540452 -0.24500756 -0.0604246 -0.02720064 -0.01990465 -0.11409489 0.04591566
-0.06691714 -0.06809109 -0.15132493 -0.09393071 -0.47390887 -0.15865742 -0.19768783 -0.063042216
-0.109199 -0.56657326 -0.32208276 -0.3651007 -0.13182946 -0.3284794 -0.3006731 -0.13724585
-0.08422056 -0.1297744 -0.62138635 -0.012065596 0.10141099 -0.1881202 -0.2882842 0.32045147
0.16965467 -0.54232866 1.0535842 -0.2848891 -0.41798916 0.07765737 -0.03952974 -0.18939531
-0.7238148 -0.17668132 -0.21359095 0.36164203 -0.20800649 -0.5165264 0.6258233 -0.48320976
-0.5469999 -0.75360346 -0.5434533 -0.009911525 -0.49879918 -0.15637448 -0.2353189 0.067044586
-0.0749583 -0.20001885 0.016646016 -0.33710802 -0.2062436 -0.3407296 -0.3081134 -0.2860014
-0.5808956 -0.55591124 -0.7640367 0.34732792 0.2813613 -0.34677902 0.6657202 -0.09993351
-0.16528468 0.06835096 -0.052403864 0.015670212 -0.10754101 -0.67062205 -0.057524346 0.55222785
-0.89994156 -0.6131095 -0.5921362 -0.21900149 0.08197675 0.33197576 -0.23395494 -0.2733057
-0.19829507 -0.29363173 -0.44279715 -0.3057707 -0.32101572 -0.13205244 -0.2822468 -0.09423733
-0.21406847 0.09235342 -0.12219465 -0.089975074 -0.024591768 -0.108620755 -0.55690306 0.59408474
-0.19196917 -0.39188492 -0.61672294 -0.8055447 -0.5721504 1.4359862 -0.25581098 -0.7646025
-0.53070873 -0.15178308 -0.18753174 -0.01266707 -0.03199813 0.015735572 -0.021004664 -0.004681617
-0.011745507 -0.18023573 -0.18031248 0.34028146 -0.35848647 -0.15290287 -0.18679324 0.0022345555
-0.21064898 -0.16686043 0.14360261 -0.084768586 -0.35260794 -0.65207905 -0.20339938 -0.3032338
-0.28000295 0.20690066 -0.06456864 -0.07330637 -0.09114074 -0.15701915 -0.24798872 -0.05943781
-0.10190279 -0.12345924 0.1232744 -0.3679708 0.26729432 -0.24943684 -0.135413 -0.0648984
-0.11718833 -0.08738327 -0.0073189596 -0.18803851 -0.21793205 -0.3112157 -0.19849183 -0.02021625
-0.04444428 -0.045119055 -0.087330334 0.0063155284 -0.19255434 -0.03673929 -0.19486937 -0.2495844
-0.044109162 -0.21779202 0.0028851843 -0.15028068 -0.14195272 -0.19578865 -0.21270294 -0.38140538
-0.18250336 -0.22034083 0.037016414 -0.050721623 0.0050700433 -0.02327691 0.044085152 -0.06709987
-0.060878992 -0.045644116 -0.06998548 -0.13258636 -0.23329157 -0.19632617 0.18346173 -0.41249105
-0.7310284 -0.25499895 -0.28749585 -0.3625768 -0.1534833 -0.37349218 -0.19331081 -0.21660672
-0.037978288 -0.05087141 -0.1380914 -0.24922952 -0.08190853 0.08801473 -0.02848458 -0.10990268
-0.107895456 -0.08663705 -0.18730238 -0.10050875 -0.15915762 -0.20735666 -0.011003345 -0.53565246
-0.15676923 -0.4364434 0.033281323 -0.10926319 0.01905617 -0.6017189 0.004679656 0.28860557
-0.8468228 0.53813374 -1.1633506 -0.01861198 -0.16620673 0.10499277 -0.36131442 -0.26675904
0.037565388 -0.18232964 -0.010157501 -0.010964695 -0.0022844695 -0.13496172 -0.17845868 -0.10587077

rnn.weight_hh_l0 f4 [400, 100]
00000000: 7462 36bc abf8 80bd 14ff 9abd f9a5 53bd
00000010: 719a 08be b53b 123d bf3a 23bd 7284 803c
00000020: 6dc8 443c d663 c23d 1db0 5b3c a11f e5bd
00000030: c63f 50bb b9bb 7b3d ebc2 1a3e 836e cc3d
00000040: 4fab 38bc d668 cbbc b021 dfbc a953 be3d
00000050: 88ae 09bd 8beb b1bd dc77 f5bb d268 193c
00000060: 6690 833d 600f 0e3d 7e97 673d ea13 8f3e
00000070: 1d33 f5bd 0222 43bd b85f 953d 80ef ebbc
00000080: 0116 0abe b13a 86bd 477c 813d 5c0f bebd
00000090: 25c4 2dbd 56fb 613b 3c03 8dbc 577e 4fbb
000000a0: 3596 98bd 7c5a d1bc ed21 90be 9d92 943c
000000b0: 3194 e33d f26e efbc 1994 24bd e334 0fbd
000000c0: 9bb0 a6bd 9ebb fb3c 2f2f 76be b11a c7bd
000000d0: ea73 3c3d 0281 653c 2aa5 d5bd f5d0 25be
000000e0: 2e25 123d 71f3 0ebe be04 433d 989a d13d
000000f0: 5932 b43d ea31 ea3c 568a 29bd 7316 7abd
00000100: 0dd7 05bd 016e 113d 5445 d53d 40c8 8ebc
00000110: bf64 dfbc 7ab7 93bc a793 e5bd 90bd 133e
00000120: cfd7 073e b65f e03d 2918 71bd 5455 963b
00000130: 78ed 063e 0d1a 0e3e 4bc6 d13d 96cf 5fbe
00000140: e1cf f1bc 9abd 953c 7f1c d3bc 6861 ca3c
00000150: cf47 5e3c b09f f0bd 37f3 8cbe 3784 a83c
00000160: 2922 a73d 286b c23d e690 3b3d 8a7a 613d
00000170: 3951 2e3c f7a5 d53c b932 513d 1bfa 6bbd
00000180: 2f0a f0bc 8525 6d3d f99e 66bd 91db 3d3d
00000190: 42b2 753d 1712 0fbd 8209 dcbc 8153 92bd
000001a0: 7318 c0bc 32b7 b83d 9d6b 443d 1d78 b7bd
000001b0: 55c8 3cbe 3574 57bc 6590 47bd 7a01 3fbe
000001c0: 5a24 383d 3f61 c83c f08f 163e 9f3d d73b
000001d0: ffc3 a93c 131c a63d b876 1d3d 90e0 86bd
000001e0: 7b0d afbd 791c 8f3d b4d2 7b3b 326f e6bd
000001f0: 313e 62bd ea92 943d 7244 253c b2e2 763d
00000200: 97e0 82be 4b0f a2bd b368 de3d 6114 49be
00000210: 8435 cebd b101 d2bd 8e7d 30bd aab8 b3bd
00000220: f738 f1bd b349 97bd ebe5 f0bd 6fa9 6d3c
00000230: a376 afbd d6bd cfbe 0b62 88bd 4397 afbd
00000240: 397b d73d 4349 073e 7b55 213e c109 b53b
00000250: 55e7 6cbd 718b 4bbd ed73 50be 8522 5fbe
00000260: 272a 51bd 2f14 75bd 2c2d 9dbd 77e4 d3bd
00000270: f2e6 1bbd 76fd a63d 9f24 9b3a 3120 e139
00000280: 8f81 eebb 0493 633d c09e 073d 4ae4 553d
00000290: 823e 153e 4392 743d 4136 3a3e 3fae 20bd
000002a0: 58c3 1fbe c7dd 35be b339 3a3c fb85 d13d
000002b0: dced 973d 847c ea3c 0345 edbd 2d1f 843c
000002c0: 4a2c bebc 6d7b 8b3c f923 923d be3d 22bd
000002d0: 59b8 d0bd 1a2f 41bb 20b7 01bd 1974 2b3c
000002e0: b67d e5bd 8e41 79bd 7807 56bd 4f2b a4bd
000002f0: eec2 403e 6b88 0c3e 2197 5f3d 5b71 d93d
00000300: 7883 af3c 6740 bd3d 3d20 67be 60d0 e2bd
00000310: 2e06 093e 35db 6d3d 13f2 cebd 34d3 3cbe
00000320: b9f6 813d b43e a3bb 9293 c1bd c2b7 c8bc
00000330: feda c53b 1990 083d 81d6 86bd 66f3 5fbd
00000340: cc03 5dbd 53aa 9b3d 3a40 7c3d c06d f5bd
00000350: fa24 a3bd d4cc ae3d e157 df3c cfa9 d73d
00000360: d821 17bc 058f 8f3c 7ae5 5b3e af25 4dbd
00000370: b28d e73d 31db 68bd ef4b 9cbd d2b4 9ebd
00000380: e9bc 163d bbba 413d 5a56 0f3e f694 8c3d
00000390: 8976 c5be 84f6 813c f07c 4c3d d95f d5bd
000003a0: 79a9 35be 0aaf 4abe 8396 fd3c ee28 983c
000003b0: 5b8f 16be c8a5 80bd 1542 07be badd dd3d
000003c0: 40eb 36bc 5220 0bbf 9276 e0bd bb8b 2a3d
000003d0: fb22 013e 06a5 623d 8997 3ebe ab92 e0bc
000003e0: d0ed 933c 9997 7dbd 19c4 b5bd 9127 4fbe
000003f0: 7b3c dfbd 78e1 0a3c 4aee 243d 9b3e 5ebd
-0.0111318715 -0.0629743 -0.075681835 -0.051671956 -0.13340165 0.035701472 -0.039850947 0.015688155
0.012010676 0.094916984 0.013408688 -0.11187673 -0.0031776293 0.061458323 0.15113418 0.09982016
-0.011271312 -0.024830263 -0.027237743 0.09293301 -0.03361371 -0.086875044 -0.007491095 0.00936337
0.06424026 0.03468263 0.05654096 0.2794488 -0.1197264 -0.047639854 0.072936475 -0.028800726
-0.13484956 -0.06554163 0.06322532 -0.09280273 -0.042423386 0.0034482083 -0.017213456 -0.0031660998
-0.07450525 -0.025555842 -0.28150883 0.018136317 0.1111225 -0.029227708 -0.0401803 -0.034962546
-0.081391536 0.030729111 -0.24041437 -0.09721888 0.04600898 0.014007809 -0.10431893 -0.16192992
0.03567999 -0.13960053 0.047611944 0.102345645 0.087986656 0.028588254 -0.041391693 -0.061056565
-0.03267579 0.0355053 0.10413614 -0.017429471 -0.02726972 -0.018031824 -0.11209803 0.14427781
0.13265918 0.109557554 -0.05886093 0.0045878086 0.13176525 0.13877125 0.102428995 -0.21856532
-0.02951807 0.018278886 -0.025770424 0.02470465 0.013566925 -0.11749208 -0.27529308 0.020570857
0.081608124 0.09493095 0.045792483 0.055048503 0.010639482 0.026080115 0.051073764 -0.057611566
-0.02930173 0.05789711 -0.056303952 0.046351973 0.059984453 -0.03492936 -0.026860002 -0.07144833
-0.023449158 0.09019317 0.04795419 -0.08958457 -0.18435796 -0.0131502645 -0.04872169 -0.18652907
0.044956543 0.024460433 0.14703345 0.006568625 0.020723341 0.081108235 0.038443297 -0.06585801
-0.08547493 0.069878526 0.003842515 -0.112516776 -0.05523509 0.07254584 0.010087119 0.060274787
-0.25561973 -0.07913073 0.108598135 -0.1963668 -0.10068801 -0.10254229 -0.04308849 -0.08775456
-0.11778443 -0.07387104 -0.11762603 0.014505728 -0.0856755 -0.4057452 -0.06659325 -0.08573773
0.1052155 0.13211541 0.15755264 0.0055248444 -0.057837803 -0.04969353 -0.20356722 -0.21790512
-0.05106559 -0.0598337 -0.076746315 -0.103463106 -0.038062043 0.081538126 0.0011836475 0.0004293933
-0.007278628 0.055560127 0.03311038 0.052219667 0.14574626 0.0597098 0.18184759 -0.039228674
-0.15601861 -0.17760383 0.011366296 0.10230633 0.07418415 0.028623827 -0.115854286 0.016128147
-0.023214478 0.017026627 0.071357675 -0.039609663 -0.101914115 -0.0029477538 -0.031668782 0.010464692
-0.11205618 -0.060853533 -0.052253217 -0.08016073 0.1882436 0.13723914 0.054587487 0.10617324
0.021424994 0.092407994 -0.22570892 -0.110749006 0.13381264 0.05807038 -0.10104766 -0.18439943
0.06345887 -0.00498184 -0.09451975 -0.024501685 0.006038069 0.033340547 -0.06583882 -0.054675482
-0.0539587 0.07600846 0.06158469 -0.11983824 -0.07966037 0.085351616 0.027263584 0.10530435
-0.009224378 0.017524252 0.21474257 -0.050084766 0.11306323 -0.056849662 -0.07631671 -0.077493325
0.036801253 0.04729722 0.13997784 0.068643495 -0.38566998 0.015864618 0.049923837 -0.10418672
-0.1774043 -0.19793335 0.030955559 0.018574204 -0.14703123 -0.0628162 -0.13208802 0.108333066
-0.011164486 -0.5434619 -0.109601155 0.041637164 0.12611 0.05533316 -0.18612494 -0.027413687
0.018057734 -0.061912153 -0.08875293 -0.20229937 -0.109002076 0.0084766075 0.040266313 -0.054258924

rnn.bias_ih_l0 f4 [400]
00000000: ac47 79bb 080c 9ebd fe74 273c d2a7 803c
00000010: 4be0 b0bd b092 6ebd 24ca 11be 8be0 04bd
00000020: 2148 babd 31a1 26be 45f1 a1bd 6aec 90be
00000030: cb3d 833c 7d0a 27b8 6f09 12be f167 d93c
00000040: c788 7dbe 6e34 c2bc a6a9 33be 98c0 753b
00000050: 462f a9bd cf8c b2bd cb88 29be 9c74 433d
00000060: 8c21 dabc 82ca f3bd fec3 913b ff1a 96be
00000070: 7a38 afbe b2a2 513c 97ce f1bd aeb2 39bd
00000080: e98e 8dbe 4c37 81bd e86c 82bc 0688 72bd
00000090: 7610 ae3d 6034 f9bc ba9f 553d 62d3 95be
000000a0: 5bad 13be 2da5 343d 7001 3ebe ccf5 26be
000000b0: 418f 9dbc 4fde 78bd 44ae 9bbd abeb e9bd
000000c0: 3e00 853b dd6c 56bd 15b9 67be 88f6 78be
000000d0: 8b96 263d c6fd d7bc 5e05 51be ecbf 11bd
000000e0: 2aa2 5abc 0a3e 41be e656 13be 5986 4c3d
000000f0: 7b3b 02bd 2b82 09be 9944 dcbd 8b7f 7ebd
00000100: 860f 34be a71c a83c deba 48bc b083 ca3c
00000110: 8e1b 02bc 2310 52be 8971 893b 88ee 07be
00000120: 6ac5 d93c 8546 b2bc 99e7 f839 8651 83bd
00000130: fef5 c0bd 5cd1 4dbe 3f71 b4bd 5f63 e7bd
00000140: 5667 df3e c693 0cbe 204e 573c a3fa 47bd
00000150: 209d 08be 5ffc df3c c17f b3bd f1b2 f4bc
00000160: 499a d5bd 4be2 acbd 5738 b0bc ae39 01be
00000170: 8ab2 54be e9e4 62be 8bf2 3cbe a6c3 6cbe
00000180: d0d5 8dbd eed3 cebd 900c 513d ee48 c5bd
00000190: d0d2 4e3d 054e afbd 3ac1 14be 2913 04be
000001a0: 05c3 e4bd 0047 0c3d 18c6 47bd fa9a 82bd
000001b0: 3102 8b3d 7800 a3bc 1b38 22bd e6bc b9bd
000001c0: 7def 473d 5e05 30bd fca3 f0bd 6587 92bd
000001d0: d2a5 64be 013c 743d 22d4 723c 3083 0dbe
000001e0: 412d 49be a019 b0bd 5233 49bd 5c1a ecbd
000001f0: 7ec3 87bc 0648 73be 8a31 81bd 357b 9cbe
00000200: d246 b73e 69cc 66bd 98ba 563c 68f5 46be
00000210: 9605 41be 5bbf 9c3d 3294 00be bbad bdbc
00000220: 0f17 9d3d b860 903d 46e7 91bd 8e35 95bd
00000230: 2a08 09be fd02 d9be 534f abbe d0e7 84bd
00000240: bd24 a63c 45ed 63bd bc35 ca3e 139e 24bd
00000250: c44a ee3b d8ce 9a3c 0632 b4bd 4483 57be
00000260: 3e6a ea3c a667 64bd 822b dabd ef1c 0abe
00000270: 62f4 f4bd 27bf c4bd 1290 a1bd 4d6b ecbc
00000280: a46a fabd ab87 16be 4eed 60bc 1f72 413d
00000290: e768 12be b3ed ce3b 2c8a 83bd 822f d7bd
000002a0: 926c 35bd 8b3a 15be 0a6f 2fbe 3754 39be
000002b0: 8f08 27bd 6134 cebd 157e 89bd 2296 cabd
000002c0: 9c2f 76bd 7c55 febd 5e06 29bb 7c81 403d
000002d0: 29dd 06bf 89ce 53bd bf7c eebd 7cd4 20be
000002e0: 39a4 e5bc 7b1b f0bd d537 06be e46d a8bd
000002f0: b551 d3bc 68aa 11be ccc0 04bd ef29 bebd
00000300: 97f2 cfbd 61db 98be b6d4 6dbe 988f 1bbe
00000310: f1ba 76bd b5d1 28be 8fb4 5f3c a16e 9a3c
00000320: 3030 d93d 2e38 c73c 4f41 00bd 6155 15bd
00000330: ed31 d13c 52b9 a13d 8cf4 1f3d cfb2 e1bd
00000340: e8b8 e33c 0df0 103d ca19 12bd 6401 34bd
00000350: 4322 b73d 3a4c 3ebd 1fd0 febb 415d 51bd
00000360: c2e0 adbc 32ae 1d3e 83d8 883c 7e2d af3d
00000370: 3802 283d d230 bfbd 4c67 363c 50f5 233d
00000380: 35f8 2bbd 478d b03a 15e2 283d 5372 e33d
00000390: 4ce4 9cbd 83a8 b6bd f7ec 41bd bd28 99bd
000003a0: 4500 553c f5d6 343c a6af 623d d836 d2bc
000003b0: a15c f53c b96c 56bd c71c 41bd 7c92 b33d
000003c0: 438e e539 8d9f 41bc d2d9 ccbc fb45 893b
000003d0: ab9d 29bd b276 2bbd ab4a 9b3b 0420 d9bb
000003e0: ff81 45bd 9ff9 5abc fa81 96bd b591 d23b
000003f0: 8b19 cd3c 1762 9bbd 694d d0bc b40f 31bd
-0.0038037105 -0.077171385 0.010220764 0.015705023 -0.086365305 -0.05824536 -0.14237267 -0.032440703
-0.09095789 -0.16272427 -0.07907347 -0.2830537 0.016020676 -3.982567e-05 -0.14261411 0.026538821
-0.24759208 -0.023706641 -0.17545184 0.0037498828 -0.0826097 -0.08718263 -0.16556089 0.04771863
-0.026627325 -0.1190386 0.004448413 -0.2931747 -0.34222776 0.012795137 -0.11806982 -0.045336418
-0.27648094 -0.06309375 -0.015921071 -0.059211753 0.084992334 -0.030420482 0.05215428 -0.29262835
-0.14421599 0.044102836 -0.18555236 -0.16304702 -0.019233348 -0.060758885 -0.07601598 -0.11421903
0.0040588668 -0.052349914 -0.22629197 -0.24312794 0.040670913 -0.026366126 -0.20412204 -0.03558342
-0.013344327 -0.18871322 -0.14388618 0.04993281 -0.031795006 -0.13428561 -0.107552715 -0.062133353
-0.17584047 0.020521475 -0.012251584 0.024720997 -0.00794114 -0.20513968 0.0041944426 -0.13274586
0.026583392 -0.021762142 0.000474748 -0.06412034 -0.09421919 -0.20099396 -0.088106625 -0.112982504
0.43633527 -0.13728246 0.013141185 -0.04882301 -0.13341188 0.02734202 -0.087646015 -0.029870482
-0.10429818 -0.084415995 -0.02151124 -0.1261966 -0.20771232 -0.22157635 -0.18451898 -0.23121509
-0.06925547 -0.10099016 0.05103737 -0.09633051 0.050494015 -0.08559803 -0.14526835 -0.12897934
-0.111700095 0.0342474 -0.0487729 -0.06377216 0.06787527 -0.019897684 -0.039604288 -0.09069233
0.04881238 -0.04297387 -0.117500275 -0.07154731 -0.2232888 0.059627537 0.014821084 -0.13819575
-0.19646169 -0.085986376 -0.04912121 -0.11528465 -0.01657271 -0.23757944 -0.06308277 -0.3056275
0.3579622 -0.056347284 0.013106011 -0.19429553 -0.18849787 0.07653686 -0.12556532 -0.02315413
0.07670414 0.07049698 -0.0712419 -0.07285605 -0.1338202 -0.42385092 -0.33458957 -0.06489527
0.02028119 -0.0556462 0.3949412 -0.040189814 0.0072720964 0.018897459 -0.08798604 -0.21046168
0.028615113 -0.05576291 -0.1065283 -0.134876 -0.11960675 -0.09606772 -0.07888807 -0.028859759
-0.12227371 -0.1470019 -0.013728453 0.047227975 -0.1429783 0.006314957 -0.064228386 -0.10507108
-0.044292994 -0.14573114 -0.17132202 -0.18098532 -0.040779646 -0.10068584 -0.06713501 -0.09891917
-0.060103998 -0.124186486 -0.0025791149 0.046998486 -0.52681214 -0.05171064 -0.11644887 -0.15706056
-0.028032409 -0.117239915 -0.13107236 -0.08224085 -0.025795797 -0.14225161 -0.032410428 -0.09285342
-0.10153692 -0.29854873 -0.23225674 -0.15191495 -0.060236875 -0.16486247 0.013653888 0.01885158
0.10604894 0.02431878 -0.031312283 -0.036458377 0.025536502 0.07896675 0.039051577 -0.11020433
0.027798131 0.03538518 -0.035669126 -0.04394664 0.08942082 -0.046459414 -0.007776275 -0.051114324
-0.021225337 0.15398481 0.016704803 0.08553599 0.04101774 -0.093354836 0.011133026 0.04002887
-0.041984756 0.0013469838 0.041231234 0.1110579 -0.07660732 -0.0891886 -0.047345128 -0.07478473
0.013000553 0.011037578 0.055343293 -0.025660917 0.029951395 -0.05234978 -0.047146585 0.08768174
0.00043784277 -0.011817825 -0.025006209 0.0041892505 -0.04141013 -0.041861244 0.0047391257 -0.006626131
-0.048219677 -0.013365178 -0.0734901 0.006426061 0.025036594 -0.075870685 -0.025427537 -0.043227866

rnn.bias_hh_l0 f4 [400]
00000000: fb92 c5bb 356a 58bd 8981 08bd 788c a73b
00000010: 921b c7bc 7fb6 b3bc b29f 30bc 28d8 ecbd
00000020: 0662 ecbb a7d5 0cbe 1af3 d1bd 61ca 92be
00000030: 90bc c2bd bf70 0bbe 7bd4 10bd d397 bc3c
00000040: 27d8 81be ab1c c7bd 23f2 21be 91a8 e9bd
00000050: 9fd1 77be 9535 13be 01fe c8bd 1102 cdbd
00000060: a4c8 01be ea79 c9bd 76a9 383c 9152 c2be
00000070: fe0c dcbe a706 19be 1f48 ca3c 0c68 32be
00000080: 310b b5be ac47 98bd 37b1 38be 0c11 22be
00000090: 0820 8b3c af8d 2e3d 855f aabd 7e01 18be
000000a0: 6123 0abd 3aba 99bd a8fa adbd 2274 81bd
000000b0: 44b8 a33c 601b f2bd 2c9a f1bd 99f0 dcbd
000000c0: 4dba c8bd 7799 39be ad73 aebd f9c8 48be
000000d0: aec2 973c b2ba c9bc 1d9f 83be 1ba6 f1bd
000000e0: 753f 9abd 4d9d d9bd 4fa2 22be cf02 f1bd
000000f0: a260 45bd 00d3 6abc 2690 10be 0370 923b
00000100: 910d 08be 83ef 9cbd fd82 00be 2939 b83c
00000110: e14e 9bbd 0741 53be 8890 9cbd 6711 a63c
00000120: 1c0d 00be 5b23 2bbd 3df2 893d 1294 c0bd
00000130: 575b b93c 74d1 a1bd ea58 eb3a 1fe6 aebd
00000140: bc71 a93e e205 16be 0fc8 3ebd 1d82 b5bd
00000150: bda0 d3bd d491 a7bc 2a41 b3bd 8ea5 0fbe
00000160: a502 23bc 9a7f 59bd 9114 15be 4d84 84bd
00000170: 4078 06be d995 bbbd 55a6 45be 117d 5ebe
00000180: f4b6 3a3c 0669 08be c44c b4bd 5059 84bc
00000190: 096d d43c ce03 3bbd d050 21be 43bf 66bc
000001a0: 4412 23be 2f94 72bd e69c 07be a295 d6bc
000001b0: 4ec2 863c 35c6 c2bd 68d4 4bbe d2e7 3ebe
000001c0: ebdd 833d b8ef 0dbd 0ce3 22be 2332 ed3c
000001d0: 2713 79be 0b93 343d d411 97bd b362 c83c
000001e0: 8f21 25be 5e40 03ba a224 e5bd b580 a8bb
000001f0: 1e67 dbbd 5f16 84bd 5594 cd3c fe22 84be
00000200: 9ccc d33e d818 eb3b 23a0 ae3c f227 15be
00000210: b197 6abe 9a71 423d 1661 f6bc a685 953c
00000220: 2ed3 613d cae1 7d3d 498c a5bd 738e afbd
00000230: 7841 15be b08e d7be 17d8 88be b54b a5bd
00000240: 45cc c03c f8af c9bc a79c 983e fdda 423d
00000250: 155f 1d3d 5c8c 84bc 6e9e 1ebe 6494 51be
00000260: 2158 f9bd 1acd 09bb a814 6cbe e828 b8bd
00000270: cbbf fbbd 9ade 24be b6e6 00be 3192 e0bd
00000280: 2cf9 28bc ba5a cb3b 9e54 84bc 8e22 193d
00000290: 97c3 2bbe c021 00bd 3702 fd3c dfa6 56bd
000002a0: 5244 9abd 14c6 5bbd a79e 52bd 23ec 4ebc
000002b0: 235b 00be cb9b 5639 708b 7abd a004 a8bd
000002c0: 1e63 afbc c157 a1be 4bff a7bc 9124 883d
000002d0: 8703 0abf dcf6 bfbd 0518 4fbd 1b9f 9cbd
000002e0: dbbd 38bd 029a d1bd 8444 0abe 2e52 51be
000002f0: d96d 15be 876c 88bd ed4c 84bd 7da6 fbbd
00000300: 3d74 81bd a1a4 0fbe 6857 54be aec9 d4bd
00000310: 24cc c63b 8ec8 27be c68b 6bbd 87f6 1dbd
00000320: d826 0cbd 73bf db3c 95ef 15bd d0a2 383c
00000330: 684f 6f3c afb6 01bd 2417 3b3c 2b4d 5c3d
00000340: e83f 0e3d e849 bc3c 115d 2b3d 19ee 933d
00000350: 9729 8c3c d8e2 49bd b57e 283c 61c5 f63d
00000360: b071 adbd 8662 c5bc e9b2 bbbd ad2e 74bb
00000370: 0386 6b3d 8bfa 41bc ba43 a2bc 21a8 02be
00000380: 8f2f b5ba 1265 443c 5d13 93bd a72d d6bc
00000390: 3f73 95bb a85f 7b3c ed0b a43b 4bbd cd3c
000003a0: 4400 b93b 4aa5 70bd 5355 9f3a b7e4 e53c
000003b0: abad b6bc 76f7 5abd d7b7 e33b c1ea 3f3d
000003c0: 9ccf 0f3d b47d 2c3c 483d 5bbd d902 47bd
000003d0: 2a1d b4bc be9b d3bc 6178 e3bc fc28 2bbd
000003e0: f4b3 54bd 3cab 553d b954 75bc 0e5b 393c
000003f0: ef6f a83c 54e8 6c3d bcae 1c3d c43c 3cbd
-0.0060294843 -0.052835662 -0.03332666 0.0051131807 -0.024305139 -0.021937607 -0.010780262 -0.11564666
-0.0072138337 -0.13753377 -0.10251446 -0.28670028 -0.09508622 -0.13617228 -0.035358887 0.023021614
-0.25360224 -0.09722265 -0.15815024 -0.114091046 -0.24201058 -0.14375909 -0.098140724 -0.1001016
-0.12674195 -0.098377064 0.011270871 -0.37953618 -0.42978662 -0.14943944 0.024692593 -0.17422503
-0.353601 -0.07435545 -0.18036352 -0.15826815 0.016983047 0.04261559 -0.08319 -0.14844319
-0.033725146 -0.07506223 -0.084950745 -0.06320979 0.019985326 -0.118216276 -0.11796984 -0.10788078
-0.09801159 -0.18124948 -0.08518157 -0.19607915 0.018525448 -0.024625156 -0.2570733 -0.1179926
-0.07531635 -0.10625706 -0.15882228 -0.11768114 -0.04818786 -0.014332533 -0.14117488 0.0044689192
-0.13286425 -0.07662871 -0.12549968 0.022488194 -0.07583404 -0.20630275 -0.07644755 0.02027197
-0.12505001 -0.041781764 0.067356564 -0.09403242 0.022626562 -0.07901278 0.0017955576 -0.08539986
0.33094585 -0.14650682 -0.04657751 -0.08862708 -0.10333393 -0.020455278 -0.087526634 -0.14027998
-0.009949361 -0.053100206 -0.14558627 -0.06470547 -0.13131809 -0.091594405 -0.19301732 -0.21727397
0.0113961585 -0.13321313 -0.088037044 -0.016155869 0.025930898 -0.045657925 -0.15753484 -0.014083686
-0.15924937 -0.05922335 -0.13243446 -0.026194397 0.016450074 -0.09510461 -0.19905245 -0.1864312
0.06438812 -0.03465244 -0.15906924 0.028954571 -0.24323712 0.044085544 -0.07376447 0.024461126
-0.16126083 -0.0005006845 -0.11188628 -0.005142296 -0.107130274 -0.064495794 0.025095144 -0.25807947
0.41367042 0.0071745925 0.021316594 -0.14566019 -0.22909428 0.04747162 -0.030075591 0.018252205
0.055133037 0.061982907 -0.08083398 -0.08572092 -0.14575756 -0.4210105 -0.26727363 -0.080710806
0.023534903 -0.024620041 0.29807016 0.047572125 0.038420755 -0.01618021 -0.15490124 -0.20466763
-0.121750124 -0.002102679 -0.23054755 -0.08992177 -0.12292441 -0.16100541 -0.12588009 -0.10965384
-0.010313313 0.006205884 -0.01615363 0.03738647 -0.1677383 -0.031282187 0.030884845 -0.052405234
-0.07532562 -0.0536557 -0.051420834 -0.012629542 -0.12534766 0.00020466668 -0.061168134 -0.08204007
-0.021409567 -0.31512263 -0.020507475 0.066475995 -0.5391163 -0.093732566 -0.050560016 -0.076475345
-0.045102935 -0.10234453 -0.13502699 -0.20441505 -0.14592685 -0.06661325 -0.06459985 -0.122876145
-0.06320999 -0.14027645 -0.20736468 -0.1039003 0.006066816 -0.163851 -0.057506345 -0.038565185
-0.03421673 0.026824689 -0.036605436 0.011269286 0.014606334 -0.03166836 0.011419091 0.05378453
0.034728914 0.02298446 0.041836802 0.07223148 0.017109675 -0.0492886 0.010284116 0.12049366
-0.0846895 -0.024094831 -0.09164984 -0.0037259266 0.05750085 -0.011839519 -0.019807685 -0.12759449
-0.0013823378 0.011986988 -0.07181428 -0.026144816 -0.0045608575 0.01534263 0.0050063045 0.025114676
0.0056457836 -0.058751382 0.0012156166 0.028063161 -0.022299608 -0.053458653 0.0069494057 0.04685474
0.0351101 0.010528017 -0.05352524 -0.0485867 -0.021986563 -0.0258311 -0.027767362 -0.041787133
-0.05192943 0.052165255 -0.014973813 0.011313213 0.020561187 0.057838753 0.038252577 -0.045956388

rnn.weight_ih_l1 f4 [400, 100]
00000000: 7f75 eb3a 7c16 0bbc a963 2c3d 0946 593d
00000010: 9500 8fbc 9de8 403e 45c7 9a3d d0a7 8e3c
00000020: 0822 67bd 788e 10be 521b 09bd 278d 753d
00000030: dbf4 3abe 5048 153e b3d2 d9bd f3c2 a13d
00000040: c395 3cbd 742d c6bd 413d f8bd 7d94 f0bc
00000050: f3b2 853c 7b07 3fbe 4140 a33d 36ba 9e3d
00000060: 7f93 49bd ee4c ed3d a9c1 34bd e0d4 d33d
00000070: 6160 053e 8216 34bd e833 e1bc de62 d33c
00000080: d9fb 843d 2372 a13d 3961 6fbd 0c02 3f3e
00000090: 2a0a 073d 2075 8e3d e59b f6bd 718d 413d
000000a0: 2fd8 c93d d1b6 873e c93b 01bc 749c 033e
000000b0: da75 c73c 4703 1a3d 35ad 7a3e 458e d3bd
000000c0: fc54 883d 5937 173e c753 723b c3ca 6e3d
000000d0: fc57 3ebd 7e2d 82bd 1b91 4dbc 2cc9 5cbe
000000e0: ae60 e83d 0485 0c3e ee0f 04be 4d7d 01bc
000000f0: 9a63 c13c 27fa 003e 37c2 bd3d b7b6 abbd
00000100: be1a 143e 80ad c93d 32e2 263e 0c74 74bd
00000110: 987e 0fbe 0fc8 fd3c 137c f7bd cc35 b8bb
00000120: 7d30 ec3a c23a 22be cbc6 8cbc a885 103d
00000130: 3c61 7e3c 05d4 a73b 60dd 833d b7f1 6c3d
00000140: f56a 603e ba3e 2bbe a61a 1c3d b0f5 b83d
00000150: 1f34 8dbd 621b a43d fc98 b4bd 38e5 7a3d
00000160: 6bf3 ff3d 8781 cdbc 29d8 99bb 5f9a 033c
00000170: 8b06 1bbe fdfb 86bc 6bde 3f3e 4b7a 6dbc
00000180: 9c25 8d3b c8a8 083e 70e7 5dbc 222d 38be
00000190: 0164 a93c bee0 cb3d dc5f 35bd d4cc 04bd
000001a0: a48e ca3c 866a 833d e2f5 a73d b525 b03c
000001b0: 94d2 d63b 47e7 a63d 5f4a 0dbd b0ce cebd
000001c0: 185c 103c e554 cebc 894f a13d 9264 103c
000001d0: 5c66 b03d 0c63 03bd cdf4 c73b 4553 583d
000001e0: 4e83 873c 95aa 0fbd c972 0a3c a2fd 0fbe
000001f0: 575c e23c 04ee c9bc f9e1 b63d 6267 783d
00000200: 80f5 6c3d f91b 02be 9217 e2bb cce9 61b9
00000210: b98b 0b3c 99ce 15bd da82 ff3d b314 cbbb
00000220: bca4 cfbd d002 ac3c 2d41 1c3d 4a22 17bd
00000230: 7d4d 853c 75b7 31be 131a 16be 0412 e4bd
00000240: ea6e 093d 62d5 5bbd 91fb 41bd 6dbe 06be
00000250: 2f85 023c da4a 15be 67b9 10be 42cf 40bd
00000260: 3d14 95bc a26e bf3c 3c7b a5bd be50 fabc
00000270: e9c5 cc3b c691 3abc d70a 00be fe99 c6bc
00000280: ae72 ecbc a7db b5bc 026a 3c3c 5aa9 ff3b
00000290: 8ed4 3cbd 4760 c93d 5191 8abb 92b4 e7bd
000002a0: e834 85bd 7376 b1bd 0d8b a43b 503c ccbc
000002b0: 3383 333d 7003 f93c bbb6 e5bb c52a c53d
000002c0: bd0d d43c 0e4d d43d 2d97 b13d 1109 963b
000002d0: ea76 8ebd 0c1e a4bd 7af9 e0bd 8378 f33c
000002e0: 9513 c0bd 2ecf adbd 07a6 c3bb 8fae c43b
000002f0: 36d5 e43d 9752 5bbd 93c3 27bb 9940 bf3d
00000300: 10c8 973d 3a73 53bc 6219 6cbd 19ad 913c
00000310: 9bd3 453c c740 00be f58f f33c 2670 e6bd
00000320: 6532 df3d 5854 af3c e9da 01be 0b07 92bd
00000330: b847 99ba 5e6a d13c 9eb9 1bbd a8c5 f5bb
00000340: 1e60 43bd 8ddd e13c 9e90 e7bc 477a 03bc
00000350: fd6c c33d 230d db3d f3b5 1f3d 8d4b 8c3d
00000360: af53 bc3d cfdf 633d aaec d838 ce4e 893d
00000370: d74d be3d 9b3c 6cbd b451 993d 5cd2 d8bd
00000380: 7cb8 20bd 04c1 6a3c 2bdb 823d 5e89 703e
00000390: db4a 9c3d f3ff 01be 1d28 bcbc 8c5a 06be
000003a0: 484a 913d a59c 41be bbd1 13bc ffc7 5b3d
000003b0: 6ab0 e4bd 89fe 17be ec84 b0bd 2bb5 0bbe
000003c0: 4597 35bd f36f 04be 4569 ebbd 7ad5 2ebd
000003d0: 1852 c13d 5051 573b cdad 2c3e 70d8 1abe
000003e0: 00a9 84bd d73a 49bd 3f53 21be 6f8d 2abe
000003f0: 1607 1ebe 9415 11be 3bd1 11be 2889 85bd
0.0017964094 -0.008489247 0.04208723 0.053045306 -0.017456332 0.18838735 0.07557539 0.017414004
-0.05642894 -0.14116848 -0.03347332 0.059949066 -0.18257467 0.14578366 -0.10635891 0.07898512
-0.04604126 -0.09676638 -0.12121058 -0.02936768 0.016320681 -0.18655197 0.0797124 0.07750361
-0.04921293 0.11586939 -0.04413 0.10343337 0.13025047 -0.043966778 -0.027490571 0.02580398
0.06493349 0.07883098 -0.058442328 0.18653125 0.032968678 0.069559336 -0.12041453 0.04725403
0.09855687 0.26506665 -0.007887789 0.12852651 0.024348188 0.03760078 0.24480136 -0.1032987
0.066568345 0.14767207 0.0036976205 0.058298837 -0.046470627 -0.06356333 -0.012546803 -0.21561116
0.11346565 0.13722616 -0.12896702 -0.007903409 0.023607064 0.12595426 0.09265559 -0.083844595
0.14463326 0.098475456 0.16297224 -0.059680983 -0.14013135 0.030979184 -0.12084212 -0.0056216475
0.0018019822 -0.15842727 -0.017184636 0.035283715 0.015526112 0.0051217102 0.06438708 0.057847705
0.21915801 -0.16723147 0.03811135 0.09031236 -0.06894707 0.08013035 -0.08818242 0.061253756
0.124976 -0.025086178 -0.0046949578 0.00803241 -0.15139215 -0.01647758 0.1873719 -0.014494489
0.004307462 0.13345635 -0.0135439485 -0.17985967 0.020677568 0.099549755 -0.04428087 -0.0324219
0.02472622 0.06416802 0.08201195 0.021502355 0.0065558646 0.081495814 -0.034494754 -0.10098016
0.008811019 -0.025186965 0.07876498 0.00881304 0.086132735 -0.03207688 0.0061021806 0.052813787
0.016542103 -0.03507479 0.0084502185 -0.14061597 0.027631922 -0.024649628 0.089298196 0.06064547
0.057851315 -0.12705983 -0.0068997825 -0.00021544768 0.008517199 -0.03657398 0.1247613 -0.006197536
-0.101388425 0.020997435 0.038148094 -0.036897935 0.0162723 -0.1735514 -0.14658384 -0.11136249
0.03355304 -0.053670295 -0.047359053 -0.13158579 0.007966324 -0.14579335 -0.14133225 -0.047072656
-0.018198127 0.023368184 -0.08080146 -0.030556079 0.0062491787 -0.011387294 -0.12504135 -0.024243351
-0.028863277 -0.022199465 0.011499884 0.0078021707 -0.046101145 0.098328166 -0.004228749 -0.11313738
-0.06504232 -0.086651705 0.005021459 -0.024931103 0.043826293 0.030397147 -0.0070103086 0.09627298
0.025885457 0.103662595 0.086714126 0.0045787175 -0.06956275 -0.080135435 -0.10985084 0.02972055
-0.09378735 -0.08486782 -0.0059707197 0.0060022543 0.11173479 -0.05354556 -0.002559875 0.09338493
0.07411206 -0.01290589 -0.057641394 0.017782735 0.012074376 -0.1252471 0.02973173 -0.11251859
0.10898284 0.021402523 -0.12681164 -0.071302496 -0.0011694347 0.025563415 -0.038018815 -0.007500369
-0.047699086 0.027571464 -0.028267201 -0.008024759 0.09542272 0.10695865 0.03899188 0.06850348
0.09195649 0.055633362 0.00010343765 0.06704484 0.092921905 -0.057674985 0.07486287 -0.10586998
-0.039238438 0.014328245 0.06389459 0.23489901 0.07631465 -0.12695293 -0.022968346 -0.13120478
0.07094246 -0.18907411 -0.009022172 0.053657528 -0.11166461 -0.14843191 -0.08619103 -0.13643329
-0.044333715 -0.1293333 -0.11494688 -0.042684056 0.09439486 0.0032854863 0.16863175 -0.15121627
-0.06477547 -0.04912838 -0.15754412 -0.16655515 -0.1543239 -0.14168388 -0.14239971 -0.06520301

rnn.weight_hh_l1 f4 [400, 100]
00000000: 34a5 b73d 721f 613d 5e96 d0bd ccb3 10be
00000010: f43e d2bc c201 083e caa7 233e 271c 213e
00000020: 0609 9f3c 889a 573d b301 0bbe df9c 17be
00000030: e6c1 3bbe f102 c33b 6087 ca3d 0dc2 3fbe
00000040: 08b7 823d 7f7c cc3d ffbb fc3c aea8 a4bd
00000050: 970f 9fbc 39bf 12be 01e5 debd e38f f5bc
00000060: 78d6 0dbe faf2 b0bd a0d9 0e3e 73ec 243d
00000070: 4f02 e13b f4e9 96bd e2f3 75bc 47f0 ea3d
00000080: f644 cb3d 1476 de3d c0a9 d3bc f6ef eebc
00000090: 15c3 51bd 3c1f 4a3d d9d4 aa3d fd24 3dbb
000000a0: 4d19 be3c b12d f93d 69bb 32bd 65b9 733e
000000b0: cad1 9fbd e520 063e 7f46 0d3e 2e08 a63d
000000c0: 313d 1b3c ba5b c0bc 321a f63d 2150 643d
000000d0: 26aa 743d 8568 903c 4e8a f0bd 199d 333e
000000e0: 65b1 143e f5db 3d3e 8cbe d2bc 582a 2abe
000000f0: 46c8 dbbd b73a afbd 3cd4 163e 7d25 9ebd
00000100: 0598 89bc 22ae 90bc dfd7 b53c a2c4 973b
00000110: d4fc 113c f675 7dbd 1309 e5bd 5487 103c
00000120: bb70 18be 90a1 12be 114f 00be 9d8e 19be
00000130: bc2b 6c3d 60d3 35bd 034a 72bd bcc8 3a3d
00000140: a5f5 c3bc fc22 e0bd af30 4dbd bf97 21be
00000150: 633e 7b3d 440f babd a272 f53d d86c 1e3e
00000160: 04f8 70bd c62a 9cbd 19f4 dabc 87e5 30bd
00000170: b4f7 023d 6fdb b0bc f9e9 2abe 4b3b e6bd
00000180: 212e ac3d 9c34 593d 0e6e a4bd 17ef 433c
00000190: 8391 04bd c31d da3c 31fe 1e3e 5c9b c33b
000001a0: 52e8 033c 4f06 23bd 48b3 d43d b06a 03ba
000001b0: 669b 6fbc 2908 543d b10d 5f3c 9af2 083d
000001c0: 7f25 b8bd 20aa 37bd 5188 293c 3bfe 43bc
000001d0: fbeb edbc 1631 d33d 315f 81bd 40a0 dcbd
000001e0: 9352 26be 131b fdbd d13d 08be 0a0a 44bd
000001f0: 8def 033e 81f5 05be cf17 63bd 94d5 cc3d
00000200: 2ae0 20be da49 573d 293b f5bd ff27 07bd
00000210: 090b 65bb 0dee 6ebb 0645 92bd af4e dcbc
00000220: 3f03 d2bd 10c1 e9bd 01de 0c3e 642f 673d
00000230: 3bed d93c 9708 4cbd 4b37 0bbd 63b0 05be
00000240: 3289 fd3d b886 a1bd 23f9 f4ba a9ec 72bd
00000250: aaf8 6e3d b440 193b 931a f6bc 914f eabc
00000260: 0a86 e5bd 90cb 0bbd e33c 513d dea0 b7bb
00000270: 6148 b4bb caab 2dbd eb61 26be e389 8fbd
00000280: af15 5cbd 3a86 a43d 22e0 cc3b ea8d 043e
00000290: 6234 3d3d eebb 06be 3e08 1fbd dce0 35bd
000002a0: 614a 06be dcc8 21bd c80b cc3d 1b57 44bd
000002b0: be44 aa3c 7ec9 72bc a2cb 43bd f294 563c
000002c0: f216 abbd b3c3 c9bd 9765 e13c e25b 193d
000002d0: 40a3 21bc 533d 84bc f197 3abd c0e7 edbd
000002e0: fbc0 183d 6f67 b2bd 9cf0 a43d 3a09 22be
000002f0: a3d2 4b3e ca62 b2bd 874d b9bd 2078 10be
00000300: 1a4d d3bc 5304 a6bd fb3d b73d 0a2b 03be
00000310: 126d ca3d 4b92 acbc 798a edbc 7fab 283d
00000320: 5ee5 96bd 080e bc3b 902a 3dbd c029 64bc
00000330: b2e7 2dbd 7cd4 02bb d4c0 babc eef9 0bbe
00000340: 1101 ec3d 55ad aa3d 94a9 d73d 0806 12be
00000350: e579 16be 69ee f6bb 8bad 1c3e 6c38 3fbc
00000360: 6d4f 633d 54ce 443d fa28 ac3c f609 a8bc
00000370: 560b 03bd df75 ddbc bea9 a2bd 4b7a 93bc
00000380: f0ef fe3c 231b a2bd 1544 d53d 7682 0fbd
00000390: 6b98 08be 819a ce3b 5e7d 22be fb92 2d3e
000003a0: 4871 d03c 81e5 3d3d f119 9bbd 2033 b23c
000003b0: 88d6 8ebd e15f ffbd 9410 db3c a093 90bd
000003c0: 18ab f8bc 4a46 2bbb fd96 15be 3cd5 c3bd
000003d0: db32 32bc 5ff0 55bd 1beb 7a3d 2712 16be
000003e0: 2cbe a73d 7236 853d 4df2 86bd 84d7 993d
000003f0: 1410 183c f72a a63c cb6d 023e e18b 003e
0.08967057 0.05496163 -0.1018493 -0.14131087 -0.025664784 0.1328192 0.15981975 0.15733396
0.019413482 0.052637607 -0.13574867 -0.14805935 -0.18335685 0.0059512784 0.09889102 -0.18726368
0.06382567 0.09984683 0.030851362 -0.080399856 -0.019416614 -0.14330758 -0.10883523 -0.029975837
-0.13851345 -0.08640094 0.13950205 0.040264558 0.0068667303 -0.07368842 -0.0150117595 0.114716105
0.09925263 0.10862365 -0.025837779 -0.029167157 -0.051211435 0.049346194 0.08341379 -0.0028861158
0.023205424 0.12166918 -0.04363576 0.23801191 -0.07803686 0.13098486 0.13796423 0.08107029
0.009475038 -0.023481239 0.12016715 0.05574048 0.05973258 0.017627964 -0.117451295 0.17540397
0.14520796 0.18540938 -0.025725625 -0.16617715 -0.107315585 -0.08556121 0.14729398 -0.07721994
-0.016796121 -0.017661158 0.022197662 0.0046315948 0.008910377 -0.061880074 -0.111833714 0.008821327
-0.14886753 -0.14319444 -0.12530161 -0.14995809 0.057658896 -0.044391036 -0.059152614 0.04560159
-0.023920843 -0.10944173 -0.050095256 -0.15780543 0.061338793 -0.09084943 0.11984755 0.15471208
-0.058830276 -0.07625346 -0.026727723 -0.043187644 0.03197451 -0.02158901 -0.16690816 -0.11241778
0.08407236 0.053028688 -0.08028804 0.011958859 -0.032365333 0.02662552 0.15526654 0.005969448
0.008050995 -0.03980094 0.10385758 -0.0005013151 -0.014624452 0.051765595 0.013614104 0.033434488
-0.08991527 -0.04483998 0.010347442 -0.011962469 -0.029043188 0.10312097 -0.063169844 -0.10772753
-0.16242437 -0.123586796 -0.13304831 -0.047861136 0.1288435 -0.13081934 -0.055442628 0.10001674
-0.15710512 0.052560665 -0.119741745 -0.032997128 -0.0034949204 -0.0036457807 -0.071420714 -0.026892988
-0.102545254 -0.11413777 0.13756563 0.05644168 0.026602378 -0.04981288 -0.03398828 -0.13055567
0.123796836 -0.07887024 -0.0018689971 -0.059307728 0.058342613 0.0023384513 -0.030041968 -0.028602393
-0.112072065 -0.03412968 0.051083457 -0.0056038937 -0.0055017923 -0.04240016 -0.1624829 -0.07008722
-0.053731617 0.08033414 0.0062523047 0.12944761 0.046192534 -0.13157627 -0.03882622 -0.044403896
-0.13114311 -0.039498195 0.099631846 -0.047934633 0.020784732 -0.014818547 -0.04780162 0.013097035
-0.08353986 -0.0985178 0.027514262 0.037441142 -0.009865582 -0.016142523 -0.04555506 -0.116164684
0.037293416 -0.08711135 0.08053705 -0.15823832 0.1990457 -0.08710249 -0.0904799 -0.14108324
-0.0257936 -0.081062935 0.08947369 -0.12809387 0.09884085 -0.021065852 -0.028996693 0.041179176
-0.07367967 0.0057389773 -0.04618317 -0.01392597 -0.04245729 -0.0019963076 -0.022797026 -0.1366956
0.11523641 0.08333842 0.10530391 -0.14260113 -0.14694937 -0.007535745 0.15300576 -0.011671167
0.05549567 0.048048332 0.021015633 -0.020512562 -0.031993233 -0.027033744 -0.07942532 -0.01800265
0.03112027 -0.07915332 0.10413376 -0.035036527 -0.13339393 0.0063050394 -0.15868136 0.169506
0.025444642 0.04636145 -0.07573307 0.021752894 -0.06974512 -0.12469459 0.026741304 -0.07059407
-0.030355021 -0.0026134425 -0.14608379 -0.095621556 -0.010876383 -0.05223119 0.06125937 -0.14655362
0.08190569 0.06504525 -0.06589184 0.075118095 0.009281177 0.02028416 0.12737195 0.1255336

rnn.bias_ih_l1 f4 [400]
00000000: 8608 31bc f5f7 583d f256 84bd 05ce e1bd
00000010: 99b8 c0bd cc0a d5bd 2c32 0fbe a5a8 3dbd
00000020: 9788 24bc a6ae 91bd c2f2 1fbe 15c1 083d
00000030: deca 743b aab6 81bc bd10 34be 9719 3bbd
00000040: d45a 11be 3981 10be 892d 12be ff91 07bd
00000050: 48d4 c4bd 0de0 863d 94bc 5e3c e460 debd
00000060: 3fd0 8bbc 7bc0 193d 05f3 0fbe b902 a7bd
00000070: 42d7 22be 45fb 1e3c d89b ed3b fe2e cf3d
00000080: 17d5 6d3d 06fb 10bd 64fb 5c3d f5aa fabd
00000090: 8f8a dbba 420c 85bd 249f f8bd 085e 81bd
000000a0: 9557 89bb 206c 1c3d 6064 aebc f249 f5bd
000000b0: d231 edbd 90b4 c8bd 3f28 65bd 37c9 6cbd
000000c0: 3c9e 6a3d efc1 9bbd 00f6 4cbd 3766 24be
000000d0: f97b 41bc bee0 97be b93c c4bc 5c81 07be
000000e0: db3a d4bd ccf4 79bd 8917 2fbe bc7d aa3b
000000f0: 0d89 343d 3245 63bd 46c8 b3bd 1b15 f7bd
00000100: 2dd6 30bd 4c3f 3e3d d9b9 b7bd 37ed eabd
00000110: 61f5 083d d616 f7bd 2f6a b4bd 01ca 30be
00000120: 65f4 4fbd 7034 83bd 8f9c 1bbe 2419 2ebe
00000130: d70f b9bc 8cc5 9bbd ad32 003d 08cf ebbd
00000140: 26d5 b6bc 5064 91bc 6a2c b4bd 7603 0abd
00000150: 0a5a c7bc 60b9 c93c 061f b3bd 5ab8 b2be
00000160: 70af adbe f7d7 26bd 12b8 4fbd 42d1 1e3d
00000170: b617 eabd 5c54 a5bd 15e2 4cbe 4e88 823d
00000180: b016 e2bd de03 2ebe 0abd 38bd 5c19 7bbb
00000190: 8cf7 c23b d1b8 55bd 6f21 3cbd 5652 08be
000001a0: 6065 66be 3b4c 37bd 8cbe 80bd 7d45 d8bd
000001b0: 64ce 88be 7467 a8bd 5eeb 2fbe e057 cdbc
000001c0: bab3 22bd cf3f 35be 2944 9cbd cdad a63c
000001d0: 0e5e a1bd 2e8a 44be 1313 153c fd8e aabc
000001e0: 500c dbbd 65c0 a0bb 1b9d 9e3b 10f7 15be
000001f0: d359 47be 01e6 1f3d 72a5 e6bd aecc 4bbc
00000200: 6f19 903c fe5d 28bd 7588 9dbd e622 92be
00000210: 3a76 d4ba 1765 a3be dcc2 3dbd fd57 e7bd
00000220: 05bb f3bc 9dab f1bd be59 f8bd 1f8c 1dbe
00000230: 2e06 fc3a 5f56 42be fc76 3cbd 4fbe 5fbd
00000240: c21d b4be 0248 d6bd e0b6 a0ba 6304 33bc
00000250: a7f4 f5b8 9286 56bd c21d 2fbd 4ce2 43bd
00000260: c64f 36be d8f2 37be 6385 7cbc 404a c0bc
00000270: 298e 7abe 3897 ddbd af77 84be bfed d1bd
00000280: 19ea 5dbc 465c 9cbd ac0a 813b 530a 5ebe
00000290: aab5 07be f3dc aebd 125c 6bbe 3432 ccbb
000002a0: 01f0 bdbd 8687 123d c809 243d ad5e e8bc
000002b0: cf1b 3cbe 8e99 1ebe d553 383d 39ab 2bbe
000002c0: 4f2c 76bc df65 9fbd 13a5 a0bd 7da2 4dbc
000002d0: 895d 8abd 19b0 83be 2608 1abc 3a85 c0bd
000002e0: 4e17 0ebe 83f5 d6bc 542f 2a3d dcda 86be
000002f0: 5059 b3be 55f9 bbbd 6a47 3e3d 032f f23c
00000300: adf0 72bd a4fa f9bd 09fe 27be e856 3ebd
00000310: 50e0 7bbd f9ec 1cbd 6ac9 e8bd 1350 45be
00000320: 1a9c e43c f0b9 98bc 4c21 2d3d 3d16 403d
00000330: ec07 c33c 18e0 19bd 95bf 79bd 0c80 dfbc
00000340: a777 6d3b 4e86 b9bd f227 22bd b3cd 53bb
00000350: 0ad6 793b 8458 53bd 61d8 c23c b712 07bd
00000360: 5553 f7bc 1558 a43b fa33 5c3d da2d 5c3d
00000370: b883 a4bc 3e01 803d 7cba 09bd d8f6 f5bc
00000380: 572d 733c f311 dfbb 70f2 793c 335d 1dbc
00000390: b409 2ebb 9496 a8bd 223b 48bd 4b72 7bbd
000003a0: f314 d3bc 63e6 693c f1f2 ec3a 0514 dfbc
000003b0: f2b0 583d f4fb 053d 6f5e 133d a07c 2d3d
000003c0: 1cf4 1cbd d2c2 84bc 0180 0d3a ea1f ec3d
000003d0: 87cd febc c082 a33d cc0c c2bc d880 0dbd
000003e0: bb23 8ebd d987 4d3a 3659 09bb d145 363d
000003f0: 6185 04bd 9013 5bbd 76f1 b33c a0d6 41bd
-0.010805255 0.052970845 -0.06461896 -0.11025623 -0.09410209 -0.1040245 -0.13983983 -0.04630341
-0.010042331 -0.0711339 -0.15619949 0.033387262 0.0037352364 -0.015834171 -0.1758451 -0.0456787
-0.14194804 -0.14111795 -0.14275183 -0.033098217 -0.09610802 0.06585703 0.013594765 -0.10858324
-0.017067073 0.03753708 -0.14057548 -0.08154816 -0.15902427 0.009703462 0.007251244 0.10116385
0.058064546 -0.035395645 0.053950682 -0.12239639 -0.0016749668 -0.064964786 -0.12139729 -0.06316763
-0.004191349 0.038189054 -0.021288097 -0.119769946 -0.11581768 -0.098000646 -0.055946585 -0.05780908
0.05727981 -0.07605349 -0.05003929 -0.16054617 -0.011809343 -0.29663652 -0.023954736 -0.1323294
-0.10362788 -0.061024472 -0.17098822 0.005202977 0.044076014 -0.05548591 -0.087784335 -0.120645724
-0.043173004 0.046447083 -0.089709945 -0.114710264 0.033437137 -0.120649025 -0.088093154 -0.17264558
-0.050770182 -0.06406486 -0.15196441 -0.17001778 -0.02259056 -0.076060385 0.03129833 -0.115140975
-0.022318434 -0.017748028 -0.08797534 -0.033694707 -0.024334926 0.024624527 -0.087461516 -0.34906274
-0.3392291 -0.040733304 -0.050712653 0.038773783 -0.11430304 -0.08072731 -0.20008118 0.06373654
-0.110394835 -0.16993663 -0.045102157 -0.0038314676 0.00594992 -0.052178208 -0.045930322 -0.13312659
-0.22499609 -0.044750433 -0.06286344 -0.10560129 -0.26719964 -0.08222857 -0.17179629 -0.025066316
-0.03972218 -0.17700122 -0.07630188 0.020346547 -0.07879268 -0.19193336 0.009098786 -0.020820135
-0.10695708 -0.0049057477 0.004840506 -0.14645028 -0.19467859 0.03903771 -0.11262025 -0.012438936
0.017590253 -0.041105263 -0.07692043 -0.2854225 -0.0016209551 -0.31913063 -0.04632841 -0.11296079
-0.029752264 -0.11800311 -0.12126492 -0.15385483 0.0019227916 -0.1897826 -0.04601191 -0.05462485
-0.35178953 -0.10462953 -0.0012261532 -0.010926339 -0.000117280804 -0.05237443 -0.04275299 -0.047823235
-0.17803869 -0.17963731 -0.015412661 -0.023472905 -0.24468292 -0.10819858 -0.2587256 -0.102504246
-0.013544583 -0.07634787 0.0039380398 -0.21683626 -0.13252893 -0.085382365 -0.22984341 -0.0062315706
-0.09274293 0.035773776 0.04004839 -0.028365457 -0.18369983 -0.15488264 0.045001823 -0.16764535
-0.015025212 -0.07783102 -0.078439854 -0.012550947 -0.06756122 -0.2572029 -0.009401357 -0.09400411
-0.13876078 -0.026240116 0.041549042 -0.2633885 -0.35029078 -0.09178416 0.046454825 0.029563433
-0.059311558 -0.12206009 -0.164055 -0.0464696 -0.061493218 -0.038311932 -0.11366542 -0.19268827
0.027906466 -0.01864335 0.042268082 0.046896208 0.023807488 -0.037567228 -0.060973722 -0.027282737
0.0036234648 -0.0905882 -0.039588876 -0.0032318651 0.0038121962 -0.051598087 0.023784818 -0.032976832
-0.030191103 0.005015383 0.053760506 0.053754665 -0.02008234 0.06250237 -0.03362511 -0.03002493
0.014842353 -0.0068075596 0.0152555555 -0.00960474 -0.0026556076 -0.082318455 -0.04888452 -0.061388295
-0.025766825 0.01427612 0.0018077773 -0.027231226 0.052903123 0.032710984 0.03597873 0.04235518
-0.03831874 -0.016206179 0.0005397797 0.115295246 -0.031103862 0.07983923 -0.023687743 -0.034546703
-0.06940409 0.0007840372 -0.0020957715 0.044500176 -0.032353763 -0.053485453 0.021965723 -0.047323823
